models/food/intialstate_200_1.pt (torch_old, 2014 bytes, 5 tensors)

fcn1.weight f4 [6, 6]
000000 97 e5 84 3e 42 78 b3 be a0 06 6e be 55 b8 04 be
       0.25956413 -0.35052687 -0.23244715 -0.12960942
000010 0e 00 87 be 98 17 27 3e ff 56 82 be a8 c0 f7 3e
       -0.2636723 0.16317594 -0.25456998 0.48389173
000020 55 49 0c bd 91 3a c2 3e 63 dd f1 3c 9d 22 33 bd
       -0.034249622 0.37935308 0.02952451 -0.04373418
000030 3b 46 b9 3e c9 35 38 be 36 8b 64 be ac 4d c9 3c
       0.36186394 -0.17989267 -0.2231873 0.02457317
000040 bf a9 f1 3e 96 35 ad be af 8f 7e be 94 71 85 be
       0.47199818 -0.33829945 -0.24859498 -0.26063216
000050 99 4e 38 be 60 68 10 be 64 be c2 bd 15 d2 6d be
       -0.17998733 -0.14102316 -0.095089704 -0.23224671
000060 0d 4f 99 3d 44 c8 45 3d 04 e8 0d be d1 cb ae be
       0.07485781 0.04828669 -0.13858038 -0.34139875
000070 49 a3 05 bd 99 ce 04 3e 5b d8 a8 3e 45 96 ef 3a
       -0.032626424 0.12969436 0.32977566 0.0018279037
000080 d8 2d ae be 52 20 c0 be 57 02 1b be e0 2c b9 bd
       -0.3401935 -0.37524658 -0.15137611 -0.09041762

fcn1.bias f4 [6]
000000 af 34 f8 3c a6 7a 17 3c 77 9f 87 3e 10 09 0b be
       0.030298559 0.00924555 0.2648885 -0.13577676
000010 3c c7 d1 3e fe d4 f8 3d
       0.40972316 0.1215

fcn2.weight f4 [12, 6]
000000 ba 85 00 be 57 ef af 3e 58 6f ac 3d ce 0c 8e be
       -0.12551013 0.3436229 0.08419675 -0.27744144
000010 4f d4 7b be 86 0f 83 3e 34 ee 3e 3e 3c 34 a3 3e
       -0.24592708 0.2559778 0.18645555 0.3187579
000020 38 73 00 bd f0 31 92 3e f4 d7 4f 3e a8 48 01 3e
       -0.03135988 0.28553724 0.20297223 0.12625372
000030 9c 82 c1 bd 36 86 ad 3e 22 40 98 3d 2c b9 d7 bd
       -0.0944874 0.33891457 0.07434107 -0.105333656
000040 e6 1c f4 bd d8 7a cd 3e 4c 19 d9 3e f1 5c 13 be
       -0.119195744 0.40132785 0.42402112 -0.14390923
000050 8c b0 0a 3f 34 94 37 3e 9e c0 9e bd d0 a0 50 be
       0.5417564 0.17927629 -0.077515826 -0.20373845
000060 8e 04 73 3e c0 c8 f4 3e be ff c5 be 80 b3 2b 3e
       0.23732206 0.4780941 -0.38671678 0.16767693
000070 2a 6a 9c 3d 59 d2 74 bd ed 1c be 3c 38 de 31 3e
       0.07637437 -0.059770916 0.023207152 0.17369926
000080 20 5b 74 3e 12 2d 8d 3e 42 5f 8e 3e 10 b0 b4 3e
       0.23862886 0.27573448 0.2780705 0.35290575
000090 26 64 b8 3e 68 2c 02 3e 30 39 78 3d 1e 32 18 be
       0.36013907 0.12712252 0.060601413 -0.14862868
0000a0 9c 4b 99 3e 58 f3 76 3d cb 7b 02 3e ce 10 09 3f
       0.29940498 0.060290664 0.12742536 0.53541267
0000b0 cc 74 71 be 62 2c 93 3e 49 18 66 be fd da 53 3e
       -0.2357971 0.287448 -0.22470202 0.20689006
0000c0 68 85 a4 3e ba d7 15 be 60 e2 6f 3c 68 90 36 be
       0.3213303 -0.14633074 0.014641374 -0.17828524
0000d0 e0 13 29 be 10 48 a9 bd 80 68 36 bb 62 ba 11 be
       -0.16511488 -0.08265698 -0.0027833283 -0.14231256
0000e0 47 51 c5 be 89 d8 7c be 18 e5 0e bd fa 73 05 be
       -0.38538572 -0.24691977 -0.03488645 -0.13032523
0000f0 20 8b 8d 3e d9 69 f2 3e a5 23 d0 3e 00 05 39 3e
       0.27645206 0.4734638 0.40652195 0.18068314
000100 61 2b d7 be d1 95 10 3f 7c 31 b8 be 80 6f 09 be
       -0.42025283 0.564786 -0.35975254 -0.1342144
000110 1c 1d 93 be 58 54 16 3e 70 ee ad be 30 18 4e be
       -0.28733146 0.14680612 -0.33970976 -0.20126414

fcn2.bias f4 [12]
000000 0b d7 8e be ca 7b 80 be 6d 68 7e be 88 04 cd 3e
       -0.2789844 -0.25094444 -0.24844523 0.4004252
000010 aa f4 b9 3d c3 38 fe 3d 72 7e cf be 65 cd b9 3e
       0.09079869 0.1241317 -0.40526158 0.36289516
000020 7c 10 b6 bd 66 d4 bf be ce b0 8f 3e 04 13 e2 bd
       -0.08889863 -0.37466735 0.2806458 -0.11038783

fcn3.weight f4 [12, 12]
000000 23 6e 83 3e 85 c8 48 be 8f 5f d3 be 91 da b3 be
       0.25669965 -0.19607742 -0.41283843 -0.3512769
000010 0e 7b 97 3e f9 b7 35 be 23 ed 88 be 21 5d 49 3e
       0.2958607 -0.17745961 -0.2674342 0.19664432
000020 00 bd 96 bc c0 95 d5 3d 69 49 92 be 20 07 53 be
       -0.01840067 0.10428953 -0.28571633 -0.20608187
000030 6d f8 4e 3e 99 3e 0e be 04 9c b2 3e a2 f5 bf 3e
       0.20211954 -0.13891067 0.34884655 0.3749209
000040 13 76 be be f8 a3 72 3c f8 56 0e 3d 81 e4 d5 be
       -0.37199458 0.014809601 0.03475091 -0.41775897
000050 68 90 b5 3d 56 55 f6 bd af 76 40 3c 68 85 64 be
       0.08865434 -0.12027995 0.011747046 -0.22316515
000060 4a 7c 06 3e 53 5f 3c be 9a 7f c2 be d6 82 57 be
       0.1313335 -0.18395738 -0.37987977 -0.21046004
000070 ad 45 68 3c d4 1c da be cc 43 ee 3d 45 18 d4 3c
       0.014176768 -0.4260012 0.11634025 0.025890479
000080 5a 0f 4f 3e 8c 14 50 3e 49 f5 a6 be 20 54 2c be
       0.202207 0.20320338 -0.32609013 -0.16828966
000090 6b 28 ca bd b0 26 2d 3e 8d b7 0f 3e c9 e7 11 3d
       -0.0987099 0.1690929 0.14034863 0.03562144
0000a0 76 6a 96 3b 99 46 d7 3e f0 89 5a 3e 57 ad ba be
       0.004590328 0.4204605 0.21341681 -0.36460373
0000b0 28 96 75 bd 20 cd 62 bd 14 35 c9 3e 75 e3 18 be
       -0.059957653 -0.055371404 0.39298308 -0.14930518
0000c0 43 40 28 be 80 ff 93 3b 4c 2b 9a 3d 4d 4b 68 3e
       -0.16430764 0.004516542 0.075277895 0.22684975
0000d0 f3 43 04 3e e6 d7 7e bd 96 f2 56 3e f6 7a a9 3e
       0.12916546 -0.062217616 0.20990977 0.33101624
0000e0 58 77 81 3d 65 c7 85 be eb e1 8f 3e d8 6a 44 3e
       0.06321591 -0.26128688 0.2810205 0.19181383
0000f0 84 5f aa 3d e6 86 e4 bd 7e 9b 33 3e 3a d9 01 3d
       0.083189994 -0.11158542 0.17539784 0.031701304
000100 8a 22 c3 3d f3 c7 da 3e b0 ca 09 bd a1 19 ae be
       0.09528072 0.42730674 -0.033640563 -0.34003928
000110 b0 e3 2d 3e e4 de 16 3e 8a 43 9c 3e 75 6d 5e be
       0.16981387 0.14733464 0.30520278 -0.21721442
000120 9f 2b bf 3d 32 4c fc bd e9 f8 cd be 70 84 b1 be
       0.09334492 -0.123192206 -0.40228966 -0.34671354
000130 59 fe 96 3e 70 46 31 bd 7a b8 81 be 0d f7 9f 3e
       0.29490927 -0.043280065 -0.25336057 0.31243172
000140 cc 80 62 3e 9c 66 60 3e b0 3d 85 3d 30 9d 39 bd
       0.22119445 0.21914142 0.065059066 -0.04531592
000150 21 1f 41 3e 00 6c 67 3e 48 8f 00 3c 48 53 ad be
       0.18859531 0.22599792 0.007846661 -0.338526
000160 96 7c 90 3d f4 ec a8 3d 68 5c 61 3e a4 c4 a6 3e
       0.07055013 0.0824832 0.22007906 0.325719
000170 d6 19 f7 bd c4 2c 6a bd 4c 3e b3 be f2 76 28 be
       -0.12065475 -0.057171598 -0.35008466 -0.16451624
000180 9d 76 60 3e fe 9f 72 be ca 03 64 be 01 dc 9b bd
       0.21920247 -0.23693845 -0.2226707 -0.07610322
000190 26 dd 0f bd a4 e9 bb bd 04 14 3e bd 6b b0 f6 bc
       -0.035123013 -0.09175423 -0.046405807 -0.03011342
0001a0 55 d7 62 be 88 2d 23 3d 22 b9 d3 be dc 63 37 3e
       -0.22152455 0.039838344 -0.41352183 0.17909187
0001b0 25 58 8d 3e cc 03 d3 bd 79 d6 cf bd 13 a9 8e be
       0.2760631 -0.103034586 -0.10148329 -0.27863368
0001c0 7b d3 6c bc 27 67 93 be 14 d3 0c be 10 0c 44 3e
       -0.014454718 -0.28789636 -0.13752395 0.19145226
0001d0 60 89 07 bd 10 d0 a5 3c 01 8b b7 be 60 b7 39 be
       -0.033089995 0.020240813 -0.3584824 -0.18136358
0001e0 89 b9 7a be 8c 76 54 be 4b 2c c8 3e 90 a3 80 3e
       -0.24484839 -0.20748347 0.39096293 0.25124788
0001f0 75 46 e9 be 05 18 e4 3d 90 ca bd 3c d3 47 9c 3d
       -0.45561567 0.11137394 0.023167878 0.07630887
000200 58 14 89 3e 14 c3 8e 3d 39 10 b3 3e a0 60 d2 bd
       0.26773334 0.06970802 0.34973314 -0.10272336
000210 49 32 c5 bb 20 72 32 be a1 26 5b 3e 85 45 cd 3e
       -0.0060179573 -0.17426348 0.21401455 0.40092102
000220 b8 70 71 3c 2e ed d9 3e 10 32 05 be c5 19 35 be
       0.014736347 0.42563766 -0.13007379 -0.17685612
000230 88 e6 73 3d 30 a8 6d 3e 54 83 05 be 8f 2c 11 be
       0.059546024 0.2320869 -0.13038379 -0.14177154
