models/food/intialstate_600_4.pt (torch_old, 2014 bytes, 5 tensors)

fcn1.weight f4 [6, 6]
00000000: 4f32 0c3e 9721 3abe d4ea 75be 4300 1fbe
00000010: a291 ce3e a04b 4cbd a631 adbe b6c2 d53e
00000020: 0e3c c03d 19fa a13d 0e12 10be 6ad1 a13e
00000030: a14f a8be cf73 883e 79a5 543e 1230 97bd
00000040: 6058 a83e baea c23e 9f64 dd3e a622 cabd
00000050: f873 7cbe c361 cfbd 2b18 90be 4078 653c
00000060: 6a9b f13e 0250 013f e65f bb3e b9c2 743d
00000070: 501f 52be 7938 7d3e 654b 8c3e 499d b3bc
00000080: 0227 aabd e47e 1f3e 57db 103e 879a 99be
0.13691066 -0.18176876 -0.24015361 -0.15527444 0.40345484 -0.04987681 -0.3382694 0.41750115
0.093864545 0.079090305 -0.14069387 0.31605083 -0.32873252 0.26650855 0.20766248 -0.073822156
0.32879925 0.38069707 0.4324083 -0.0986989 -0.24653614 -0.101260684 -0.2814344 0.014005721
0.47188884 0.5051271 0.36596602 0.059756014 -0.20519757 0.24728574 0.2740127 -0.021925585
-0.083082214 0.15575749 0.14146172 -0.30000708

fcn1.bias f4 [6]
00000000: c952 68be e6b1 9b3e 518a d63e 3d35 dfbd
00000010: b840 ac3c 9cbd 61be
-0.2268783 0.30409163 0.41902402 -0.10898826 0.021026954 -0.22044986

fcn2.weight f4 [12, 6]
00000000: 207b 08be 6e89 be3e e6e7 b9be 487c 473e
00000010: 10de bbbe 6b72 47be 2442 aabd 30bd e73c
00000020: 98c7 87bd 4818 3fbe b776 3abe 3745 7ebe
00000030: d23f adbe ebf5 3cbe 0b58 e13e a9f8 44be
00000040: 1ebd 0dbf 49e9 803e 502f 223e 9ac7 8f3e
00000050: 0bea cfbe 22f7 c6be 795a 94be 6a3a 5cbe
00000060: ad8a 6e3d 10b4 843e 1f41 173e 9532 bdbe
00000070: fd34 523e ab5b ddbe 302f c03d b840 033e
00000080: 20cd 853d 28e8 133e a0fd a6bc 9afe 893e
00000090: 76ae 193e 2953 f13e 2484 b33c db49 77be
000000a0: 2f72 9e3e e28b 3cbe d781 a23e 99ab 0d3d
000000b0: 07c7 bf3e aecd 78be 7af6 363e 896d 81be
000000c0: 378f 5f3e a28a 013c 2ebe af3e 5674 dbbe
000000d0: ad4b 01bf 6271 a53e 5afd 2bbe 7090 253e
000000e0: a905 78be a03b 01be 00ba ef3a f0bf 7b3e
000000f0: f536 923e 48f8 3e3d 3079 85be 89e1 923d
00000100: 30f7 923e 2d38 f6be b47a ffbd 5f7f c9be
00000110: 805f 713d 90ca 45bd 34d2 6c3e 7efb a63e
-0.13328218 0.37214226 -0.36309737 0.19481003 -0.36692858 -0.1947724 -0.083133966 0.028288454
-0.06629866 -0.18661606 -0.18209349 -0.24831091 -0.33837754 -0.18453185 0.44012484 -0.19235481
-0.55366695 0.25177982 0.15838361 0.2808197 -0.40608248 -0.38860422 -0.28975275 -0.21506658
0.05823772 0.25918627 0.14770935 -0.36952654 0.20528026 -0.43234 0.09384 0.12817657
0.06533265 0.1444403 -0.02038461 0.26952058 0.15007958 0.4713376 0.021913595 -0.24149267
0.3094649 -0.18412736 0.31739685 0.034587476 0.37456533 -0.2429721 0.17867461 -0.2527888
0.21831976 0.007906588 0.34324783 -0.42862195 -0.505061 0.32313067 -0.16795865 0.1616838
-0.24220909 -0.12620401 0.0018289685 0.24584937 0.28557554 0.0466235 -0.2606902 0.07171924
0.28704214 -0.48089734 -0.12474576 -0.3935499 0.058928967 -0.04828888 0.23127061 0.32613748

fcn2.bias f4 [12]
00000000: c4b8 b2be f102 39be 68c5 5d3c 0066 85bb
00000010: 7dc1 b0bd 246c 83be 9d0e bcbd 2da3 c03b
00000020: eccd aa3e b014 d5bd e960 8a3e c0f6 a8be
-0.3490659 -0.18067528 0.013535835 -0.0040709972 -0.08630655 -0.25668442 -0.09182475 0.005878827
0.3336023 -0.104043365 0.27027062 -0.33000755

fcn3.weight f4 [12, 12]
00000000: c081 533c 33ae 66be ec16 f7be 005c ea3c
00000010: 7e5b 5ebd 9ca0 593e ef6b 9f3e 8e1c 75be
00000020: 6ec6 06be 7800 4abd 4593 043b 905f 4ebe
00000030: 862f fabd ac82 023e fe42 09be 2ce9 313e
00000040: e521 633d 9487 193e da1a 1f3e 9ab7 3bbd
00000050: 123a 22be b66c 86be c8ec 3c3e 7c38 c2bd
00000060: b6d9 c5bd f074 edbd de0e 143e c03c 5abe
00000070: 4583 88bd 0037 40bc f511 37be 3775 553e
00000080: a992 ae3e e4f7 a63d ed70 9abe f0cf 163d
00000090: 0264 4bbe eaf8 4d3e f2c2 fc3e 0c8a 30bd
000000a0: 66d0 1f3e 30b6 8a3e 7fe4 e4bd cc32 dcbd
000000b0: fd6f 323e 0067 433d 57b1 edbe b085 93bc
000000c0: d4c2 d5bd 3c41 453e 38e2 2bbe e47c 423e
000000d0: 544c 973e 0848 b9bd 1d47 013e cd51 03bd
000000e0: f53a 63be f0fa 23be 607a 163e c09f b33d
000000f0: bcf6 4fbd d0cc 483d f3a6 b83e 9076 f63d
00000100: 333f 973d 8c26 a63d 9ea6 98be 2d5f 20be
00000110: 75a8 e6bd 8440 423e d940 cdbe f4b0 5cbe
00000120: 4eac 423e b4bb 2e3e 40f5 adbe fccd 2a3e
00000130: 9a72 b6bd 08bf 7e3d 9502 64be 08fd 23bd
00000140: 964c 2b3d ec64 613e e2fc 2e3e 33be 20be
00000150: b5e5 41be 90e8 8fbc 5e0e 833e 3214 223e
00000160: d273 a4be b03f c1bc e3d1 49bd ca37 f5bd
00000170: 78b8 a93e 76ef 9cbd 2ef7 d5be 837f 30be
00000180: a0a5 173c 98fa 5bbe 55fe 663d 28c8 8f3e
00000190: 2d93 0d3d 6ca5 91bd 9ce1 a43e 7f41 443e
000001a0: 72ef 453e 7062 b33c f979 3c3d 953f 65be
000001b0: 80b9 f03c 88c2 8f3e a524 b3bd 62e5 83be
000001c0: 3721 473e 66a5 843e f7a6 9b3e d832 b03b
000001d0: d840 063c c059 3f3d 520f babc f086 2cbd
000001e0: b827 713e 4044 f13c c383 f33e e94c 44be
000001f0: ff9f e7bd 80b2 5d3b 7575 86be d6c6 483e
00000200: 5cdd aa3e 0673 1fbe 98d2 963d 16d2 893e
00000210: 4bcf 2dbe a022 23bc 855e 063f 39e8 3fbe
00000220: 4bb7 3abd 8adc 4abe d396 493e 18f4 8a3d
00000230: 13fc 8c3e ca1d 543e e98c 6cbe 9fbd 93be
0.012909353 -0.22527389 -0.48259676 0.028608322 -0.054286472 0.21252674 0.31137034 -0.23936674
-0.13161632 -0.049316853 0.002022938 -0.20153642 -0.122160956 0.1274516 -0.13404462 0.17374104
0.055452246 0.14993125 0.15537587 -0.045829393 -0.15842465 -0.26254815 0.184497 -0.0948343
-0.09660666 -0.1159457 0.14458796 -0.21312237 -0.06665663 -0.011731863 -0.17877944 0.20845495
0.34096268 0.0815275 -0.3016428 0.0368194 -0.19862369 0.20114484 0.4936748 -0.0431004
0.15606841 0.27092123 -0.11176395 -0.10751876 0.17425533 0.04770565 -0.46424362 -0.018008083
-0.10437551 0.19263166 -0.16785514 0.18992954 0.2955042 -0.09046942 0.12624784 -0.032060433
-0.22190459 -0.16013694 0.1469512 0.08770704 -0.050772414 0.04902345 0.36064872 0.12034333
0.07385101 0.08112821 -0.2981462 -0.15661307 -0.112625994 0.18969923 -0.40088537 -0.21551877
0.19011042 0.1706379 -0.33976173 0.1668014 -0.08908577 0.0621939 -0.2226661 -0.04003623
0.041821085 0.22011155 0.17088655 -0.15697555 -0.18935283 -0.01756695 0.255969 0.15828016
-0.32119614 -0.023589939 -0.04927243 -0.119735315 0.3314855 -0.07662861 -0.41790146 -0.17236142
0.009255797 -0.21482313 0.056394894 0.28082395 0.034564186 -0.0711163 0.32203376 0.1916561
0.19329622 0.021897525 0.04601476 -0.22387536 0.029385328 0.28078103 -0.08747224 -0.25760943
0.19446264 0.2590744 0.30400822 0.005377155 0.008194171 0.04671645 -0.022712383 -0.042120874
0.23550308 0.02945149 0.47561464 -0.19169964 -0.11309814 0.0033828318 -0.26261488 0.196071
0.3337201 -0.15571222 0.07364386 0.26918095 -0.16973607 -0.009956986 0.52487975 -0.1874093
-0.045584958 -0.19810691 0.19686441 0.067848384 0.27536067 0.20714489 -0.23100628 -0.28855607
