models/food/intialstate_200_4.pt (torch_old, 2014 bytes, 5 tensors)

fcn1.weight f4 [6, 6]
000000 91 21 91 3e 2a 73 ca bd 27 01 e0 bd cb 76 b4 3c
       0.28345922 -0.09885247 -0.1093772 0.022029301
000010 a6 ea 09 3f b5 ec d6 3c 2c 69 50 be 0a f8 b5 3e
       0.5387367 0.026235918 -0.2035262 0.355408
000020 c6 17 63 3e b6 85 df 3d fb fd 6a bd 2f ac a9 3e
       0.22177038 0.10914175 -0.05737112 0.33139178
000030 2e dc ab be 95 c0 6e 3e 81 ef 82 3e 29 73 5a be
       -0.3356642 0.23315652 0.25573352 -0.21332993
000040 f6 4c ce 3e 2b e8 f6 3d 45 85 b1 3e 80 97 c2 bd
       0.40293092 0.12056001 0.3467199 -0.095015526
000050 68 ae 78 be 6d a1 3f be 62 35 8e be 40 78 65 3c
       -0.2428528 -0.18713923 -0.27775103 0.014005721
000060 e3 27 03 3f 4b 68 e5 3e e6 eb ed 3e d0 6e f9 3d
       0.5123274 0.44806132 0.4646904 0.12179339
000070 c6 34 11 be 82 ee b7 3e d2 41 a2 3e b6 97 42 bb
       -0.14180288 0.35924155 0.31690842 -0.0029692478
000080 e0 84 04 3c 9c b9 4b 3e 10 6a a8 3d e5 f9 b5 be
       0.0080883205 0.19895023 0.08223355 -0.35542217

fcn1.bias f4 [6]
000000 ca 80 93 bd 62 75 91 3e 05 38 d2 3e 2b 59 47 be
       -0.07202299 0.28409868 0.41058365 -0.19467609
000010 89 51 38 3c a2 e1 8c be
       0.011249908 -0.27515894

fcn2.weight f4 [12, 6]
000000 20 7b 08 be 6e 89 be 3e e6 e7 b9 be 48 7c 47 3e
       -0.13328218 0.37214226 -0.36309737 0.19481003
000010 10 de bb be 6b 72 47 be 24 42 aa bd 30 bd e7 3c
       -0.36692858 -0.1947724 -0.083133966 0.028288454
000020 98 c7 87 bd 48 18 3f be b7 76 3a be 37 45 7e be
       -0.06629866 -0.18661606 -0.18209349 -0.24831091
000030 e9 87 11 be 24 91 48 be a0 eb 02 3f a9 f8 44 be
       -0.14212002 -0.19586617 0.51140785 -0.19235481
000040 04 88 00 bf be e0 1b 3e 50 2f 22 3e 9a c7 8f 3e
       -0.50207543 0.15222451 0.15838361 0.2808197
000050 0b ea cf be 22 f7 c6 be 79 5a 94 be 6a 3a 5c be
       -0.40608248 -0.38860422 -0.28975275 -0.21506658
000060 ba 83 16 be ee d0 1e 3e 2d e9 ee 3d 26 c8 b3 be
       -0.14698687 0.15509388 0.116655685 -0.3511364
000070 3b e3 85 3e a3 1f c2 be 30 2f c0 3d b8 40 03 3e
       0.26149926 -0.37914762 0.09384 0.12817657
000080 20 cd 85 3d 28 e8 13 3e a0 fd a6 bc 9a fe 89 3e
       0.06533265 0.1444403 -0.02038461 0.26952058
000090 29 e0 7d bd 5d 54 af 3e 3d 3c b0 bc 6c c4 49 be
       -0.061981354 0.34244052 -0.021513099 -0.19703835
0000a0 f5 49 9c 3e a8 9f 08 be 57 09 10 3f 48 92 ec bd
       0.30525175 -0.13342154 0.5626425 -0.115513384
0000b0 89 69 fe 3e b9 30 5b be e0 ca e0 3d 6a 83 26 be
       0.49689892 -0.21405305 0.10976195 -0.16261068
0000c0 1c 32 e0 3e 87 7c 4b bd 02 6e b7 3e f7 1a b3 be
       0.4378823 -0.049679305 0.35826117 -0.3498151
0000d0 a3 f1 03 bf 9c b8 be 3e 5a fd 2b be 70 90 25 3e
       -0.51540583 0.3725022 -0.16795865 0.1616838
0000e0 a9 05 78 be a0 3b 01 be 00 ba ef 3a f0 bf 7b 3e
       -0.24220909 -0.12620401 0.0018289685 0.24584937
0000f0 74 24 8f 3d c7 be e0 bd 61 8e 80 be e3 dc c2 3c
       0.06989375 -0.10973888 -0.25108626 0.023786968
000100 41 0e 96 3e 93 dd ed be b4 7a ff bd 5f 7f c9 be
       0.2930775 -0.4645811 -0.12474576 -0.3935499
000110 80 5f 71 3d 90 ca 45 bd 34 d2 6c 3e 7e fb a6 3e
       0.058928967 -0.04828888 0.23127061 0.32613748

fcn2.bias f4 [12]
000000 c4 b8 b2 be f1 02 39 be b2 0c 31 3d 00 66 85 bb
       -0.3490659 -0.18067528 0.043224998 -0.0040709972
000010 75 dc 9e bd 24 6c 83 be e0 5b 8c bd 2c 17 22 bc
       -0.077568926 -0.25668442 -0.06853461 -0.00989322
000020 22 f9 91 3e b0 14 d5 bd dd fb 89 3e c0 f6 a8 be
       0.28510386 -0.104043365 0.2694997 -0.33000755

fcn3.weight f4 [12, 12]
000000 c0 81 53 3c 33 ae 66 be 72 ab d9 be 00 5c ea 3c
       0.012909353 -0.22527389 -0.42513615 0.028608322
000010 bd 5d 07 bd 9c a0 59 3e aa dc a5 3e b9 2e c4 be
       -0.03304838 0.21252674 0.32394916 -0.38316897
000020 79 21 24 be 78 00 4a bd b0 9e 0c bd 90 5f 4e be
       -0.16028394 -0.049316853 -0.034331024 -0.20153642
000030 86 2f fa bd ac 82 02 3e a1 57 c4 bd 2c e9 31 3e
       -0.122160956 0.1274516 -0.095870264 0.17374104
000040 87 48 80 3d 94 87 19 3e 28 ba 02 3e e4 58 4a be
       0.062638335 0.14993125 0.12766325 -0.19760472
000050 42 38 29 be b6 6c 86 be 70 69 07 3e 7c 38 c2 bd
       -0.16525367 -0.26254815 0.13223815 -0.0948343
000060 b6 d9 c5 bd f0 74 ed bd 9b 94 aa 3d c0 3c 5a be
       -0.09660666 -0.1159457 0.083291255 -0.21312237
000070 9f 6a 95 bd 00 37 40 bc bb 69 25 be de 9d b6 3e
       -0.07295727 -0.011731863 -0.16153614 0.35667318
000080 24 10 a6 3e e4 f7 a6 3d de 68 67 be f0 cf 16 3d
       0.3243419 0.0815275 -0.22598597 0.0368194
000090 02 64 4b be ea f8 4d 3e 83 3d dc 3e 0c 8a 30 bd
       -0.19862369 0.20114484 0.4301568 -0.0431004
0000a0 30 e4 f3 3d 30 b6 8a 3e 4c d8 d2 bd 51 94 12 3d
       0.11908758 0.27092123 -0.102951616 0.035785977
0000b0 ac 6e 1d 3e 00 67 43 3d e0 c3 d2 be b0 85 93 bc
       0.15374249 0.04770565 -0.41165066 -0.018008083
0000c0 d4 c2 d5 bd 3c 41 45 3e 8d 6b 19 be e4 7c 42 3e
       -0.10437551 0.19263166 -0.14982434 0.18992954
0000d0 24 32 5b 3e 08 48 b9 bd d1 b3 97 3d b9 f0 25 be
       0.21405846 -0.09046942 0.07407344 -0.1620511
0000e0 0a 72 7d be f0 fa 23 be 19 c3 f5 3d c0 9f b3 3d
       -0.24750534 -0.16013694 0.120001025 0.08770704
0000f0 bc f6 4f bd d0 cc 48 3d 93 cf 15 3d 90 76 f6 3d
       -0.050772414 0.04902345 0.03657491 0.12034333
000100 7b 22 66 3e 8c 26 a6 3d a1 19 e8 bd b0 d3 80 be
       0.22474091 0.08112821 -0.11333013 -0.25161505
000110 b9 49 bd be 84 40 42 3e ad cc ee bd f4 b0 5c be
       -0.36970308 0.18969923 -0.116601326 -0.21551877
000120 4e ac 42 3e b4 bb 2e 3e b2 37 a2 be fc cd 2a 3e
       0.19011042 0.1706379 -0.31683117 0.1668014
000130 53 43 db 3c 08 bf 7e 3d 88 a0 90 bd cf e2 64 3d
       0.026765501 0.0621939 -0.07061869 0.055880364
000140 2b ad ea 3d ec 64 61 3e 5a c0 74 3e 33 be 20 be
       0.114588104 0.22011155 0.23901501 -0.15697555
000150 b5 e5 41 be 90 e8 8f bc 30 87 69 3e 32 14 22 3e
       -0.18935283 -0.01756695 0.22805476 0.15828016
000160 13 f9 5a be b0 3f c1 bc 92 a5 c1 3c fd 02 ff bb
       -0.21384077 -0.023589939 0.02363852 -0.0077823387
000170 bb b6 ad 3e 76 ef 9c bd 8c ea c3 be 83 7f 30 be
       0.33928475 -0.07662861 -0.38264883 -0.17236142
000180 a0 a5 17 3c 98 fa 5b be d1 89 6d 3e 28 c8 8f 3e
       0.009255797 -0.21482313 0.23197104 0.28082395
000190 60 e9 c9 bd 6c a5 91 bd 89 d5 22 3e e9 2b 8e 3e
       -0.09858966 -0.0711163 0.1590177 0.27767876
0001a0 91 79 b1 3e 70 62 b3 3c 8e 95 02 be 95 3f 65 be
       0.3466306 0.021897525 -0.12752363 -0.22387536
0001b0 80 b9 f0 3c 88 c2 8f 3e 56 c6 03 be 62 e5 83 be
       0.029385328 0.28078103 -0.12868628 -0.25760943
0001c0 5b 20 88 3d 66 a5 84 3e dc 70 09 3e e5 6d d8 bd
       0.06646796 0.2590744 0.13421959 -0.10567836
0001d0 a4 af 8b bd c0 59 3f 3d f2 f0 ef bb f0 86 2c bd
       -0.0682061 0.04671645 -0.007322424 -0.042120874
0001e0 b8 27 71 3e 40 44 f1 3c 97 f9 d5 3e e9 4c 44 be
       0.23550308 0.02945149 0.41791984 -0.19169964
0001f0 1c c0 04 be 80 b2 5d 3b 4d 9b 81 be 25 bd b2 3e
       -0.12963909 0.0033828318 -0.25313798 0.3490993
000200 df 76 a9 3e 06 73 1f be cc 7e 08 3e 16 d2 89 3e
       0.33098504 -0.15571222 0.13329619 0.26918095
000210 4b cf 2d be a0 22 23 bc 40 9d e5 3e 39 e8 3f be
       -0.16973607 -0.009956986 0.44846535 -0.1874093
000220 e8 de 1e be 8a dc 4a be 77 45 ce 3d 50 88 1a 3e
       -0.1551472 -0.19810691 0.10071843 0.15091062
000230 ad 98 87 3e ca 1d 54 3e b9 7c 40 be 9f bd 93 be
       0.2648367 0.20714489 -0.18797578 -0.28855607
