models/food/intialstate_200_3.pt (torch_old, 2000 bytes, 5 tensors)

fcn1.weight f4 [6, 6]
0.49758816 0.22183356 0.21131384 0.40980986 0.32970706 0.05008288 -0.33014318 -0.351201
-0.2109328 0.33695835 0.234756 0.1194846 -0.31089297 -0.3006768 0.3330691 -0.04237771
-0.4064809 -0.050468445 -0.08323452 -0.035072923 0.29049072 0.2838595 -0.3973979 0.15170111
-0.34278136 0.13054088 0.23308773 0.08350652 0.42894533 0.24676672 -0.27208677 0.25509506
-0.3755857 0.18765657 -0.11069666 0.5422108
00000000: e0c3 fe3e 5628 633e a862 583e 99d2 d13e
00000010: 5dcf a83e b523 4d3d 8708 a9be 9ed0 b3be
00000020: c5fe 57be ce85 ac3e e063 703e 58b4 f43d
00000030: 5d2d 9fbe 4ff2 99be 0888 aa3e 4094 2dbd
00000040: 441e d0be 00b8 4ebd dc76 aabd a0a8 0fbd
00000050: 33bb 943e 0856 913e bd77 cbbe 8957 1b3e
00000060: 0a81 afbe 82ac 053e 8dae 6e3e 7705 ab3d
00000070: b99e db3e 6ab0 7c3e f54e 8bbe d29b 823e
00000080: c54c c0be 0b29 403e eeb4 e2bd 54ce 0a3f

fcn1.bias f4 [6]
-0.28916523 -0.39998588 -0.10944286 0.16891727 0.3661767 0.24304686
00000000: 770d 94be f3ca ccbe 9423 e0bd a6f8 2c3e
00000010: 837b bb3e 47e1 783e

fcn2.weight f4 [12, 6]
0.4626954 0.12887299 -0.11666939 -0.24512923 -0.17060111 -0.0848882 -0.3510784 0.14035833
0.26365107 0.2944613 -0.40540454 0.25238296 -0.27125055 -0.03333342 0.3726793 0.39341092
-0.049326573 0.34993583 -0.3970773 0.31916058 0.39629406 -0.01853925 0.06718916 -0.095795274
-0.25844276 -0.18465589 -0.02711156 -0.33399382 -0.32995206 0.044804096 -0.29342204 -0.22206505
-0.0035305023 -0.38176262 0.39493272 -0.2518125 -0.35969806 -0.10876015 -0.33307892 0.1430449
0.4131991 -0.35946047 -0.22699825 0.381005 -0.29532444 -0.04819871 -0.40038532 -0.38930088
0.13998047 -0.23300266 0.22110146 -0.29385936 0.03983099 -0.3601938 0.2786264 0.37825137
-0.061371863 -0.14332823 -0.39573568 0.53946084 0.30656296 0.16860092 0.06950605 0.39356592
0.053691693 0.34710455 0.2553249 0.05788964 0.3516398 0.25385708 -0.012497246 -0.18234295
00000000: 69e6 ec3e 48f7 033e 5cf0 eebd 2803 7bbe
00000010: 0fb2 2ebe ddd9 adbd 8cc0 b3be 18ba 0f3e
00000020: 46fd 863e a2c3 963e 2f91 cfbe 5738 813e
00000030: 5ae1 8abe a088 08bd d2cf be3e 286d c93e
00000040: a90a 4abd ca2a b33e b74d cbbe 0469 a33e
00000050: 0ee7 ca3e a0df 97bc 789a 893d 5030 c4bd
00000060: 9c52 84be 6f16 3dbe 1019 debc 3d01 abbe
00000070: 7aef a8be 8084 373d 6a3b 96be 0565 63be
00000080: 0060 67bb 6476 c3be 9f34 ca3e 91ed 80be
00000090: 582a b8be a4bd debd 5289 aabe 5d7a 123e
000000a0: d58e d33e 340b b8be 3b72 68be 1613 c33e
000000b0: c434 97be 036c 45bd 4eff ccbe 7252 c7be
000000c0: 0a57 0f3e 4098 6ebe 6c68 623e bc74 96be
000000d0: d225 233d 526b b8be 1fa8 8e3e 2aaa c13e
000000e0: 1061 7bbd a3c4 12be de9d cabe 1b1a 0a3f
000000f0: d2f5 9c3e b8a5 2c3e 3059 8e3d 7981 c93e
00000100: d2eb 5b3d b0b7 b13e f2b9 823e b01d 6d3d
00000110: 220a b43e 8ef9 813e 40c1 4cbc 1cb8 3abe

fcn2.bias f4 [12]
-0.04703656 0.3008083 0.33183876 -0.16543218 -0.08523059 0.2342766 0.14893949 0.41199857
0.3120444 0.1591428 0.09390559 -0.3836712
00000000: 68a9 40bd 8c03 9a3e c5e6 a93e 0e67 29be
00000010: 608d aebd 34e6 6f3e 9883 183e 7af1 d23e
00000020: 49c4 9f3e 55f6 223e 9351 c03d 8d70 c4be

fcn3.weight f4 [12, 12]
0.046722714 0.08655649 -0.3211409 -0.2529278 0.19479308 -0.047863375 -0.3808305 0.0936677
0.29895157 0.31953046 0.4122692 -0.114143014 0.27647167 -0.16566694 -0.06757808 -0.18359607
-0.054968283 0.241973 0.1407816 -0.041963525 0.020026578 -0.070895076 -0.24491027 -0.15813464
0.06493983 0.1335795 0.30376545 -0.15851486 0.21139282 -0.15936334 0.005968797 -0.17726488
-0.13265876 -0.1674144 0.16795166 -0.1860623 0.26866952 -0.16459925 -0.20569326 -0.20162678
0.19473132 0.11598696 -0.35303208 -0.04736823 0.38512757 0.2049009 0.066971935 -0.22131477
0.035672806 0.2376983 0.08916033 -0.013302505 0.21049571 -0.070486665 0.05276129 -0.1534376
-0.27241173 -0.016009664 0.43674663 -0.022804886 0.4091011 0.18242122 -0.29219103 0.01962167
-0.073839486 0.15108329 0.321457 0.31044862 -0.015221223 -0.29530856 -0.3687686 -0.24509627
0.33927915 -0.10145923 -0.113111205 -0.00039216876 0.049384505 0.050703324 0.03539107 0.1560609
0.36255956 0.06457024 -0.14376359 0.040905803 0.37092707 0.002109156 0.06495492 -0.027374
0.0025030077 0.38801906 -0.1905853 0.15567248 0.41314456 -0.29045716 -0.20685898 -0.017392099
0.22714515 0.1405767 -0.06278694 0.113875 -0.123857886 0.26910618 0.037019778 0.30292457
0.071893975 -0.39650017 -0.11440709 0.15021157 0.07990406 -0.08357355 -0.060787268 0.15320954
0.02258727 -0.34685493 -0.2705149 -0.097167835 -0.043616563 0.32021978 0.07142298 0.22092539
-0.39873323 -0.38933718 0.12547058 -0.18278271 -0.08418459 -0.13321754 -0.39042273 0.04265814
-0.33135217 0.38209128 0.26272443 -0.054137915 -0.42035484 -0.06807351 -0.0016851719 0.24949121
-0.24284828 -0.24595289 -0.29492152 -0.33359036 -0.3092001 0.1385161 0.17812195 0.04889983
00000000: 5160 3f3d 8744 b13d 946c a4be c17f 81be
00000010: d677 473e 630c 44bd 37fc c2be dad4 bf3d
00000020: 2e10 993e 7f99 a33e f314 d33e d0c3 e9bd
00000030: b28d 8d3e 98a4 29be 6066 8abd 9c00 3cbe
00000040: 6c26 61bd c5c7 773e 0d29 103e f2e1 2bbd
00000050: c70e a43c 7031 91bd c2c9 7abe 0cee 21be
00000060: 2cff 843d 10c9 083e 2587 9b3e b851 22be
00000070: 5c77 583e 2530 23be e695 c33b ed84 35be
00000080: b3d7 07be ae6e 2bbe 85fb 2b3e 1e87 3ebe
00000090: 0d8f 893e b58c 28be 41a1 52be 4077 4ebe
000000a0: a667 473e 928a ed3d 9fc0 b4be 3005 42bd
000000b0: 712f c53e 8bd1 513e 9528 893d 57a0 62be
000000c0: a61d 123d 2f67 733e b199 b63d c0f2 59bc
000000d0: 308c 573e 505b 90bd 391c 583d bf1e 1dbe
000000e0: 8d79 8bbe b326 83bc 419d df3e 50d1 babc
000000f0: b375 d13e a1cc 3a3e 109a 95be a0bd a03c
00000100: 2839 97bd 94b5 1a3e 0396 a43e 1ff3 9e3e
00000110: 7062 79bc af32 97be 3dcf bcbe 84fa 7abe
00000120: ffb5 ad3e dbc9 cfbd d9a6 e7bd 009c cdb9
00000130: 6847 4a3d 4aae 4f3d 3af6 103d 6ece 1f3e
00000140: 68a1 b93e 673d 843d c336 13be d88c 273d
00000150: 27ea bd3e c439 0a3b 1607 853d 703f e0bc
00000160: 8009 243b 6faa c63e cb28 43be 9b68 1f3e
00000170: af87 d33e cdb6 94be d7d2 53be e079 8ebc
00000180: bd98 683e 57f3 0f3e 7096 80bd 4c37 e93d
00000190: 34a9 fdbd 49c8 893e 0da2 173d ee18 9b3e
000001a0: 263d 933d 1202 cbbe 444e eabd 10d1 193e
000001b0: bda4 a33d 9c28 abbd 12fc 78bd f6e2 1c3e
000001c0: f008 b93c f896 b1be ee80 8abe eeff c6bd
000001d0: 48a7 32bd d9f3 a33e 3646 923d 443a 623e
000001e0: c326 ccbe 3457 c7be 5c7b 003e 642b 3bbe
000001f0: f868 acbd 2e6a 08be 7de5 c7be 4dba 2e3d
00000200: fea6 a9be 78a1 c33e d183 863e b8bf 5dbd
00000210: c038 d7be 206a 8bbd fce0 dcba a07a 7f3e
00000220: 38ad 78be 13db 7bbe f4ff 96be 5bcc aabe
00000230: 7a4f 9ebe 2ad7 0d3e 9a65 363e 304b 483d
