models/food/intialstate_600_3.pt (torch_old, 2000 bytes, 5 tensors)

fcn1.weight f4 [6, 6]
000000 bc 7b a1 3e 43 fa 5c 3b a2 f2 97 3e 0c 8a 8f 3e
       0.31539714 0.0033718504 0.29677302 0.2803501
000010 a5 93 f7 3e f4 23 7f 3b 87 08 a9 be 9e d0 b3 be
       0.4835483 0.0038931342 -0.33014318 -0.351201
000020 c5 fe 57 be ce 85 ac 3e e0 63 70 3e 58 b4 f4 3d
       -0.2109328 0.33695835 0.234756 0.1194846
000030 5d 2d 9f be 4f f2 99 be 08 88 aa 3e 40 94 2d bd
       -0.31089297 -0.3006768 0.3330691 -0.04237771
000040 44 1e d0 be 00 b8 4e bd ce 1f 14 3d 53 5c 36 3e
       -0.4064809 -0.050468445 0.036163144 0.17808656
000050 8e e6 d0 3e 8a d5 72 3e 52 6a c7 be 24 d1 61 3e
       0.408009 0.23714271 -0.38948303 0.22052437
000060 be 2a 0b be 09 a5 7d 3e 5c 51 33 3e b4 b1 61 3e
       -0.13590524 0.24769987 0.17511505 0.22040445
000070 a0 a7 7a 3e e7 23 53 3e df 20 26 bf 75 c7 85 bd
       0.24478006 0.20619164 -0.6489391 -0.06532184
000080 95 ee de be c1 b6 d3 3a 58 1c 3c 3e 90 42 7c 3e
       -0.435414 0.0016152487 0.18370187 0.24634767

fcn1.bias f4 [6]
000000 47 d3 92 be f3 ca cc be 94 23 e0 bd 61 06 28 3e
       -0.28676817 -0.39998588 -0.10944286 0.16408683
000010 f1 a1 4f 3e d7 d5 b2 3e
       0.2027662 0.34928772

fcn2.weight f4 [12, 6]
000000 55 0d 9b 3e 48 f7 03 3e 5c f0 ee bd 49 8f 97 bd
       0.3028361 0.12887299 -0.11666939 -0.07400376
000010 c8 3a 96 be f3 9c 32 3e 21 6a 95 be 18 ba 0f 3e
       -0.29341722 0.17442684 -0.29182532 0.14035833
000020 46 fd 86 3e 2e d5 02 3f 13 5b b6 be 33 e7 89 3e
       0.26365107 0.51106536 -0.3561636 0.26934204
000030 b8 9c a8 be a0 88 08 bd d2 cf be 3e 86 8c be 3e
       -0.32932067 -0.03333342 0.3726793 0.37216586
000040 49 c4 08 be eb ea 3a 3e b7 4d cb be 04 69 a3 3e
       -0.13356127 0.18253677 -0.3970773 0.31916058
000050 0e e7 ca 3e a0 df 97 bc 78 9a 89 3d 50 30 c4 bd
       0.39629406 -0.01853925 0.06718916 -0.095795274
000060 9c 52 84 be 6f 16 3d be 10 19 de bc 3d 01 ab be
       -0.25844276 -0.18465589 -0.02711156 -0.33399382
000070 7a ef a8 be 80 84 37 3d 9e f8 71 be 05 65 63 be
       -0.32995206 0.044804096 -0.23629996 -0.22206505
000080 00 60 67 bb a6 9a ce be b9 40 b1 3e 73 c0 08 be
       -0.0035305023 -0.40352362 0.34619692 -0.13354664
000090 cc 9d b2 be a4 bd de bd 52 89 aa be 1d c2 cb 3e
       -0.34886014 -0.10876015 -0.33307892 0.39796534
0000a0 0f ab 82 3e c8 e5 c2 be b6 fc 4e be 16 13 c3 3e
       0.25521132 -0.38065934 -0.20213589 0.381005
0000b0 c4 34 97 be 7d 9f 8c 3e a5 dd 9f be 95 6f 04 bf
       -0.29532444 0.2746543 -0.3122379 -0.5173276
0000c0 72 73 ba 3b 40 98 6e be 6c 68 62 3e 98 77 c3 be
       0.0056900317 -0.23300266 0.22110146 -0.3817718
0000d0 de 73 48 bd 74 ca 29 bd 8a 0e 05 3e 2a aa c1 3e
       -0.048938625 -0.04145284 0.12993827 0.37825137
0000e0 10 61 7b bd 5d 3d f7 be a0 24 9c be 11 8c 14 3f
       -0.061371863 -0.48289004 -0.30496693 0.58026224
0000f0 b8 91 82 3e b8 a5 2c 3e 30 59 8e 3d 79 d3 bd 3d
       0.255018 0.16860092 0.06950605 0.09268851
000100 fa 8f 24 3e 70 7b 9e 3e f2 b9 82 3e b0 1d 6d 3d
       0.16070548 0.3095355 0.2553249 0.05788964
000110 22 0a b4 3e 8e f9 81 3e 40 c1 4c bc 1c b8 3a be
       0.3516398 0.25385708 -0.012497246 -0.18234295

fcn2.bias f4 [12]
000000 e9 a3 bb 3c 99 81 b4 3e 63 e3 88 3e 0e 67 29 be
       0.022905307 0.35255125 0.26735982 -0.16543218
000010 60 8d ae bd 76 4d 22 3e fd ed 1a 3e bf b4 b8 3e
       -0.08523059 0.15849862 0.15129848 0.36075398
000020 f6 c0 28 3e 1e ef 89 3e e8 78 bf 3d 8d 70 c4 be
       0.16479859 0.26940244 0.09349233 -0.3836712

fcn3.weight f4 [12, 12]
000000 07 7c 90 be 80 6f c2 bc 3e ce 9f be c1 7f 81 be
       -0.28219625 -0.023734808 -0.31212038 -0.2529278
000010 d6 77 47 3e c1 28 42 3e a2 56 d7 be bc 3b f6 bd
       0.19479308 0.18960859 -0.42058283 -0.12023112
000020 cd 43 c0 3e e7 38 db 3e 61 5c b0 3e d0 c3 e9 bd
       0.37551728 0.4281685 0.3444548 -0.114143014
000030 39 85 63 bc b2 d1 64 be d5 82 df bc 9c 00 3c be
       -0.013886743 -0.22345617 -0.027284065 -0.18359607
000040 6c 26 61 bd 9d 4b 39 3e e5 44 5b 3d 5c bc 86 bd
       -0.054968283 0.1809525 0.0535325 -0.065788954
000050 7a dc 9d 3d da 3a c2 3d e4 d1 62 be 0c ee 21 be
       0.07708068 0.09483881 -0.2215038 -0.15813464
000060 51 ab ce 3e 15 e5 87 3e 63 19 a7 3e b8 51 22 be
       0.4036508 0.26541963 0.32636556 -0.15851486
000070 5c 77 58 3e 90 e3 35 be e3 ad 9f 3d 44 62 d6 bc
       0.21139282 -0.1776259 0.07796838 -0.026169904
000080 60 c2 60 be 87 55 a9 be 7c 1e 90 3d 1e 87 3e be
       -0.21949148 -0.33073065 0.070370644 -0.1860623
000090 71 3e 88 bd dc 34 84 be 1e 28 16 be 40 77 4e be
       -0.06652535 -0.25821579 -0.14663741 -0.20162678
0000a0 a6 67 47 3e f8 6d 85 3e f0 a5 c3 be 82 3e 5f be
       0.19473132 0.26060462 -0.38212538 -0.21801189
0000b0 d9 43 db 3e a0 27 a2 3e d7 e4 3e 3e 57 a0 62 be
       0.428252 0.31670856 0.18641983 -0.22131477
0000c0 c5 bb b2 3e f3 e5 ab 3e 60 b3 85 3d c0 f2 59 bc
       0.34908882 0.33573875 0.06528354 -0.013302505
0000d0 30 8c 57 3e 7e 97 c7 bd 96 51 29 3e 62 8b 1b 3e
       0.21049571 -0.09745692 0.16535029 0.15189889
0000e0 68 ac a6 be e4 ec aa be 37 e3 8f 3e 50 d1 ba bc
       -0.3255341 -0.33383858 0.2810304 -0.022804886
0000f0 80 ec cd 3e b3 c5 98 3e a3 a5 96 bd a0 bd a0 3c
       0.40219498 0.29838333 -0.073558114 0.01962167
000100 28 39 97 bd 05 3f 10 bd c2 21 c6 3e e4 f8 8c 3e
       -0.073839486 -0.03521635 0.3869763 0.27533638
000110 93 b2 b0 be 1c 59 cc be e2 c5 73 be 84 fa 7a be
       -0.3451124 -0.39911735 -0.23805955 -0.24509627
000120 a8 c7 05 3e a3 52 65 be 71 51 fe bc 00 9c cd b9
       0.13064444 -0.22394805 -0.031044694 -0.00039216876
000130 68 47 4a 3d 2b 23 83 3d d1 b9 54 3e 96 ad 11 3e
       0.049384505 0.06403192 0.20774008 0.14226374
000140 54 33 61 3e 7a 59 1b bd 99 dc bd bd d8 8c 27 3d
       0.21992236 -0.03792713 -0.09270591 0.040905803
000150 d9 90 22 3d 30 81 a0 3c 56 d0 59 3e 70 3f e0 bc
       0.03968892 0.019592851 0.2127088 -0.027374
000160 80 09 24 3b cb f1 cb 3e 47 38 8e be 28 08 b8 bc
       0.0025030077 0.3983291 -0.2777731 -0.022464827
000170 fc 5c c1 3e 80 54 81 bd 65 6b f5 bd e0 79 8e bc
       0.37766254 -0.06314945 -0.119833745 -0.017392099
000180 3e fb 8d 3e 72 b7 3d 3e 85 c5 38 3e 4c 37 e9 3d
       0.27730745 0.1852701 0.18044098 0.113875
000190 34 a9 fd bd 58 f5 76 3d 6d 88 f0 3d 01 04 a2 3e
       -0.123857886 0.06029257 0.11744771 0.3164368
0001a0 f3 e0 91 be 54 ef 02 bf f9 99 6a bd 10 d1 19 3e
       -0.28491935 -0.51146436 -0.057275746 0.15021157
0001b0 aa 0f 4f be 16 6d cd bd 8e 62 ed bd f6 e2 1c 3e
       -0.20220819 -0.10030572 -0.115910634 0.15320954
0001c0 f0 08 b9 3c 3f 81 09 be f3 5f 98 be e0 82 32 be
       0.02258727 -0.1342821 -0.29760703 -0.17432737
0001d0 06 60 c1 3d 73 7b f5 3e 2b 15 b6 3d 44 3a 62 3e
       0.09442143 0.47945747 0.08890756 0.22092539
0001e0 cc 38 f3 be 52 86 c5 be 0b 83 1b be 64 2b 3b be
       -0.4750427 -0.3857904 -0.15186708 -0.18278271
0001f0 f8 68 ac bd df 63 1b 3e 2e 58 d5 be a5 29 27 3d
       -0.08418459 0.15174817 -0.41668838 0.0408112
000200 57 af 4a 3d 60 a9 e9 3e 74 aa 0d 3e b8 bf 5d bd
       0.049483623 0.45637035 0.13834554 -0.054137915
000210 2b 6e ca be a7 8b f4 3c fc 4c 72 be a0 7a 7f 3e
       -0.39537176 0.029851748 -0.2366218 0.24949121
000220 38 ad 78 be 7a 81 8a bd e2 cd ab be 73 4e 9c be
       -0.24284828 -0.06762977 -0.33555514 -0.30528602
000230 ef a5 11 3c 7b 03 74 3e 74 39 ec 3d 30 4b 48 3d
       0.008889659 0.23829453 0.11534396 0.04889983
