models/food/intialstate_600_1.pt (torch_old, 2014 bytes, 5 tensors)

fcn1.weight f4 [6, 6]
0	0x3e3cc8e2	0.18436006
1	0xbeaf3aed	-0.34224644
2	0xbe56e0fd	-0.20984264
3	0xbe3c0476	-0.18361077
4	0xbe7fda29	-0.24985565
5	0x3e2abc0f	0.16673301
6	0xbea49072	-0.32141453
7	0x3ec89777	0.39178059
8	0xbd97907d	-0.07400606
9	0x3e5158ae	0.20443985
10	0x3e60d14d	0.21954842
11	0xbe8e4b91	-0.27792028
12	0x3e5f6356	0.21815237
13	0xbeba7d0a	-0.36423522
14	0xbe6bccc6	-0.23027334
15	0xbd57653e	-0.052586786
16	0x3ef8cc5d	0.48593417
17	0xbe9f566b	-0.3112062
18	0xbe7e8faf	-0.24859498
19	0xbe857194	-0.26063216
20	0xbe384e99	-0.17998733
21	0xbe106860	-0.14102316
22	0xbdc2be64	-0.095089704
23	0xbe6dd215	-0.23224671
24	0xbbba957e	-0.0056940904
25	0xbcdcf422	-0.02697188
26	0xbe6699bc	-0.22519583
27	0xbea2795b	-0.31733212
28	0x3cc1ebdc	0.023672037
29	0x3d833c23	0.064079545
30	0x3e87c68f	0.26518676
31	0xbc99aef4	-0.018760182
32	0xbea014af	-0.3126578
33	0xbeb1c2a3	-0.3471881
34	0xbd1582a6	-0.03650155
35	0xbe7c9681	-0.24666788

fcn1.bias f4 [6]
0	0x3c1f8dc0	0.009738386
1	0xbc0eba83	-0.00871146
2	0x3e924a44	0.28572285
3	0xbe0b0910	-0.13577676
4	0x3eb41bfc	0.351776
5	0x3e7114b4	0.23543054

fcn2.weight f4 [12, 6]
0	0xbe0085ba	-0.12551013
1	0x3eba4816	0.36383122
2	0x3dd57308	0.10422331
3	0xbe8e0cce	-0.27744144
4	0xbe68a935	-0.22720797
5	0x3e830f86	0.2559778
6	0x3e3eee34	0.18645555
7	0x3ea3343c	0.3187579
8	0xbd007338	-0.03135988
9	0x3e9231f0	0.28553724
10	0x3e4fd7f4	0.20297223
11	0x3e0148a8	0.12625372
12	0xbde5350c	-0.111917585
13	0x3f0653e2	0.52471745
14	0x3e4b9267	0.19880067
15	0xbdd7b92c	-0.105333656
16	0x3e1b2fed	0.15155001
17	0x3f08e422	0.53473103
18	0x3e7682b0	0.24073291
19	0x3dc84e33	0.0978054
20	0x3f096d15	0.5368207
21	0x3e379434	0.17927629
22	0xbe01ea19	-0.12686957
23	0xbe40c689	-0.18825735
24	0x3e72f15c	0.23724884
25	0x3ea25999	0.31708983
26	0xbeb9fe77	-0.36326954
27	0x3e2bb380	0.16767693
28	0x3cf3b34c	0.029748581
29	0xbd413be1	-0.047176246
30	0xbe13c2dd	-0.14429803
31	0x3e731f67	0.23742448
32	0x3e72d52e	0.23714134
33	0x3e8d2d12	0.27573448
34	0x3e74af9a	0.23895112
35	0x3eb052e4	0.3443824
36	0x3eb86426	0.36013907
37	0x3e022c68	0.12712252
38	0x3d783930	0.060601413
39	0xbe18321e	-0.14862868
40	0x3e994b9c	0.29940498
41	0x3d76f358	0.060290664
42	0x3e93c66a	0.28862315
43	0x3e8f7f98	0.28027034
44	0xbe66f0cb	-0.22552793
45	0x3e932c62	0.287448
46	0xbe3177b1	-0.17330815
47	0x3e59e9d7	0.21280609
48	0x3ea48568	0.3213303
49	0xbe15d7ba	-0.14633074
50	0x3c6fe260	0.014641374
51	0xbe369068	-0.17828524
52	0xbe2913e0	-0.16511488
53	0xbda94810	-0.08265698
54	0xbb366880	-0.0027833283
55	0xbe11ba62	-0.14231256
56	0xbec55147	-0.38538572
57	0xbe7cd889	-0.24691977
58	0xbd0ee518	-0.03488645
59	0xbe0573fa	-0.13032523
60	0x3e8b040d	0.27151528
61	0x3eeb1fc1	0.45922664
62	0x3ece2576	0.40262955
63	0x3e390500	0.18068314
64	0xbe7b3d5f	-0.2453513
65	0x3f12153f	0.5706367
66	0xbeb8317c	-0.35975254
67	0xbe096f80	-0.1342144
68	0xbe931d1c	-0.28733146
69	0x3e165458	0.14680612
70	0xbeadee70	-0.33970976
71	0xbe4e1830	-0.20126414

fcn2.bias f4 [12]
0	0xbe84c61e	-0.259324
1	0xbe807bca	-0.25094444
2	0xbde98647	-0.114025645
3	0x3eccc44e	0.3999352
4	0xbdc69669	-0.09696657
5	0x3dfb0f02	0.12258722
6	0xbecf7e72	-0.40526158
7	0x3eb92b78	0.36165977
8	0xbdb6107c	-0.08889863
9	0xbebfd466	-0.37466735
10	0x3e9146ae	0.28374237
11	0xbde21304	-0.11038783

fcn3.weight f4 [12, 12]
0	0x3e863932	0.26215512
1	0xbe48c885	-0.19607742
2	0xbee698f9	-0.45038584
3	0xbeb18f15	-0.34679475
4	0x3db3ff89	0.08788974
5	0xbe452544	-0.19252497
6	0xbe88ed23	-0.2674342
7	0x3de0bdc0	0.10973692
8	0xbc96bd00	-0.01840067
9	0x3dd595c0	0.10428953
10	0xbe9fb274	-0.31190836
11	0xbe530720	-0.20608187
12	0x3e497a76	0.19675621
13	0xbe0e3e99	-0.13891067
14	0x3eae66ee	0.34062904
15	0x3eb1fb42	0.34762007
16	0xbdba682f	-0.09101903
17	0x3c062f98	0.008190058
18	0x3d0e56f8	0.03475091
19	0xbea3edad	-0.3201727
20	0x3db59068	0.08865434
21	0xbdf65556	-0.12027995
22	0x3c09634f	0.008385493
23	0xbe648568	-0.22316515
24	0x3e0a49e8	0.13504755
25	0xbe3c5f53	-0.18395738
26	0xbed3f271	-0.41395906
27	0xbe5b52c9	-0.21418299
28	0xbe106183	-0.14099698
29	0xbee6b084	-0.45056546
30	0x3dee43cc	0.11634025
31	0xbd69af5a	-0.057051994
32	0x3e4f0f5a	0.202207
33	0x3e50148c	0.20320338
34	0xbeb6b2b5	-0.35683218
35	0xbe2c5420	-0.16828966
36	0xbdd1da5a	-0.102467254
37	0x3e2d26b0	0.1690929
38	0x3e2b743d	0.1674356
39	0x3d01242d	0.03152864
40	0x3e687249	0.22699846
41	0x3edebb3b	0.4350222
42	0x3e5a89f0	0.21341681
43	0xbe93b635	-0.2884995
44	0xbd759628	-0.059957653
45	0xbd62cd20	-0.055371404
46	0x3ed47298	0.41493678
47	0xbe18e375	-0.14930518
48	0xbe296b52	-0.16544846
49	0x3b93ff80	0.004516542
50	0x3de999f4	0.11406317
51	0x3e63ae73	0.22234516
52	0x3ad32ecd	0.001611197
53	0xbc446148	-0.011986084
54	0x3e56f296	0.20990977
55	0x3e3c756f	0.18404172
56	0x3d817758	0.06321591
57	0xbe85c765	-0.26128688
58	0x3e90b771	0.28264955
59	0x3e446ad8	0.19181383
60	0x3da497b0	0.080367446
61	0xbde486e6	-0.11158542
62	0x3e495c1f	0.19664048
63	0x3cf8009e	0.030273732
64	0x3ea3a635	0.31962743
65	0x3ee40ec7	0.44542524
66	0xbd09cab0	-0.033640563
67	0xbe891ad0	-0.2677827
68	0x3e2de3b0	0.16981387
69	0x3e16dee4	0.14733464
70	0x3ea86102	0.3288651
71	0xbe5e6d75	-0.21721442
72	0x3dc87858	0.09788579
73	0xbdfc4c32	-0.123192206
74	0xbeccd230	-0.4000411
75	0xbea61381	-0.32436755
76	0x3c75098c	0.014955889
77	0xbd3d05db	-0.046148162
78	0xbe81b87a	-0.25336057
79	0x3e566398	0.2093643
80	0x3e6280cc	0.22119445
81	0x3e60669c	0.21914142
82	0x3c8b7ad2	0.017026339
83	0xbd399d30	-0.04531592
84	0x3e4612dc	0.19343132
85	0x3e676c00	0.22599792
86	0xbc641d64	-0.013923023
87	0xbea135de	-0.3148641
88	0xbe3e2b77	-0.18571268
89	0x3dba0dee	0.09084688
90	0x3e615c68	0.22007906
91	0x3e7b45ba	0.24538317
92	0xbdf719d6	-0.12065475
93	0xbd6a2cc4	-0.057171598
94	0xbeb2f83f	-0.34955022
95	0xbe2876f2	-0.16451624
96	0x3e62ea44	0.22159678
97	0xbe729ffe	-0.23693845
98	0xbe8336d5	-0.2562777
99	0xbda7360e	-0.08164607
100	0xbe3f9980	-0.187109
101	0xbdde35f6	-0.10850136
102	0xbd3e1404	-0.046405807
103	0x3e2a7af1	0.16648461
104	0xbe62d755	-0.22152455
105	0x3d232d88	0.039838344
106	0xbedf1f9e	-0.4357881
107	0x3e3763dc	0.17909187
108	0x3e8f91f4	0.2804104
109	0xbdd303cc	-0.103034586
110	0xbe08377f	-0.1330242
111	0xbe8a9a90	-0.27071047
112	0xbe5fd850	-0.2185986
113	0xbe98cbbe	-0.29842943
114	0xbe0cd314	-0.13752395
115	0x3dee08be	0.11622761
116	0xbd078960	-0.033089995
117	0x3ca5d010	0.020240813
118	0xbec05db1	-0.3757148
119	0xbe39b760	-0.18136358
120	0xbe7fe8ed	-0.24991198
121	0xbe54768c	-0.20748347
122	0x3edb041c	0.42776573
123	0x3e7ab813	0.24484281
124	0xbe9c80cb	-0.3056701
125	0x3e00e6fa	0.1258811
126	0x3cbdca90	0.023167878
127	0x3e0c3c57	0.13694893
128	0x3e891458	0.26773334
129	0x3d8ec314	0.06970802
130	0x3ebfd482	0.37466818
131	0xbdd260a0	-0.10272336
132	0xbc1a8980	-0.009432197
133	0xbe327220	-0.17426348
134	0x3e5cc552	0.21559647
135	0x3ec700af	0.3886771
136	0x3e90984f	0.28241202
137	0x3edd48e1	0.43219665
138	0xbe053210	-0.13007379
139	0xbdea3a7e	-0.11436938
140	0x3d73e688	0.059546024
141	0x3e6da830	0.2320869
142	0xbdee4760	-0.116347075
143	0xbe112c8f	-0.14177154
