models/food/intialstate_200_2.pt (torch_old, 2000 bytes, 5 tensors)

fcn1.weight f4 [6, 6]
0	0x3d729170	0.05922073
1	0xbe71a1dc	-0.235969
2	0x3e1c2a68	0.15250552
3	0xbce40090	-0.0278323
4	0xbdd8a7ac	-0.10578856
5	0x3e6033a4	0.218947
6	0x3e4d7b69	0.20066608
7	0x3f03588e	0.51307
8	0x3e478eb9	0.19488038
9	0x3ddeff12	0.108884946
10	0x3e4242b1	0.18970753
11	0x3ee8992a	0.45429355
12	0xbe5183d4	-0.20460445
13	0x3e3e6b48	0.18595612
14	0x3d43f128	0.047837406
15	0xbe34aafd	-0.17643352
16	0xbdc71cbc	-0.097222775
17	0xbdc56dc8	-0.0964008
18	0xbe920253	-0.28517398
19	0xbdda2354	-0.106512696
20	0x3d26a843	0.04068781
21	0x3eb1c7bc	0.34722698
22	0xbc26bf3b	-0.010177429
23	0xbece8dd3	-0.40342578
24	0x3e5d670c	0.2162134
25	0xbdfcfd2c	-0.12352976
26	0x3ebaab18	0.3645866
27	0xbec9f991	-0.39448217
28	0xbdc39e28	-0.0955165
29	0x3ea21a26	0.31660575
30	0x3e463beb	0.19358794
31	0xbe9f7439	-0.31143358
32	0xbeb6a56e	-0.35673088
33	0xbde64ed4	-0.11245504
34	0x3e98291d	0.29718867
35	0xbead87c8	-0.33892655

fcn1.bias f4 [6]
0	0xbeaee949	-0.34162357
1	0x3d3087fd	0.04309844
2	0xbdab78e8	-0.083726704
3	0x3e58c4ca	0.21168819
4	0xbeca879b	-0.39556584
5	0x3db0e39b	0.08637162

fcn2.weight f4 [12, 6]
0	0xbea1fa61	-0.31636336
1	0x3d06c052	0.032898255
2	0xbe5596e1	-0.20858337
3	0x3e858ba3	0.26083097
4	0xbeaedc00	-0.34152222
5	0xbee9dea1	-0.45677665
6	0xbe6d3cc7	-0.23167716
7	0xbeb711f9	-0.357559
8	0x3e83f316	0.25771397
9	0xbd6f4ed0	-0.05842477
10	0xbe6842c7	-0.22681724
11	0x3e9277ee	0.28607124
12	0xbdbdb0a0	-0.09262204
13	0x3e15fff6	0.14648423
14	0xbe019706	-0.12655267
15	0xbec246dc	-0.37944686
16	0x3db7a0f8	0.08966249
17	0x3ed22584	0.41044247
18	0xbecbcde1	-0.3980551
19	0x3dae40e5	0.085084714
20	0x3da6a480	0.08136845
21	0x3e398e8a	0.1812078
22	0xbc2584c0	-0.010102451
23	0xbe779697	-0.24178539
24	0xbea245ac	-0.3169378
25	0x3debf5ae	0.11521469
26	0xbe8c6212	-0.27418572
27	0xbe762e97	-0.2404121
28	0xbe063708	-0.1310693
29	0xbed4497f	-0.41462323
30	0x3e00219c	0.12512821
31	0x3e6da959	0.23209132
32	0x3ea2724a	0.3172782
33	0xbe5ae1bf	-0.21375178
34	0x3e63ead4	0.22257549
35	0x3e85f3df	0.2616262
36	0x3b961080	0.0045796037
37	0x3e3da1ab	0.18518703
38	0x3e6c8c40	0.23100376
39	0x3eb0b96b	0.34516463
40	0x3e5faf74	0.21844274
41	0x3cd93cbd	0.02651822
42	0xbe1eab4a	-0.15495029
43	0xbe69139f	-0.22761391
44	0xbe463b31	-0.19358517
45	0x3eabfb12	0.3358999
46	0xbdca81cc	-0.09888038
47	0x3c6f3c00	0.014601707
48	0xbec2ee8f	-0.3807263
49	0xbc948e60	-0.018134296
50	0xbdebdc98	-0.11516684
51	0xbe86dea6	-0.26341742
52	0x3ea1e176	0.31617326
53	0xbea93a40	-0.33052254
54	0xbd6f09c8	-0.058358938
55	0xbdc6b36b	-0.0970219
56	0xbebd3abd	-0.36958876
57	0x3df60fb3	0.12014713
58	0xbe05046a	-0.12989965
59	0x3eacd8c3	0.33759126
60	0x3e6951cc	0.2278511
61	0x3ed85655	0.42253366
62	0x3dcecea0	0.10098004
63	0x3ecd4b81	0.40096667
64	0x3ec10af0	0.37703657
65	0xbd6f83e0	-0.058475375
66	0xbdaa5b74	-0.083182245
67	0xbe6f383d	-0.23361297
68	0x3d877448	0.06613976
69	0x3d8be114	0.068300396
70	0xbec5304b	-0.38513407
71	0x3ee587e7	0.44830248

fcn2.bias f4 [12]
0	0x3e10f82d	0.14157172
1	0xbec2b619	-0.38029554
2	0x3e05d8d8	0.13071
3	0x3e84d10b	0.25940737
4	0x3e370b5b	0.17875426
5	0x3eaa9381	0.33315662
6	0x3c09378d	0.008375061
7	0xbead6876	-0.3386876
8	0xba72c400	-0.00092607737
9	0x3e98319f	0.29725358
10	0xbe196fd4	-0.14984065
11	0x3e0cdd21	0.13756229

fcn3.weight f4 [12, 12]
0	0xbdb461be	-0.08807705
1	0xbd3fd8e0	-0.046837687
2	0x3e1d687f	0.15371893
3	0xbcf7adf5	-0.030234316
4	0xbea46b4f	-0.3211312
5	0x3e894a1e	0.2681436
6	0x3dc1a1fa	0.09454723
7	0x3e25e05a	0.16198865
8	0x3e93b1b8	0.28846526
9	0x3de887e0	0.11354041
10	0xbe9fe982	-0.3123284
11	0x3e2aa094	0.16662818
12	0xbdda99e7	-0.10673886
13	0x3dd0b3f0	0.1019057
14	0x3e5e142d	0.21687384
15	0xbe5ae91d	-0.21377988
16	0xbd97a918	-0.07405299
17	0x3e6e88e9	0.23294415
18	0xbe81f880	-0.25384903
19	0xbd4c0a80	-0.0498147
20	0x3e8f862e	0.28032058
21	0x3e94ef13	0.2908865
22	0x3c1c8faa	0.009555737
23	0xbc27f895	-0.010252138
24	0x3dcf8afc	0.10133931
25	0xbe848992	-0.25886208
26	0xbecee52d	-0.40409222
27	0xbe18e12b	-0.14929645
28	0x3ebbe26c	0.36696184
29	0x3db4a5e9	0.08820707
30	0x3e14e15e	0.14539096
31	0xbd947eec	-0.07250771
32	0x3e7e8318	0.24854696
33	0xbe2a5d20	-0.16637087
34	0x3e7fd709	0.24984373
35	0xbe2413fe	-0.16023251
36	0xbe8a8902	-0.27057654
37	0xbda500fc	-0.080568284
38	0x3d510407	0.05102923
39	0xbed24b22	-0.41072947
40	0x3c4141b6	0.011795452
41	0xbbe519fc	-0.006991623
42	0x3d056c8f	0.032574233
43	0x3e3c78e0	0.18405485
44	0xbd3bfdd4	-0.045896366
45	0x3e5fbe71	0.21849991
46	0xbd79070a	-0.06079773
47	0x3ea22f04	0.31676495
48	0xbe9b99b6	-0.3039071
49	0xbccf9f00	-0.025344372
50	0x3c6b8e6a	0.014377216
51	0x3e0a3b4a	0.1349918
52	0xbea27e3c	-0.31736934
53	0xbd56cf4e	-0.052443795
54	0xbc897a72	-0.01678202
55	0x3e833576	0.25626725
56	0x3e48021a	0.19532052
57	0xbe5563c4	-0.20838839
58	0xbe883619	-0.26603773
59	0x3ed36829	0.41290405
60	0x3df3e243	0.119083904
61	0xbe7d2fab	-0.24725215
62	0xbdd4db54	-0.10393396
63	0x3e730fbc	0.23736471
64	0x3d2eb77b	0.04265545
65	0xbe4305bf	-0.1904516
66	0xbde36545	-0.111033
67	0xbe192200	-0.14954376
68	0xbc394260	-0.011307329
69	0x3bc1c490	0.0059133247
70	0x3e826103	0.2546464
71	0xbe8bf255	-0.27333322
72	0x3d6da771	0.058021013
73	0xbe643b2e	-0.222882
74	0x3e01a4f8	0.12660587
75	0x3ece66b4	0.4031273
76	0x3e8893fa	0.26675397
77	0x3cfed894	0.031109132
78	0xbc26e8ec	-0.010187369
79	0xbbebce40	-0.007196218
80	0x3dd54c40	0.10414934
81	0xbe7c50ad	-0.2464015
82	0x3d95e0c8	0.07318264
83	0xbea4b9e2	-0.32173067
84	0xbed79249	-0.42103794
85	0xbc1e14e0	-0.009648532
86	0xbb3d57b2	-0.0028891382
87	0xbea24eea	-0.31700832
88	0xbd8614c6	-0.06546931
89	0x3d8fc757	0.07020443
90	0x3cab6901	0.020924093
91	0xbe257210	-0.16156793
92	0xbe90c521	-0.28275397
93	0x3dffb14a	0.12484987
94	0xbe2b0627	-0.16701566
95	0x3d2ec4a0	0.042667985
96	0x3da5c70a	0.08094604
97	0x3d411c10	0.047145903
98	0x3e87fe06	0.26560992
99	0xbe550f3f	-0.20806597
100	0xbea8d705	-0.32976547
101	0x3e48c5b8	0.19606674
102	0xbe81ff52	-0.25390106
103	0x3d128140	0.035767794
104	0xbe66b20b	-0.22528856
105	0x3ea2ffb2	0.31835705
106	0xbe8bc4de	-0.27298635
107	0x3ecefa88	0.40425515
108	0x3eaf15ed	0.34196416
109	0x3e5f758c	0.21822184
110	0x3d12bf72	0.035827108
111	0x3e4dc614	0.20095092
112	0x3dbb4f66	0.091460034
113	0xbe0be03f	-0.13659762
114	0xbd86e4d2	-0.06586613
115	0xbe87dbd8	-0.26534915
116	0x3e86b7aa	0.26312
117	0xbdba6d67	-0.09102898
118	0x3e54b0c6	0.20770559
119	0xbe126e4c	-0.14299887
120	0x3e6b3362	0.2296882
121	0xbe36215b	-0.17786162
122	0xbeb28153	-0.34864292
123	0x3ec1b779	0.3783529
124	0x3e53bb99	0.20677032
125	0x3dd7de27	0.10540419
126	0xbe2b0fd5	-0.16705258
127	0x3c9fe190	0.019516736
128	0xbe89dcd0	-0.2692628
129	0xbe08fe11	-0.13378169
130	0x3df0f83e	0.117660984
131	0xbeac5ceb	-0.3366464
132	0xbed94531	-0.424356
133	0x3af90800	0.0018999577
134	0x3eb8e190	0.3610959
135	0x3dfd18f5	0.12358276
136	0xbe973d6a	-0.29539043
137	0x3b592624	0.0033134306
138	0xbea18569	-0.31547096
139	0xbe66da40	-0.22544193
140	0xbda219ce	-0.07915078
141	0x3ecfd0aa	0.40588886
142	0xbe2118c9	-0.15732111
143	0x3e221b5a	0.15830746
