models/food/intialstate_600_0.pt (torch_old, 1944 bytes, 5 tensors)

fcn1.weight f4 [6, 6]
-0.0049912687 0.24453962 0.20907329 0.32581517 -0.30141622 -0.39931712 -0.45556843 -0.03510407
-0.0017504864 0.0029343201 -0.2089701 0.23999226 0.28596067 0.23334563 0.12715635 -0.10344022
-0.35279903 0.47107512 -0.22887392 0.10676696 -0.21609266 -0.40235382 0.36597812 0.09226331
0.02055937 -0.23200299 -0.1734674 0.0056219995 -0.23324746 -0.22778551 -0.0608972 -0.11755526
0.100217104 -0.10730624 -0.054118663 -0.15582085
00000000: cc8d a3bb 9868 7a3e 4f17 563e 3fd1 a63e
00000010: 3a53 9abe 4b73 ccbe 4440 e9be 49c9 0fbd
00000020: 9470 e5ba b94d 403b 42fc 55be 88c0 753e
00000030: 7069 923e 28f2 6e3e 4635 023e 77d8 d3bd
00000040: 13a2 b4be c230 f13e ed5d 6abe a3a8 da3d
00000050: 6547 5dbe 5201 cebe 7c61 bb3e 8cf4 bc3d
00000060: 206c a83c 3192 6dbe 70a1 31be c038 b83b
00000070: 6cd8 6ebe 9b40 69be 586f 79bd d0c0 f0bd
00000080: a03e cd3d 60c3 dbbd 88ab 5dbd 808f 1fbe

fcn1.bias f4 [6]
-0.3293219 0.452971 0.20766371 0.26532 -0.06579372 -0.10259804
00000000: e19c a8be d1eb e73e cca5 543e 06d8 873e
00000010: dcbe 86bd ec1e d2bd

fcn2.weight f4 [12, 6]
-0.38379675 -0.15497541 0.26771778 -0.39985698 -0.14279115 0.24872905 0.46557686 0.15574211
0.0041306084 -0.21333273 -0.07752913 -0.15049684 -0.08180065 -0.28243524 -0.398584 0.2958907
-0.2950843 -0.087126225 0.4523547 0.25387514 0.47260693 -0.46037376 0.0035495162 -0.12055686
-0.22834012 -0.22966152 0.10285246 0.042712837 -0.20838971 -0.2877577 -0.3382452 0.37898105
-0.09127841 -0.113716505 -0.15012023 -0.20419185 -0.6023144 -0.36326134 0.12087336 0.2061332
-0.1440131 -0.1542821 0.51962084 0.44114 0.5020601 0.0030367319 0.19722933 -0.032802045
-0.40388304 -0.5271152 0.290473 -0.030543333 0.16772711 0.020094693 -0.38102672 -0.20028453
0.11485344 -0.08262965 -0.39423007 0.14315617 0.275316 -0.020651365 0.26604068 -0.11467568
-0.15056321 0.3667491 0.38668343 0.12577054 -0.12307302 -0.3696045 0.31519932 -0.105344474
00000000: 0281 c4be e0b1 1ebe 4e12 893e 0eba ccbe
00000010: d837 12be d4b2 7e3e 1760 ee3e dc7a 1f3e
00000020: 0e5a 873b e573 5abe 98c7 9ebd d81b 1abe
00000030: 1987 a7bd 5a9b 90be 3413 ccbe fc7e 973e
00000040: 4a15 97be 3c6f b2bd 099b e73e ecfb 813e
00000050: 89f9 f13e 1cb6 ebbe 009f 683b 84e6 f6bd
00000060: fed1 69be 642c 6bbe 50a4 d23d a8f3 2e3d
00000070: 1d64 55be fa54 93be 7a2e adbe ce09 c23e
00000080: 2df0 babd 33e4 e8bd 1eb9 19be ab17 51be
00000090: 4731 1abf 64fd b9be 748c f73d 9514 533e
000000a0: 2c78 13be 20fc 1dbe df05 053f 1add e13e
000000b0: 0387 003f e803 473b 7cf6 493e 705b 06bd
000000c0: c2c9 cebe 06f1 06bf e1b8 943e 0336 fabc
000000d0: a8c0 2b3e a09d a43c ef15 c3be 6317 4dbe
000000e0: 4838 eb3d bc39 a9bd 86d8 c9be 8897 123e
000000f0: 38f6 8c3e 0d2d a9bc 7c36 883e 15db eabd
00000100: 3e2d 1abe 8ac6 bb3e 5ffb c53e fec9 003e
00000110: b50d fcbd cd3c bdbe ce61 a13e d8be d7bd

fcn2.bias f4 [12]
-0.2638205 0.26193655 0.19664913 0.12107476 -0.08094767 -0.14787242 0.13560441 0.31557336
0.1058344 -0.19303937 0.40443572 0.07802168
00000000: 7b13 87be 8c1c 863e 645e 493e 0bf6 f73d
00000010: e4c7 a5bd de6b 17be e2db 0a3e d592 a13e
00000020: b5bf d83d 1dac 45be 3312 cf3e d5c9 9f3d

fcn3.weight f4 [12, 12]
0.22820276 -0.14121431 0.45134178 -0.025615668 -0.14717442 0.18599768 0.19948703 -0.37568393
0.13778184 -0.26056167 -0.23721692 -0.44887722 0.19743982 0.15280637 -0.2524919 0.33558947
0.117482305 -0.17158638 -0.09400792 0.28058067 -0.42809123 0.25098485 -0.045887943 0.13244013
-0.23777756 0.068639606 0.23112933 0.096457236 0.018850714 0.13898891 0.105832614 -0.36814937
0.2605372 -0.025743634 -0.013109618 -0.32436067 0.005976081 -0.033536866 0.21066377 -0.36947647
0.1394648 0.04287214 0.24587327 0.20916972 -0.25570115 0.27722055 -0.42326882 -0.07916073
0.02031815 0.3373156 -0.33453944 0.34380358 -0.14284591 -0.24801841 -0.07067319 0.27114046
0.16411448 -0.030170202 0.3749592 0.4316335 -0.14317249 -0.43182352 0.37433872 -0.36838615
0.13241377 -0.2605893 0.37538242 -0.08237343 0.104418404 0.13239452 -0.39346853 -0.31316653
0.0028299987 0.034142006 -0.2591898 0.04213487 0.27511787 0.26392648 0.04846685 0.37411234
-0.4886142 0.096562505 0.14379795 0.010642973 0.117011815 0.050644703 -0.14341988 0.2750145
0.24909633 -0.13447632 -0.4232652 0.40081424 -0.06882004 0.14030975 0.19979006 0.14055608
0.17365211 -0.05721921 -0.16255027 0.32483295 0.19723576 -0.12387952 -0.37151876 0.2737292
-0.41406903 -0.23990726 -0.12109392 0.09400093 -0.055101678 -0.04775004 -0.2626676 -0.17949694
0.1774323 -0.047031116 -0.33363315 0.23888326 -0.38136837 0.20206979 0.15698119 -0.22914906
-0.22659442 -0.028327702 -0.27540678 0.2091901 -0.28545836 -0.22667849 0.039705526 -0.10773823
-0.11046871 -0.23881552 0.2362939 0.28423685 -0.11158164 -0.38259506 0.25535333 -0.10889498
0.12813163 0.06661649 0.15528934 -0.37142476 0.38453096 -0.0024745464 -0.28160247 0.009598931
00000000: fcad 693e 7c9a 10be 4516 e73e f3d7 d1bc
00000010: e4b4 16be 2d76 3e3e 5446 4c3e a559 c0be
00000020: af16 0d3e 5768 85be fee8 72be 3cd3 e5be
00000030: aa2d 4a3e 4679 1c3e 9e46 81be 62d2 ab3e
00000040: 909a f03d 57b4 2fbe 3987 c0bd 45a8 8f3e
00000050: c62e dbbe 1681 803e fff4 3bbd 639e 073e
00000060: f67b 73be ec92 8c3d 2bad 6c3e 5f8b c53d
00000070: d06c 9a3c 1c53 0e3e c5be d83d 137e bcbe
00000080: 2265 853e 50e4 d2bc b9c9 56bc 9a12 a6be
00000090: 00d3 c33b f45d 09bd 3eb8 573e 052c bdbe
000000a0: dccf 0e3e b29a 2f3d 34c6 7b3e 9630 563e
000000b0: 43eb 82be daef 8d3e b1b6 d8be 051f a2bd
000000c0: 4072 a63c a1b4 ac3e c148 abbe 0607 b03e
000000d0: 3346 12be 8af8 7dbe 1bbd 90bd ecd2 8a3e
000000e0: a00d 283e 8027 f7bc a7fa bf3e 11ff dc3e
000000f0: cf9b 12be f917 ddbe 53a9 bf3e 1c9d bcbe
00000100: 7a97 073e f66b 85be 2032 c03e 67b3 a8bd
00000110: 51d9 d53d 6e92 073e b574 c9be 5d57 a0be
00000120: 8077 393b 7dd8 0b3d 87b4 84be 9d95 2c3d
00000130: 40dc 8c3e 5f21 873e 2d85 463d a78b bf3e
00000140: a42b fabe 90c2 c53d c53f 133e dd5f 2e3c
00000150: e4a3 ef3d d270 4f3d a9dc 12be b3ce 8c3e
00000160: 1c13 7f3e 29b4 09be 37b6 d8be 8637 cd3e
00000170: 85f1 8cbd 5cad 0f3e c495 4c3e efed 0f3e
00000180: dcd1 313e b15e 6abd 9473 26be 8150 a63e
00000190: 2cf8 493e 8cb4 fdbd b537 bebe 3c26 8c3e
000001a0: db00 d4be 40aa 75be 1700 f8bd 8f83 c03d
000001b0: 4cb2 61bd 8c95 43bd 5e7c 86be 0cce 37be
000001c0: d0b0 353e b3a3 40bd f7d1 aabe d09d 743e
000001d0: b742 c3be 62eb 4e3e adbf 203e 0da6 6abe
000001e0: 5e08 68be 7f0f e8bc 1e02 8dbe ee35 563e
000001f0: 9927 92be 681e 68be 43a2 223d dca5 dcbd
00000200: 6b3d e2bd 0e8c 74be 07f7 713e 7e87 913e
00000210: ea84 e4bd 80e3 c3be acbd 823e 5504 dfbd
00000220: f034 033e 3a6e 883d 2b04 1f3e 632b bebe
00000230: 3ee1 c43e 002c 22bb 332e 90be d644 1d3c
