models/food/intialstate_600_2.pt (torch_old, 1972 bytes, 5 tensors)

fcn1.weight f4 [6, 6]
0.05922073 -0.235969 0.15250552 -0.0278323 -0.10578856 0.218947 0.35782704 0.49644166
0.23996879 0.16805933 0.1537146 0.2882897 -0.20460445 0.18595612 0.047837406 -0.17643352
-0.097222775 -0.0964008 -0.29950976 -0.24005717 0.059562366 0.14218146 0.24650492 -0.32852986
0.2162134 -0.12352976 0.3645866 -0.39448217 -0.0955165 0.31660575 0.13962406 -0.17623718
-0.33903703 0.003489466 0.33908042 -0.51979434
00000000: 7091 723d dca1 71be 682a 1c3e 9000 e4bc
00000010: aca7 d8bd a433 603e 1b35 b73e 9a2d fe3e
00000020: 61ba 753e bf17 2c3e 5c67 1d3e b59a 933e
00000030: d483 51be 486b 3e3e 28f1 433d fdaa 34be
00000040: bc1c c7bd c86d c5bd 5859 99be 8cd1 75be
00000050: abf7 733d 0498 113e c96b 7c3e 1135 a8be
00000060: 0c67 5d3e 2cfd fcbd 18ab ba3e 91f9 c9be
00000070: 289e c3bd 261a a23e 9cf9 0e3e 8577 34be
00000080: 4396 adbe 86af 643b f39b ad3e 3e11 05bf

fcn1.bias f4 [6]
-0.34162357 0.035701536 -0.083726704 0.22365709 -0.39556584 0.087445915
00000000: 49e9 aebe c63b 123d e878 abbd 5d06 653e
00000010: 9b87 cabe d816 b33d

fcn2.weight f4 [12, 6]
-0.31636336 -0.0015795061 -0.20858337 0.094310604 -0.34152222 -0.5358403 -0.23167716 -0.357559
0.25771397 -0.05842477 -0.22681724 0.28607124 -0.09262204 0.20560645 -0.12655267 -0.31300905
0.08966249 0.35165775 -0.3980551 0.07827978 0.08136845 -0.03448917 -0.010102451 -0.3357284
-0.3169378 0.074385665 -0.27418572 -0.35416138 -0.1310693 -0.48629716 0.12512821 0.2774609
0.3172782 -0.2688913 0.22257549 0.14000742 0.0045796037 0.18014601 0.23100376 0.36908603
0.21844274 0.38553423 -0.15495029 -0.22761391 -0.19358517 0.3358999 -0.09888038 0.014601707
-0.3807263 -0.018134296 -0.11516684 -0.26341742 0.31617326 -0.33052254 -0.058358938 -0.05646886
-0.36958876 0.32818967 -0.12989965 0.3943969 0.2278511 0.33297825 0.10098004 0.33264926
0.37703657 -0.033583876 -0.083182245 -0.10309318 0.06613976 0.19800958 -0.38513407 0.50390697
00000000: 61fa a1be 6e07 cfba e196 55be eb25 c13d
00000010: 00dc aebe d42c 09bf c73c 6dbe f911 b7be
00000020: 16f3 833e d04e 6fbd c742 68be ee77 923e
00000030: a0b0 bdbd 7f8a 523e 0697 01be b942 a0be
00000040: f8a0 b73d 7c0c b43e e1cd cbbe 2651 a03d
00000050: 80a4 a63d 8444 0dbd c084 25bc 98e4 abbe
00000060: ac45 a2be 8357 983d 1262 8cbe a454 b5be
00000070: 0837 06be f1fb f8be 9c21 003e 5b0f 8e3e
00000080: 4a72 a23e 1fac 89be d4ea 633e 1b5e 0f3e
00000090: 8010 963b 3278 383e 408c 6c3e d8f8 bc3e
000000a0: 74af 5f3e be64 c53e 4aab 1ebe 9f13 69be
000000b0: 313b 46be 12fb ab3e cc81 cabd 003c 6f3c
000000c0: 8fee c2be 608e 94bc 98dc ebbd a6de 86be
000000d0: 76e1 a13e 403a a9be c809 6fbd e44b 67bd
000000e0: bd3a bdbe 7a08 a83e 6a04 05be 64ee c93e
000000f0: cc51 693e 207c aa3e a0ce ce3d 0151 aa3e
00000100: f00a c13e 3f8f 09bd 745b aabd 8422 d3bd
00000110: 4874 873d 06c3 4a3e 4b30 c5be 0c00 013f

fcn2.bias f4 [12]
0.15950799 -0.38029554 0.13053979 0.2597959 0.24885766 0.3330674 0.0074588084 -0.3386876
-0.00092607737 0.29948774 -0.18337932 0.17584614
00000000: 1056 233e 19b6 c2be 39ac 053e f803 853e
00000010: 8bd4 7e3e cf87 aa3e 0569 f43b 7668 adbe
00000020: 00c4 72ba 7556 993e cac7 3bbe 0311 343e

fcn3.weight f4 [12, 12]
-0.12957603 -0.046837687 0.04958826 -0.047948286 -0.37761393 0.20039015 0.3561502 0.16198865
0.28846526 0.14516178 -0.17541006 0.17989689 -0.03953739 0.1019057 0.20988744 -0.15894501
-0.0063757934 0.24459374 -0.23666427 -0.0498147 0.28032058 0.21162502 0.055478614 -0.11924131
0.14151743 -0.25886208 -0.36114725 -0.15517113 0.3943436 0.16904308 -0.0041123624 -0.07250771
0.24854696 -0.17929971 0.15313397 -0.116484344 -0.310707 -0.080568284 -0.017024789 -0.4205178
-0.06479738 -0.06999672 0.27105477 0.18405485 -0.045896366 0.2723183 0.0898783 0.33818495
-0.34061897 -0.025344372 -0.023586143 0.1401269 -0.3676544 -0.11333455 0.14215834 0.25626725
0.19532052 -0.1716098 -0.1595682 0.3828209 0.16536707 -0.24725215 -0.12490978 0.2710465
0.08121908 -0.22679943 -0.26652622 -0.14954376 -0.011307329 -0.0012370672 0.141747 -0.26911968
0.1014075 -0.222882 0.15973532 0.40762618 0.39070156 0.07788872 -0.17157486 -0.007196218
0.10414934 -0.3484183 -0.027799454 -0.34220356 -0.47072738 -0.009648532 -0.021778144 -0.32997367
-0.096783385 0.041080453 0.15617257 -0.16156793 -0.28275397 0.13041312 -0.10759601 0.042926677
0.043967105 0.047145903 0.20354679 -0.21039449 -0.35921443 0.09923801 -0.074109904 0.035767794
-0.22528856 0.33517927 -0.16567802 0.37219363 0.3893968 0.21822184 0.09465626 0.20990102
0.13415094 -0.05211078 -0.25585067 -0.26534915 0.26312 -0.11500733 0.093458876 -0.123879
0.2636455 -0.17786162 -0.24979451 0.39133164 0.2798492 0.1483806 -0.4326197 0.019516736
-0.2692628 -0.18257171 -0.02812875 -0.36553615 -0.47762772 0.0018999577 0.30629432 0.09705925
-0.34845412 -0.0453774 -0.11504322 -0.22544193 -0.07915078 0.43373367 -0.07205077 0.17815445
00000000: 94af 04be e0d8 3fbd 0f1d 4b3d 6c65 44bd
00000010: 9d56 c1be 1333 4d3e 5259 b63e 5ae0 253e
00000020: b8b1 933e 4aa5 143e b29e 33be e436 383e
00000030: f5f1 21bd f0b3 d03d bcec 563e 7bc2 22be
00000040: 08ec d0bb c876 7a3e 1e58 72be 800a 4cbd
00000050: 2e86 8f3e 3bb4 583e 8b3d 633d ca34 f4bd
00000060: f2e9 103e 9289 84be 4be8 b8be 2ee5 1ebe
00000070: 68e7 c93e a119 2d3e ffc0 86bb ec7e 94bd
00000080: 1883 7e3e 589a 37be 27cf 1c3e 588f eebd
00000090: fd14 9fbe fc00 a5bd 9277 8bbc 1c4e d7be
000000a0: 7db4 84bd 715a 8fbd b1c7 8a3e e078 3c3e
000000b0: d4fd 3bbd 4e6d 8b3e 1d12 b83d 9426 ad3e
000000c0: 9c65 aebe 009f cfbc ba37 c1bc 6d7d 0f3e
000000d0: 333d bcbe f21b e8bd f591 113e 7635 833e
000000e0: 1a02 483e 7bba 2fbe d965 23be 1a01 c43e
000000f0: fc55 293e ab2f 7dbe b3d0 ffbd 9bc6 8a3e
00000100: 3056 a63d 1c3e 68be 2076 88be 0022 19be
00000110: 6042 39bc 1625 a2ba 2026 113e 0eca 89be
00000120: bcae cf3d 2e3b 64be a891 233e 61b4 d03e
00000130: 090a c83e 1f84 9f3d 52b1 2fbe 40ce ebbb
00000140: 404c d53d e263 b2be aebb e3bc 4e35 afbe
00000150: 2e03 f1be e014 1ebc 1468 b2bc 4ff2 a8be
00000160: 5e36 c6bd fa43 283d b4eb 1f3e 1072 25be
00000170: 21c5 90be 048b 053e 4c5b dcbd e2d3 2f3d
00000180: da16 343d 101c 413d 926e 503e a771 57be
00000190: f4ea b7be 4c3d cb3d efc6 97bd 4081 123d
000001a0: 0bb2 66be 9e9c ab3e 80a7 29be 2a90 be3e
000001b0: 045f c73e 8c75 5f3e 24db c13d 4bf0 563e
000001c0: dd5e 093e 1d72 55bd dcfe 82be d8db 87be
000001d0: aab7 863e f788 ebbd 5e67 bf3d 46b4 fdbd
000001e0: 8bfc 863e 5b21 36be 22ca 7fbe 9f5c c83e
000001f0: 6548 8f3e 16f1 173e 5480 ddbe 90e1 9f3c
00000200: d0dc 89be 14f4 3abe 446e e6bc 8e27 bbbe
00000210: 9f8b f4be 0008 f93a 9cd2 9c3e 00c7 c63d
00000220: 9468 b2be a7dd 39bd c89b ebbd 40da 66be
00000230: ce19 a2bd 5712 de3e 5b8f 93bd 1f6e 363e
