models/food/intialstate_200_0.pt (torch_old, 1972 bytes, 5 tensors)

fcn1.weight f4 [6, 6]
00000000: bfa0 363d 788b 823e 9ca9 3a3e c705 8e3e
00000010: 1c55 89be 5513 7fbe 9d42 c7be a27a e33d
00000020: 7ca7 febc c4c4 e23c 19ec 67be 7f70 4d3e
00000030: 4118 8c3e 419b 783e 44e7 1b3d bc13 ccbd
00000040: 81ce abbe 57a7 c93e 472d 10be 4753 3bbd
00000050: 3b8c 32be 1c91 d7be a2f8 b83e 1227 cb3d
00000060: 206c a83c 3192 6dbe 70a1 31be c038 b83b
00000070: 6cd8 6ebe 9b40 69be 586f 79bd d0c0 f0bd
00000080: a03e cd3d 60c3 dbbd 88ab 5dbd 808f 1fbe
0.044586893 0.2549703 0.18228763 0.27738783 -0.26822746 -0.24909718 -0.3891801 0.11107375
-0.031085722 0.027681716 -0.22648658 0.20062445 0.27362254 0.24277975 0.03806235 -0.099647015
-0.33555987 0.39385483 -0.14079772 -0.045733716 -0.17436306 -0.42102897 0.36127192 0.099195614
0.02055937 -0.23200299 -0.1734674 0.0056219995 -0.23324746 -0.22778551 -0.0608972 -0.11755526
0.100217104 -0.10730624 -0.054118663 -0.15582085

fcn1.bias f4 [6]
00000000: bdcc aebe 21c1 e53e 0dd9 5c3e 870e 733e
00000010: dcbe 86bd ec1e d2bd
-0.34140578 0.44873908 0.21567173 0.2373601 -0.06579372 -0.10259804

fcn2.weight f4 [12, 6]
00000000: 0281 c4be e0b1 1ebe 4e12 893e 0eba ccbe
00000010: d837 12be d4b2 7e3e 08cc ca3e ce57 853e
00000020: 6837 803d 7eef 47be 98c7 9ebd d81b 1abe
00000030: bc99 3d3d 3af9 8ebe 0fea c0be f3df 833e
00000040: 4a15 97be 3c6f b2bd ebb7 b63e e968 913e
00000050: 83ed f33e 87f1 cebe 009f 683b 84e6 f6bd
00000060: fed1 69be 642c 6bbe 50a4 d23d a8f3 2e3d
00000070: 1d64 55be fa54 93be 7a2e adbe 540f c23e
00000080: a9f2 babd 87f7 e8bd 1eb9 19be ab17 51be
00000090: 53d5 07bf bd4f abbe d9ee ec3d b251 713e
000000a0: 2c78 13be 20fc 1dbe d315 d13e 7829 dd3e
000000b0: 925d 043f 2444 e0bc 7cf6 493e 705b 06bd
000000c0: 142c 9bbe 9b91 08bf 57af 503e 21dd febd
000000d0: a8c0 2b3e a09d a43c ef15 c3be 6317 4dbe
000000e0: 4838 eb3d bc39 a9bd 86d8 c9be 8897 123e
000000f0: e830 243e e06e 873c 073c 8e3e 21ce 83bd
00000100: 3e2d 1abe 8ac6 bb3e 8f77 7c3e 3ac8 923d
00000110: 0057 9ebd 549c b6be ce61 a13e d8be d7bd
-0.38379675 -0.15497541 0.26771778 -0.39985698 -0.14279115 0.24872905 0.39608788 0.26043552
0.06260568 -0.19524953 -0.07752913 -0.15049684 0.04628919 -0.2792452 -0.37678573 0.25756797
-0.2950843 -0.087126225 0.35687193 0.28400353 0.47642145 -0.40418646 0.0035495162 -0.12055686
-0.22834012 -0.22966152 0.10285246 0.042712837 -0.20838971 -0.2877577 -0.3382452 0.3790232
-0.09128315 -0.11375337 -0.15012023 -0.20419185 -0.5305988 -0.33459273 0.11568994 0.2356632
-0.1440131 -0.1542821 0.40836963 0.431957 0.51705277 -0.027376242 0.19722933 -0.032802045
-0.30307066 -0.53347176 0.20379387 -0.12444521 0.16772711 0.020094693 -0.38102672 -0.20028453
0.11485344 -0.08262965 -0.39423007 0.14315617 0.16034281 0.016532362 0.27780172 -0.064358
-0.15056321 0.3667491 0.24654983 0.071670964 -0.07731438 -0.35666144 0.31519932 -0.105344474

fcn2.bias f4 [12]
00000000: 7b13 87be de11 863e f38d 2f3e 8883 2c3e
00000010: e4c7 a5bd 825c 17be bbc3 0c3e bced a13e
00000020: c6db 8e3d 1dac 45be 7caf cf3e 1172 873c
-0.2638205 0.26185507 0.17143993 0.1684705 -0.08094767 -0.14781383 0.1374654 0.3162669
0.06975512 -0.19303937 0.4056357 0.016533883

fcn3.weight f4 [12, 12]
00000000: fcad 693e 6080 9ebd d8b0 d33e 6aaf 943c
00000010: e4b4 16be 4536 4b3e a203 163e c2f2 b8be
00000020: 6d8f 9c3d 5768 85be 489e 7abe de96 94be
00000030: aa2d 4a3e 9292 bd3d f826 49be 578f 8a3e
00000040: 909a f03d 521b 3ebe 72d8 2ebd 1c9b 803e
00000050: db70 bebe 1681 803e 232b e2bc e026 f6bc
00000060: f67b 73be d6b9 c23e 9ea1 ccbd cb15 c73e
00000070: d06c 9a3c e4b2 253e 68a9 3abe 24cc bcbd
00000080: 1e1f 98bb 50e4 d2bc 5350 e93d 0973 7ebd
00000090: 00d3 c33b 6666 93bd 5577 853e 9d81 c2be
000000a0: dccf 0e3e acaf c53c da69 b53e 04b9 673d
000000b0: b7f5 a7bd daef 8d3e 6124 d3be e10d a23d
000000c0: 4072 a63c 126c 8e3e 72a9 9ebe 8368 9d3e
000000d0: 3346 12be afef 7ebe 19eb 36bd e807 923e
000000e0: ca2c 1f3e 8027 f7bc a163 b93e d6ef 8c3e
000000f0: cf9b 12be 901c c6be fac6 a03e 5729 99be
00000100: 7a97 073e 8adb 81be 425d a43e 7ba4 4fbd
00000110: 8a4c fb3d 6e92 073e a62e b6be 90c1 14be
00000120: 8077 393b 7c39 a9bc 858b 6dbe 0826 6a3c
00000130: 40dc 8c3e 9e25 7e3e 86ee d43d ae66 b83e
00000140: 77f5 d3be 90c2 c53d cb88 453e bbd0 04be
00000150: e4a3 ef3d 6ca2 20bc fd03 dbbd 4bb1 6b3e
00000160: 1c13 7f3e 8e5b 15be ff6c c0be 2f0c cb3e
00000170: 51e2 8dbc 5cad 0f3e f8e6 653e 0ec8 8fbc
00000180: dcd1 313e 8ebe 09be f1a7 d8bd 2384 873e
00000190: 2cf8 493e 4366 0fbe 6de9 84be 7a12 723e
000001a0: b765 b0be 40aa 75be ebb3 f5bd 4587 90bd
000001b0: 4cb2 61bd cf5f a3be 0ccb c93c e8dd cbbe
000001c0: d0b0 353e 1b40 90bd 057d 0bbd 9d07 8bbd
000001d0: a0da a3bd 62eb 4e3e 8186 763d c3c6 bdbe
000001e0: 5e08 68be ddf1 06bd 1181 9fbe a77e 483e
000001f0: 9927 92be fdc2 57be ee43 b3bc b29e 343d
00000200: fe38 84be 0e8c 74be 0f14 5e3e f12e d63d
00000210: ea84 e4bd 216c aabe 86ad 5b3e 9a36 74bd
00000220: f034 033e b8be a43d 30bd eb3d fae0 b6be
00000230: 4137 a93e 002c 22bb 6194 aebe 8f46 2a3e
0.22820276 -0.07739329 0.4134586 0.01815005 -0.14717442 0.19844921 0.14649823 -0.3612271
0.07644544 -0.26056167 -0.24474442 -0.29021353 0.19743982 0.09256472 -0.19643772 0.27062485
0.117482305 -0.1856511 -0.042686887 0.2511834 -0.37195477 0.25098485 -0.02760846 -0.030047834
-0.23777756 0.38032407 -0.099917635 0.38883814 0.018850714 0.16181523 -0.18228686 -0.09218624
-0.0046423813 -0.025743634 0.11392274 -0.062121425 0.005976081 -0.07197265 0.26067606 -0.37989512
0.1394648 0.024131618 0.3543232 0.05657293 -0.08201163 0.27722055 -0.41238692 0.079128034
0.02031815 0.27816826 -0.30988652 0.307438 -0.14284591 -0.2489612 -0.0446578 0.28521657
0.1554443 -0.030170202 0.36208823 0.2752673 -0.14317249 -0.38693666 0.31401807 -0.29914352
0.13241377 -0.25362808 0.321024 -0.05069397 0.12270458 0.13239452 -0.35582465 -0.14526963
0.0028299987 -0.020657293 -0.23197754 0.014291294 0.27511787 0.24819037 0.10397057 0.36015838
-0.41398212 0.096562505 0.19290464 -0.1297025 0.117011815 -0.009804349 -0.1069412 0.2301685
0.24909633 -0.14585707 -0.37583157 0.39657733 -0.01731983 0.14030975 0.22451389 -0.017551448
0.17365211 -0.13451597 -0.10578907 0.26468 0.19723576 -0.14003853 -0.2595934 0.23639861
-0.34452602 -0.23990726 -0.11997207 -0.070570506 -0.055101678 -0.31909034 0.024632953 -0.3981774
0.1774323 -0.07043477 -0.034054775 -0.067885615 -0.08000684 0.20206979 0.060186867 -0.37065706
-0.22659442 -0.032945503 -0.31153157 0.19579564 -0.28545836 -0.21070476 -0.021882977 0.044096656
-0.25824732 -0.23881552 0.21687339 0.10458172 -0.11158164 -0.3328562 0.21452913 -0.059622385
0.12813163 0.08044189 0.11510694 -0.35718518 0.33049968 -0.0024745464 -0.3409758 0.16628478
