models/haptic/intialstate_100_2.pt (torch_old, 21858 bytes, 5 tensors)

fcn1.weight f4 [32, 32]
00000000: 0b89 393e 69b1 b13d f6d1 a2bc 749b e73b
00000010: d588 2e3d e2c4 d93c 9008 dabd f5ca 243e
00000020: 250e 1c3e a6a1 d83d d03a 0d3e b0dc 863d
00000030: 085a 813a ca8f 1bbe 98c8 77bd 992e edbd
00000040: 7d41 193d 3877 5b3d 6659 a2bd fe0c 3b3d
00000050: e20b b43d 934f f43b cd7c 05be 0a78 04be
00000060: 7d77 e3bd 5745 0a3e 384a 833d 92c8 f33d
00000070: 6f99 fbbc 7ef9 173e 0188 003e f9e1 22be
00000080: 5f0e eebc 3e6b bfbd 8c95 353e d73b d1bd
00000090: a7c7 9cbd e753 8cbd 78c1 2f3e 14d0 143e
000000a0: 670a e3bd 52f6 28be 62f3 103e 6d95 0b3e
000000b0: 4160 493d 66eb 233d 6725 c2bc 1eee 133e
000000c0: ca92 0e3c e3bd 72bd ad88 47bd 4e4e 823d
000000d0: b023 f5ba e658 00be cedf 66bd 6437 143e
000000e0: c513 893d 6196 153e 331e d13d 7d26 4abb
000000f0: 0632 643d 3670 24be 125a 23be fbf7 2a3d
00000100: 6421 243d c9f1 c53c 786e 3b3d 0539 223e
00000110: b7e8 e83d 1987 be3d a156 ea3b 5719 01be
00000120: 78c7 b93d 4d2d 1abe 840c 193e 2251 85bd
00000130: 3f03 a03b c06d 223e b3ab 51bd 579f febd
00000140: d473 dbbd 080f bbbd 2b34 b53d 80bb c63d
00000150: 7f10 fdbd e781 363d f282 17be 9c56 1abe
00000160: 58a2 293e 5915 a8bd a8d2 eb3d 3547 293e
00000170: c7d4 32be 5197 52bb 5c08 ab3d 1662 2e3d
00000180: 7f4e 1cbd 6b2c 373d a7c8 163c e832 02bd
00000190: a908 723d 2dde 2e3e 43d7 e2bd ab1b 0a3e
000001a0: 43bc 34be 9a9f b6bd 8d40 f3bd 616a 903d
000001b0: 9be4 223e 5646 a03d 5375 0fbd f3c4 99bd
000001c0: b909 19bd e060 17be 4d9c c9bc a861 b7bd
000001d0: abb7 0d3e 0566 6b3d 6ce4 9e3d 58be ff3d
000001e0: 6d9c 1f3e 3171 cbbd 7663 abbc 1ad6 b6bd
000001f0: c2f9 d4bd f545 6abc 0ec0 05bd 699b 30bd
00000200: 4dca 84bd b0b2 bbbd 4b1e 003e a5b9 98bd
00000210: 846a 2dbe e481 3ebd 60c0 a7bb b870 02be
00000220: ae7e ae3d 1dc3 04be 19c2 083e daeb a73d
00000230: ee32 c13d 5b8e cfbd 9ea6 9b3d 7aca 06be
00000240: 310c 233e a8dc e43c fe2c 97bd 4001 55bb
00000250: 220a 0dbe ad88 1b3e c82b c13c 4223 963d
00000260: 572d 313e ea78 a13d a4d1 cdbd b021 e03c
00000270: c2f0 893d 7305 97bd 8210 10be f01f abbd
00000280: 5877 4b3d cee5 083d 9bd0 28be f9f0 e03d
00000290: 2da2 49bd d37f 2a3e 2b1a 053e 1b3a fd3d
000002a0: 71fb 1c3e 1fb9 b1bd de1c 8cbc 40d8 333e
000002b0: 5500 103e 6d49 3c3d 2b27 173c 04a2 113e
000002c0: fb23 0dbe fdff b93d 8f8f 1cbe b317 bc3d
000002d0: 71cc 03be 0be1 083e da2a 293c 4492 f93d
000002e0: 5c71 13bd 2dc8 603d a6a2 2ebc 0e35 c93d
000002f0: da6b 183b 0328 ba3d 0023 123d 01a7 893d
00000300: 7a8d bcbb 0961 f63d c9fa 923d 881c 043e
00000310: 4b39 ca3d 033c 213d 30e0 003e 2f93 1c3d
00000320: 5822 3c3c 6db9 8ebd d734 263a 8ef1 893c
00000330: 6c6f 183e cca9 ae3d 2557 413d 2d23 88bc
00000340: 60b1 603d b182 e73d 7891 21be 604b 22bd
00000350: f2ba 6ebd c324 ccbd c1a0 293d 402b 803d
00000360: 128d 5f3d 2aaf 34be 78b2 e93d 888a 26be
00000370: c942 773c 032c 25bc 6048 39be 1d3e 82bd
00000380: 71a0 06be 6d8e 89bd 8a30 37bc 1c91 9bbd
00000390: fe1e 223d 3a13 d03c 2f24 8a3d b737 2cbe
000003a0: 2aeb 49bd 9c0e b03d 6ac2 40bd 59a7 163c
000003b0: c758 21bd 505a c9bd 7a4d 2abe bdb7 ff3c
000003c0: a3ae bf3c b5f0 d43d 9bc6 84bc 8f94 0d3e
000003d0: f24e 453d e7e9 0abe 2a0d f9bd d1dd 8d3c
000003e0: c85e 843d 0741 dcbd 0038 cc3d 9c47 5c3d
000003f0: 8ccc 83bc 4f02 c9bd b18f 81bc 905c 0abd
0.18118684 0.086764164 -0.019875508 0.007068092 0.042610962 0.026583139 -0.106461644 0.16093047
0.1523977 0.10577707 0.13791966 0.065850616 0.000986875 -0.1519157 -0.060494035 -0.115811534
0.03741597 0.053580493 -0.07927208 0.045666687 0.08791329 0.007455775 -0.13035889 -0.12936416
-0.11106775 0.13503014 0.064106405 0.1190349 -0.030712811 0.14841267 0.12551881 -0.15906514
-0.029059587 -0.09346627 0.17732829 -0.10216492 -0.07655268 -0.068519406 0.17163646 0.145325
-0.110859685 -0.16500214 0.14155343 0.1363122 0.04916406 0.040019415 -0.023699475 0.14446303
0.008701989 -0.05926312 -0.04871433 0.06362592 -0.0018702652 -0.12533912 -0.05636578 0.14474255
0.06693224 0.14608146 0.10210838 -0.0030845695 0.05571177 -0.1605843 -0.15952328 0.0417404
0.040070906 0.024163144 0.045759648 0.15842064 0.11372512 0.093031116 0.0071514403 -0.12607323
0.09071249 -0.15056343 0.1494618 -0.065096155 0.0048831995 0.15862179 -0.051189136 -0.124327354
-0.10715452 -0.09133726 0.08847841 0.097037315 -0.12356662 0.04455748 -0.14796045 -0.15072101
0.16565835 -0.08207197 0.11514789 0.1653107 -0.1746398 -0.0032133649 0.08351204 0.04257401
-0.038160797 0.044720095 0.009203113 -0.03178683 0.05909029 0.17076941 -0.11076214 0.13487117
-0.17649941 -0.0891716 -0.118775465 0.0705154 0.15907519 0.078259155 -0.035024 -0.07508268
-0.037362788 -0.14783049 -0.024610663 -0.08954173 0.13839595 0.05747034 0.07758412 0.12487477
0.15587015 -0.09933699 -0.02092145 -0.089275554 -0.103992 -0.014298906 -0.03265386 -0.04311696
-0.06483898 -0.09164941 0.12511556 -0.07457284 -0.16935164 -0.046510592 -0.0051193684 -0.12738311
0.08520256 -0.12965055 0.13355292 0.08199282 0.09433542 -0.10134574 0.07600139 -0.13163176
0.1592262 0.027937248 -0.073816285 -0.0032501966 -0.13773397 0.15188856 0.023580447 0.07330944
0.17302452 0.07884391 -0.100497514 0.027359813 0.06735374 -0.07374086 -0.14068797 -0.08355701
0.049674362 0.033422284 -0.16485827 0.10983462 -0.04922693 0.16650324 0.12998264 0.12364598
0.15330292 -0.08677887 -0.017103609 0.17562962 0.14062627 0.04596846 0.009225647 0.1422196
-0.13783257 0.09082029 -0.15289138 0.09184208 -0.12870957 0.13367097 0.010325158 0.12186101
-0.03599678 0.054878403 -0.010658896 0.098245725 0.0023257644 0.09089663 0.03567791 0.067213066
-0.00575417 0.12030227 0.0717674 0.12901509 0.09874209 0.039363872 0.1258552 0.038226303
0.011482798 -0.06968961 0.0006340271 0.016838815 0.14886254 0.0852848 0.047202248 -0.016618336
0.054856658 0.11304224 -0.15778148 -0.039622664 -0.058283754 -0.09967949 0.041413072 0.06258249
0.054577895 -0.17644945 0.11410993 -0.16263783 0.015091606 -0.010081294 -0.18094015 -0.063595034
-0.13147141 -0.06716619 -0.011181006 -0.07596037 0.039580338 0.025399793 0.06745183 -0.16818129
-0.049296536 0.085965365 -0.047060408 0.009195172 -0.039391305 -0.09831679 -0.16631117 0.031215543
0.023398703 0.10397474 -0.016207984 0.13826202 0.04817099 -0.13565789 -0.12160714 0.017317684
0.064633906 -0.107545905 0.09971619 0.05377923 -0.016088746 -0.098148935 -0.015815588 -0.03377968

fcn1.bias f4 [32]
00000000: c7fb e9bd 024f e33d f0b6 5e3c cc04 303e
00000010: 7d23 10be 9c67 05bc de62 fbbc 02aa 873d
00000020: c71c cabd dc23 d63d 1c35 1abe 4e6e 3bbe
00000030: b095 d53d 6b06 81bb f4da bb3d 2933 bf3d
00000040: 7a07 b13d 2cf6 30be 6e78 1ebe 4ce6 a6bd
00000050: d7f6 153e d101 293e 6970 183e 7a96 9f3c
00000060: 60eb 30be 94f6 6a3d 4bd0 ea3d 49dd 433c
00000070: 1956 9ebd 24d5 eebd a654 113e 04fe 2abd
-0.11424976 0.11099054 0.01359342 0.1718933 -0.14076038 -0.008142378 -0.030686792 0.06624223
-0.0986877 0.104560584 -0.15059322 -0.18303797 0.10428941 -0.0039375327 0.09172621 0.0933593
0.08644004 -0.17281407 -0.15475628 -0.081493944 0.14644943 0.16504599 0.14886631 0.019480933
-0.17277288 0.05736406 0.1146551 0.011954614 -0.077312656 -0.11661747 0.14192447 -0.041746154

fcn2.weight f4 [64, 32]
00000000: 62ff 333e 2c67 d13d e116 043d 1edf 193e
00000010: 9081 24be 96f6 733d 254d ccbd 9703 cbbd
00000020: 67d5 d43d fd7b 24be f001 b6bd 7443 05be
00000030: 22db 2f3d 7317 01bd 1b7a 043e 6816 87bb
00000040: 896e f03d 11cc bebd 9668 28bd ba9f d83d
00000050: a8ea 223e 3d31 8fbd 64c8 013e b12f 363e
00000060: ef62 2e3e 1e1c ff3d e512 da3d a460 3d3d
00000070: 4a55 eb3d d819 373e 0051 08be a93f 243e
00000080: 4de3 64bb eef1 fabd 1b49 1abe 68c5 e23d
00000090: 4a7b ad3d c7b4 b63c d869 5e3d 9883 44bc
000000a0: 7f7e b13d 95f2 3abd 25f2 1ebe c62d e2bd
000000b0: 398c 073e 54a9 cd3c 2def 55bd 580c 03be
000000c0: 2a76 ac3b 231d 123d 4c4e 0d3e 4425 37bd
000000d0: 3afb babc 0679 283e 1e2c 73bd c314 06be
000000e0: aab6 04be bc68 2a3e 053d e53d 7e7a bcbd
000000f0: c83c f63d 7c85 3bbe 3bf5 bcbd b1be c1bd
00000100: 663d efbd 8b36 19be f2af bd3d 4039 09be
00000110: 216c babd bab9 ecbd 032b 2f3e 76c9 ce3d
00000120: 8ac8 f0bd 12f7 8abd e04d c63b 2210 da3d
00000130: 006c c4bc b95b 1bbe d885 bebc 3cd5 363d
00000140: e0a9 0cbc da9f 8dbd 4af5 d03d 90c6 5a3c
00000150: 79ba 12be e684 9a3d e502 25be aa0d e03d
00000160: b2ff 10be c0a3 d03c a447 463d 2829 973c
00000170: e548 1c3e e148 82bd 06da 69bd e0a6 c83c
00000180: 40d7 04bb dade c63d d8e6 03be 53bc 1f3e
00000190: 721a ec3d 2561 313e aed1 82bd b678 b6bd
000001a0: 3b9a 193e 30fd 0b3d d23f ed3d 4c84 683d
000001b0: 167a f13d 2875 cc3c bb48 09be 8003 6abb
000001c0: 1831 1cbd 48f8 c43c 62d5 1bbe bc8a 0d3d
000001d0: 9ee8 01be 98b5 cdbc 03c6 a0bd 71c0 143e
000001e0: 62dd bfbd 5f7a 0abe 4aec 13be a0ac bebb
000001f0: c51d b4bd 6de4 c4bd 53c9 193e 3c7b 32be
00000200: d132 0cbe b67d 073e 321d 90bd 9d0f 22bd
00000210: 913e b5bd a1e2 123e e5a7 febd 5ee2 77bc
00000220: 4481 843d 59c8 233c bf17 c3bd 24fe e13d
00000230: 4cd8 f63d b2a8 26be acb7 9ebd ecf6 e8bd
00000240: 96df dfbc c411 0c3e 8e37 393e 56cb eebd
00000250: b406 85bd 0845 50bd 8f95 383e 213d adbd
00000260: cbe7 a5bd ad50 023e 4ae2 123e 282e 1cbe
00000270: 968a 053d 1e92 16bd 4873 e3bd 898c 0abe
00000280: b076 11bc 6cea 09bd f863 873d 20e7 5cbc
00000290: fed3 e13d ddfe 203e ccca 1abd e02a 673d
000002a0: cee6 f13d 216c 04be 48ca 033d 0899 98bd
000002b0: 581b c13c e503 173e b0ae 6e3d c3c1 acbd
000002c0: e933 efbd 83a8 2e3e da02 f53d 8553 2abe
000002d0: e894 9b3c 2e3b aebd 0844 eb3c 55e2 0e3e
000002e0: b2bb a43d bf3e aabd 19cc 21be 1edf a73d
000002f0: dda8 2dbe cce8 413d fa50 d43d 599d 243e
00000300: 3bca 3e3e 52b6 dc3c 1955 a8bd 65ef 31be
00000310: 0089 873b 5436 b43d 3d3d 94bc f7ee e7bd
00000320: edec ccbd 8126 243e 401e 6f3d 4893 23be
00000330: 15f3 863d f205 163e 026a 4d3c b163 e5bb
00000340: f6e9 7dbd d5de e23c fcc8 90bd f85c cc3c
00000350: 1d38 9e3c 4673 b73d 7f24 6abd a35f 313e
00000360: a16f 2f3e de28 a9bd 6954 cabd e545 d53d
00000370: 85a9 e83c 2e83 413c 1577 0abe e0c2 e63b
00000380: 3095 afbc b477 5d3d b315 153e 02a2 b93d
00000390: 46a6 7abd 7e70 71bd 6972 9bbd 9c74 03bd
000003a0: 0ed6 9c3d db4f 19be da47 93bd c088 5dbb
000003b0: 84a4 84bd f826 a6bd b875 9cbc 6bbf d4bd
000003c0: 60af ce3c 98af fd3c d141 1a3e 78ce 2f3d
000003d0: 5abe abbd a13b 283e 7cc0 17bd 8e60 ab3d
000003e0: f81d 52bd 6553 93bd bc4e 24be c9d8 263e
000003f0: c877 11be 7078 583d 8c4a efbd 644b 8b3d
0.1757789 0.102247566 0.03224838 0.15026519 -0.16065049 0.059561335 -0.09975652 -0.09912794
0.10392266 -0.16062923 -0.08887088 -0.13014013 0.04293359 -0.031516504 0.12937205 -0.004122544
0.11739833 -0.09316266 -0.041115366 0.105773404 0.15909827 -0.06991813 0.12674099 0.1779163
0.17029928 0.12456535 0.10648135 0.04623474 0.11490877 0.17880952 -0.13312149 0.1603991
-0.003492552 -0.12253176 -0.1506695 0.110728085 0.08470781 0.022302998 0.05430016 -0.011994265
0.08666705 -0.0456415 -0.15522058 -0.11043887 0.13237084 0.025105156 -0.05223005 -0.12797678
0.0052631097 0.03567232 0.13799399 -0.044713274 -0.022824872 0.16452417 -0.059368245 -0.13093857
-0.12960306 0.16641515 0.11193279 -0.09203051 0.12023312 -0.18312639 -0.092264615 -0.094601996
-0.11681633 -0.14962213 0.092620745 -0.13400745 -0.09102655 -0.11558862 0.17106251 0.100970194
-0.11757 -0.06785406 0.006051764 0.10647608 -0.02397728 -0.15171708 -0.023257181 0.04463695
-0.008585423 -0.06915255 0.10203035 0.013353005 -0.14328946 0.075448796 -0.16114385 0.10940106
-0.1416004 0.025468707 0.048408166 0.018452242 0.15262182 -0.06361557 -0.05709269 0.024493635
-0.00202699 0.09710474 -0.12881029 0.15599184 0.115284815 0.17322214 -0.063876495 -0.089097425
0.1500024 0.034177005 0.115844384 0.056766793 0.11790864 0.024958208 -0.1340665 -0.0035707653
-0.038132757 0.024044171 -0.15218118 0.034556136 -0.12686393 -0.025111005 -0.07850268 0.14526536
-0.09368397 -0.13523243 -0.14445606 -0.0058189183 -0.087947406 -0.09613881 0.15018205 -0.17429823
-0.1369126 0.13231549 -0.070368186 -0.03956567 -0.08849824 0.14344265 -0.12434367 -0.015129654
0.06469968 0.009996497 -0.095260136 0.110348016 0.12052974 -0.1627529 -0.077498764 -0.113752216
-0.027328294 0.13678652 0.18087599 -0.11659877 -0.06495419 -0.050847083 0.18025802 -0.08458925
-0.081008516 0.12726088 0.14344135 -0.15251982 0.03260287 -0.036760442 -0.111059725 -0.13530172
-0.008878395 -0.033670828 0.066108644 -0.013482839 0.110267624 0.15722223 -0.03779106 0.056437373
0.118116006 -0.12931873 0.032175332 -0.074510634 0.023572609 0.1474758 0.058272064 -0.084353946
-0.11679823 0.1705647 0.119634345 -0.16633423 0.018991902 -0.085073814 0.028718963 0.13953526
0.080436125 -0.08312749 -0.15800513 0.08196853 -0.16958947 0.047341153 0.103670076 0.16075648
0.18631832 0.026942406 -0.08219356 -0.17376478 0.0041362047 0.08799425 -0.018095607 -0.11324876
-0.100061275 0.16030313 0.058378458 -0.15974152 0.06589333 0.14650705 0.012537481 -0.0070004095
-0.0619907 0.027694145 -0.07069585 0.024946675 0.019313866 0.089575335 -0.05716371 0.17321639
0.17132427 -0.08259748 -0.09879381 0.10413722 0.028401146 0.011811061 -0.13521989 0.007042274
-0.021433443 0.054069236 0.14559059 0.09064104 -0.061193727 -0.05894517 -0.075901814 -0.03209363
0.07658015 -0.14971869 -0.07191439 -0.0033803433 -0.06476691 -0.081129014 -0.019099101 -0.103880726
0.02523011 0.030967519 0.1506417 0.042921513 -0.08385916 0.16428997 -0.0370488 0.08368026
-0.05129811 -0.071936406 -0.1604566 0.16293634 -0.14205849 0.052849233 -0.116841406 0.06801489

fcn2.bias f4 [64]
00000000: 619c 9ebd cabf 3c3d 3296 c3bd 8a1a 0abe
00000010: 4f43 483d 2e45 f7bd 45c4 1b3e 096a 26be
00000020: 7510 203e a406 dfbd 78cf d4bc 6b17 0e3e
00000030: 2654 bf3d 6729 ebbd 57da 113e 4f82 2d3e
00000040: 2562 f93d d03b 3fbc fac4 04be c010 9b3b
00000050: 1338 6cbd 40a4 be3c 06b4 6cbd 6d95 0abc
00000060: c68b d23d c4d5 323d a8b9 543d 5f1e 17bd
00000070: d2ff 0fbe c05d 11be cc5b f63d 15a7 e4bd
00000080: db52 1a3e 9148 2e3e 940a 713d b265 463d
00000090: 2340 bcbd a41f f4bd 8227 5d3c 17be 34bc
000000a0: ec2c 313e e912 15be f1ca 46bd 1000 c13c
000000b0: 7ccb 553d f839 0ebd ceb9 a6bd 22e1 81bd
000000c0: 4169 02bd 8c27 edbd ed95 1e3e eef5 1d3e
000000d0: 00d0 d238 7f22 e13c 045f abbc 433b a1bd
000000e0: 227b d93d 7667 d13d 9c1a 123e 44f9 5cbd
000000f0: 38fc 963d 6aa7 923d edfe 8fbd d0b1 8dbd
-0.07744671 0.04608134 -0.09550132 -0.13486686 0.048892315 -0.12073742 0.1521159 -0.16251387
0.15631278 -0.108899385 -0.025977835 0.13876121 0.09342222 -0.11482506 0.14243446 0.1694424
0.12176923 -0.011671975 -0.12965766 0.0047322214 -0.057670664 0.02327168 -0.05778887 -0.008458477
0.10280566 0.043660894 0.051934868 -0.0368942 -0.14062431 -0.14195919 0.120292276 -0.11164681
0.1507067 0.1701987 0.05884798 0.048436828 -0.091919206 -0.119200975 0.013498189 -0.011031649
0.17302293 -0.14557995 -0.048533384 0.0235596 0.05219601 -0.034723252 -0.08140908 -0.06341769
-0.03183866 -0.115798086 0.1548688 0.15425846 0.00010052323 0.02748227 -0.02091933 -0.078726314
0.10619189 0.10224812 0.14267963 -0.053948656 0.07372326 0.07160838 -0.07031045 -0.06918681

fcn3.weight f4 [32, 64]
00000000: c73c 6f3d 6f90 993c 80b3 bcbd fed0 bbbd
00000010: a535 ca3d ccad 73bd 2043 d03d 5827 ff3c
00000020: 639f aa3d a3c9 40bd 75a3 efbd 3725 f8bd
00000030: 020a fbbd 4a67 683d 50cb c93c 2b53 1cbd
00000040: 7941 de3d b492 d3bd 7d4a ebbd de6d efbd
00000050: 1ede b8ba 1854 f7bc a860 2c3d b047 8bbc
00000060: 2404 a3bd 338a 1fbd 8aa8 bdbd fcee e4bd
00000070: a4d4 ba3d 40b0 14bc f366 c8bd 2466 c13d
00000080: ec34 ac3d de51 b03d 7a11 bb3b 4d13 963d
00000090: 3d95 ab3d 8e30 ddbd a40a 1b3d 28b5 e9bd
000000a0: d38f a23b 5044 6e3d 4ff8 be3d 259a bebd
000000b0: d5ee 52bc bca2 85bd 40d4 38bc e027 81bb
000000c0: 933c bebd 98a5 99bd fc6c 97bc 4bfd 003e
000000d0: 6428 d1bd 0320 c5bd afac ab3d dd59 dbbd
000000e0: 29c4 95bd bc52 2cba 5031 903d 3b83 4cbd
000000f0: 16e5 5abc 3078 cabc 004a 7cbd 8ec6 613d
00000100: e120 c1bc 6697 023e 84b7 f0bd dc0a 99bd
00000110: 15ba b33d a825 eabd 2a4e ab3d 20f7 26bc
00000120: 6a1c f93c 49cb e23d 9462 503d 0a48 69bd
00000130: ed61 c7bd a748 f1bc efcc a1bd b19c 5d3d
00000140: f3d8 26bc 0076 fcbb f32b cabd a091 2b3c
00000150: c4d2 d3bd b89e a2bd dc55 0c3d 80bb 69bc
00000160: a8e4 85bb 1e61 c83d 36fa 04be 698f 353d
00000170: 2e5d c03d 344b 27bd dd41 553d ae5c 83bd
00000180: 7ab5 1e3d 433a b8bd e06a f3bd c202 993d
00000190: faf3 06bd 704d 30bd 71c7 02bd 9c51 653d
000001a0: 11d8 a6bd 5893 9bbc 6bae bdbd d5e3 0dbd
000001b0: 817e 613d 9b3a 92bd c01d b0bc 74f3 473d
000001c0: 981f 9dbc dc37 76bd 1b3e 78bb 43db 733d
000001d0: a8c2 c53c 22f0 9b3d 89f1 2b3d ffa8 ebbd
000001e0: e81b a7bd f110 a53c bc9d 75bd 54bd ecbc
000001f0: e75c 7bbd c164 96bd 8856 bfbd c2b1 d6bd
00000200: 78d1 e6bc 2cca e8bd a8e0 833d b02e 20bc
00000210: 3193 72bc 7c3c a53d 0601 6e3d a40b e0bd
00000220: 1e3a 93bd 0a26 cf3b a4dd f4bc 5b57 3c3c
00000230: e3ff 0cbd d770 83bd 13a6 bc3d 2389 bcbd
00000240: 62b7 723c 8470 d2bd ba8f cabd 302a 2abd
00000250: de11 663d 1014 263d 68e1 f63d b613 06be
00000260: 25a6 823d 82f8 093c 63f2 b83c 6a82 043d
00000270: c023 8fbc 5c6e 133d 4312 a8bb 0b99 2bbd
00000280: 6b63 253d c314 e83d a525 07bd 554f 5c3d
00000290: 27e3 ac3b 8877 acbc e939 ee3d b85f 2cbd
000002a0: 744e 8d3d fc68 3c3d b8a7 35bc d5b7 26bd
000002b0: ae1f 06be f339 9d3d 5059 2d3d 44b2 70bd
000002c0: 46b6 e2bd 30b0 b7bd f9ab 00be cf89 6c3d
000002d0: c043 0f3c a148 d8bd 0462 d7bd 6cc7 fcbd
000002e0: 5627 5dbd e459 a1bd c898 993d 7d6b 8ebd
000002f0: b5c2 a03c 3180 793c 010c f33d c819 dcbd
00000300: f820 cfbd b94e d83d d048 bd3c 8cf7 c0bd
00000310: 8e74 c4bd c805 4abd 62b9 7abd 0a4a 9c3d
00000320: 1d8f 513d 1d36 8dbd c473 76bd 6cd6 fdbc
00000330: 511e 3a3d 29aa dabd f8e4 e03d 721d 99bd
00000340: 9e35 39bd 12c2 d9bd 8c83 8dbd 8448 c23d
00000350: f455 f1bd 447e 1d3d e808 9dbd 67b3 12bc
00000360: cfe9 abbd f4a1 dc3d 705b 313c 0781 b1bd
00000370: ea18 dbbd 9653 fdbd 61a8 e739 7a5f c13d
00000380: 46be 02be 7945 3bbd 6f63 613d e6f4 82bb
00000390: f03d cf3d 4c5d 693d 27b7 cabd 6139 d1bd
000003a0: dd85 ab3d 82a0 803d f946 9e3d 3683 c5b7
000003b0: 35eb 2c3d f72b abbc b474 fb3d 00c0 c637
000003c0: 2138 9bbd b414 ed3d 6b2d aabc 6668 f93c
000003d0: 706f cfbd c880 9a3c 7f8f a83a f852 1dbd
000003e0: 4728 8fbd a4d4 5bbd ec8c f43d 2d88 e8bd
000003f0: bfb5 c7bc 151d dc3d 8604 693d 24c7 acbc
0.05840757 0.01874563 -0.092139244 -0.091707215 0.09873513 -0.059491917 0.10169053 0.03114669
0.08331182 -0.047067296 -0.11701099 -0.12116473 -0.12257768 0.05673913 0.02463308 -0.038165253
0.10852332 -0.10330716 -0.11488817 -0.116908774 -0.0014104282 -0.030191466 0.042084366 -0.017001957
-0.07959774 -0.038950156 -0.09260662 -0.11178395 0.09122589 -0.009075224 -0.09785261 0.0944331
0.084085315 0.08609365 0.0057088705 0.073279 0.08378074 -0.10800277 0.037851945 -0.11411506
0.004960993 0.058170617 0.09324705 -0.093067445 -0.012874325 -0.0652518 -0.011281073 -0.003941521
-0.09288897 -0.075022876 -0.018484585 0.12596624 -0.10212782 -0.096252464 0.08382546 -0.107104994
-0.07312805 -0.00065736077 0.070406556 -0.04992984 -0.013360282 -0.024715513 -0.06159401 0.055120997
-0.023575248 0.12753066 -0.11753753 -0.074727744 0.08775727 -0.114329636 0.08364518 -0.010190755
0.030409057 0.1107393 0.05087526 -0.056953467 -0.09735475 -0.029453589 -0.07900416 0.05410451
-0.010183561 -0.0077044964 -0.09871664 0.010471731 -0.10342935 -0.079404294 0.03426157 -0.014265895
-0.004086096 0.09784149 -0.12986073 0.04432622 0.093927726 -0.040843204 0.052064765 -0.064141616
0.03874729 -0.089954875 -0.11885619 0.07471229 -0.032947518 -0.0430426 -0.031928483 0.055986032
-0.0814668 -0.018991157 -0.09261783 -0.034641106 0.055052284 -0.07140084 -0.02149856 0.04881616
-0.019180104 -0.060111865 -0.0037878815 0.059535276 0.02414067 0.07614161 0.041978393 -0.11506843
-0.081596196 0.02014968 -0.05996488 -0.028898872 -0.061367895 -0.07343436 -0.093426764 -0.10483123
-0.028176054 -0.11366686 0.06439334 -0.009776756 -0.014805601 0.08068177 0.058106445 -0.1093972
-0.07188819 0.0063216733 -0.029890843 0.011495437 -0.03442372 -0.06418007 0.09211364 -0.09205844
0.01481423 -0.10275367 -0.09890695 -0.04154414 0.056169383 0.040546477 0.120547116 -0.13093457
0.06379346 0.008421065 0.022576516 0.032350935 -0.017473102 0.03599392 -0.00512913 -0.041894
0.040378015 0.11332085 -0.032994885 0.053786594 0.005276102 -0.02105309 0.11632139 -0.042083472
0.06899729 0.04599856 -0.011087351 -0.04070266 -0.13098022 0.076770686 0.042321503 -0.058763757
-0.11069922 -0.08969152 -0.12565602 0.057748612 0.00874418 -0.10560728 -0.10516742 -0.12342724
-0.05399259 -0.078784734 0.07499844 -0.069540955 0.019624094 0.015228317 0.11867524 -0.10747105
-0.1011371 0.1056189 0.023106009 -0.09422216 -0.095925435 -0.04932192 -0.06121195 0.07631309
0.051161874 -0.06895087 -0.060168996 -0.030986033 0.04543907 -0.10676987 0.10981172 -0.074763194
-0.04521715 -0.10632719 -0.06909856 0.094864875 -0.117839724 0.038450494 -0.07667714 -0.008953906
-0.08394205 0.107730776 0.010825023 -0.08667188 -0.10698111 -0.123694584 0.00044185205 0.09442039
-0.12767896 -0.04572055 0.055026468 -0.0039964793 0.101192355 0.05697374 -0.09898215 -0.10216022
0.08375142 0.062806144 0.07728381 -2.354533e-05 0.0422165 -0.020894988 0.12278119 2.3692846e-05
-0.07579065 0.115762144 -0.02077361 0.030445289 -0.10128677 0.018860236 0.0012860148 -0.038409203
-0.06990104 -0.053669587 0.11940941 -0.113540985 -0.024378655 0.107477345 0.05688908 -0.021091051
