models/haptic/intialstate_400_1.pt (torch_old, 21858 bytes, 5 tensors)

fcn1.weight f4 [32, 32]
0	0xbe0840cc	-0.13305968
1	0xbd83c411	-0.06433881
2	0xbe050755	-0.12991078
3	0x3dd96547	0.1061502
4	0xbca316e4	-0.019908376
5	0x3dbebbe0	0.09313178
6	0x3ca0e61d	0.019640977
7	0x3d951c55	0.072807945
8	0x3c79842b	0.015229265
9	0xbc2c142f	-0.010502859
10	0xbd869f6b	-0.06573375
11	0xbd911dd1	-0.07085765
12	0xbc8e0e24	-0.017340727
13	0x3df1283e	0.11775254
14	0x3df2e8fc	0.118608445
15	0xbe18c28e	-0.14917967
16	0xbd310402	-0.043216713
17	0x3da3fd16	0.08007257
18	0xbdd89fb8	-0.10577339
19	0x3e1a97a7	0.15096913
20	0x3dd533ed	0.10410295
21	0xbd06c88d	-0.032906104
22	0xbe0adb56	-0.13560233
23	0x3d5fa371	0.05459923
24	0x3e239aa4	0.1597696
25	0x3e199cbc	0.15001196
26	0x3e3e792e	0.18600914
27	0x3cd3797d	0.025814766
28	0x3e338f1c	0.1753506
29	0xbdafaebe	-0.08578251
30	0xbd3fe1fa	-0.046846367
31	0xbbf38d88	-0.0074326433
32	0xbdc7c1c9	-0.097537585
33	0xbcc841f5	-0.024445513
34	0xbe01307c	-0.12616152
35	0x3e27f2b7	0.16401182
36	0x3d9013d0	0.07035029
37	0xbd3c562a	-0.04598061
38	0xba2f1e83	-0.0006680267
39	0xbdb29ccd	-0.087213136
40	0xbe25190f	-0.1612284
41	0xbd6fac8d	-0.058514167
42	0x3de03eec	0.109495014
43	0x3c899250	0.0167934
44	0x3cc471fd	0.023980135
45	0x3def5f50	0.11688101
46	0xbc8aff67	-0.016967488
47	0xbd8596cf	-0.06522905
48	0x3d32a976	0.04361864
49	0xbc322e93	-0.010875362
50	0xbcc7785f	-0.02434939
51	0x3d4fe6b8	0.05075714
52	0x3c285abb	0.010275538
53	0x3b95f380	0.0045761466
54	0x3d9f3b10	0.07774937
55	0xbcae6dfd	-0.02129268
56	0x3dd0693c	0.10176322
57	0xbce7bc35	-0.028287986
58	0x3d3edaf8	0.046595544
59	0x3e2f4045	0.1711436
60	0xbd48256d	-0.048863817
61	0xbdad846b	-0.08472522
62	0x3d6101c6	0.054933332
63	0xbcdb468d	-0.02676704
64	0xbdf3b5ea	-0.11899932
65	0x3dc9ebd3	0.09859433
66	0x3e0da0f6	0.13830933
67	0x3d9f8b5c	0.077902526
68	0x3b01d2f8	0.0019809585
69	0x3d012cde	0.03153693
70	0xbe251500	-0.16121292
71	0xbd605297	-0.054766264
72	0x3cca5982	0.024700884
73	0x3dada721	0.08479143
74	0x3e12896b	0.14310233
75	0x3dc3c1c2	0.09558441
76	0x3e0e32bc	0.13886541
77	0xbe2328a1	-0.15933467
78	0x3dbf0cc1	0.093286045
79	0x3d435b27	0.04769435
80	0xbd93b2d4	-0.07211843
81	0xbe272540	-0.16322803
82	0x3e374b13	0.17899732
83	0xbd3d05e6	-0.046148203
84	0xbe134762	-0.14382699
85	0xbde9471d	-0.11390517
86	0x3d6b0533	0.057378005
87	0x3dfa467c	0.12220475
88	0x3d020acb	0.031748574
89	0x3d284720	0.041083455
90	0xbc35d943	-0.0110991625
91	0x3d2fc3ca	0.04291133
92	0xbac3f6e2	-0.0014950896
93	0x3e1eb30a	0.15497985
94	0x3da36fce	0.079803094
95	0xbd7f4339	-0.062319968
96	0x3d4abedf	0.049498435
97	0xbd9c8f45	-0.07644514
98	0xbdd31312	-0.10306372
99	0xbda13279	-0.07870955
100	0x3e0ccbd0	0.13749623
101	0x3d9ece98	0.077542484
102	0xbe36d568	-0.17854846
103	0x3e0ecf71	0.1394632
104	0xbe14b338	-0.14521492
105	0x3e0708a3	0.13186888
106	0x3d1785ec	0.036992952
107	0xbd15ce13	-0.03657348
108	0x3c3643ed	0.011124593
109	0xbdb3f6d1	-0.08787311
110	0x3e318f2c	0.17339772
111	0xbd5dd3d9	-0.05415711
112	0xbd24cb86	-0.040233158
113	0xbe027db5	-0.12743266
114	0x3e040147	0.12891112
115	0x3e1fe621	0.15615131
116	0x3d2de0aa	0.042450584
117	0xbc8040eb	-0.015655955
118	0x3d911582	0.070841804
119	0xbd8456b3	-0.06461849
120	0x3e412cf2	0.18864802
121	0xbd254eb2	-0.040358253
122	0x3d9ea03f	0.07745408
123	0x3e235523	0.15950446
124	0xbd081a6f	-0.033228334
125	0x3e1bd994	0.15219718
126	0x3de934f1	0.11387051
127	0x3c3014aa	0.010747114
128	0xbd4faa8d	-0.05069976
129	0x3e157f74	0.14599401
130	0x3d9abe11	0.075557835
131	0x3cd660e5	0.02616925
132	0xbd31be2c	-0.043394253
133	0xbe1e36e6	-0.1545063
134	0xbe10e141	-0.14148428
135	0xbaccdc94	-0.0015629702
136	0xbe22abdf	-0.15885876
137	0xbe20422f	-0.15650247
138	0xbcf0a7e1	-0.029376926
139	0x3809fc74	3.289846e-05
140	0x3e185cab	0.148791
141	0xbdcb33c9	-0.099219866
142	0xbe1ebc21	-0.15501453
143	0x3c8a301d	0.016868645
144	0xbe171076	-0.14752373
145	0xb8e6de9e	-0.0001100872
146	0x3e1315fb	0.14363854
147	0xbe054893	-0.13015966
148	0x3d69240d	0.056919146
149	0xbcff62ae	-0.031174984
150	0x3e4560dd	0.19275232
151	0x3ca88e5e	0.020575698
152	0xbb122d41	-0.0022304805
153	0xbcc0b660	-0.023524463
154	0xbd8fd1bb	-0.07022425
155	0x3e12c970	0.14334655
156	0xbd993c6b	-0.07482227
157	0x3e360884	0.17776686
158	0x3e0a0366	0.13477859
159	0xbe085ebc	-0.13317388
160	0x3e0677c2	0.13131621
161	0xbb98484a	-0.0046472894
162	0x3dec136c	0.11527142
163	0xbd9d6201	-0.076847084
164	0x3d140f0d	0.036147166
165	0x3c444380	0.011978984
166	0x3c9264cc	0.01787033
167	0xbcce99c0	-0.025219798
168	0xbc2e9c28	-0.010657348
169	0xbda892d2	-0.08231129
170	0x3e14053b	0.1445512
171	0x3db8767a	0.090069726
172	0xbd9f4f56	-0.07778804
173	0xbc9e166c	-0.019297801
174	0xbe138fac	-0.14410275
175	0xbd357c82	-0.044308193
176	0x3d103076	0.035202466
177	0x3e3602fc	0.17774576
178	0xbe2a75e4	-0.16646534
179	0xbd04c908	-0.03241828
180	0xbdecbf74	-0.11559954
181	0x3e04a5ba	0.12953845
182	0xbe20adb2	-0.1569126
183	0x3d46abbd	0.048503626
184	0x3d433f4b	0.047667783
185	0x3dd5a051	0.104309686
186	0x3d345082	0.04402209
187	0x3cfde930	0.030994982
188	0x3e37770a	0.17916504
189	0xbcaef734	-0.02135811
190	0x3e0f684b	0.14004628
191	0x3dd09074	0.10183802
192	0xbd5a6e21	-0.053327683
193	0xbd6bea01	-0.05759621
194	0x3dcd6d3f	0.10030603
195	0xbd9a56a2	-0.07536055
196	0x3c2f4c9d	0.010699418
197	0xbe1aee43	-0.15129952
198	0x3dd16345	0.10224012
199	0xbe1dcf3e	-0.15411088
200	0x3d302885	0.043007392
201	0xbe111361	-0.14167549
202	0x3d5df986	0.054193042
203	0xbc61f8e4	-0.01379225
204	0xbd973e5f	-0.07384943
205	0xbc83a349	-0.016069071
206	0x3d413c7c	0.047176823
207	0xbbaf1907	-0.0053435597
208	0x3e16494e	0.14676401
209	0xbe08e867	-0.13369904
210	0x3e0a1b30	0.13486934
211	0xbdf74992	-0.12074579
212	0xbd766aa4	-0.060160294
213	0x3bab8ce6	0.0052353023
214	0xbdb98b41	-0.09059764
215	0x3dc4c72a	0.096083
216	0x3e3c0c75	0.18364127
217	0xbd33277d	-0.04373883
218	0xbc99bb4f	-0.018766074
219	0x3d31f8c1	0.04345012
220	0x3e1f5635	0.15560229
221	0x3e4336d6	0.19063887
222	0x3d87e624	0.06635693
223	0x3d6e61a9	0.058198605
224	0x3e3c1792	0.18368366
225	0xbda24648	-0.07923561
226	0x3de44f73	0.11147966
227	0xbdbba81e	-0.09162925
228	0x3d890e95	0.066922344
229	0xbe221269	-0.15827335
230	0xbbec4f44	-0.0072115976
231	0x3e33d5c1	0.1756201
232	0x3e38f138	0.18060768
233	0xbd25e51c	-0.0405017
234	0xbdc8af20	-0.097990274
235	0xbcfed7f7	-0.03110884
236	0x3dd3f60b	0.10349663
237	0x3d068687	0.03284314
238	0xbd944d72	-0.07241334
239	0xbdb5e825	-0.08882169
240	0x3dd49002	0.1037903
241	0xbe038d1c	-0.12846798
242	0xbda8c719	-0.082411
243	0xbd1d9cc4	-0.03847958
244	0x3e1d228d	0.15345211
245	0x3dfde928	0.12397987
246	0x3df9f222	0.12204386
247	0xbe06a814	-0.13150054
248	0x3d495ee0	0.049162745
249	0xbcc45b4f	-0.02396932
250	0x3d9bbbaa	0.076041535
251	0x3dd748e3	0.10511949
252	0xbe19bd28	-0.15013564
253	0xbe1e6420	-0.15467882
254	0x3c0a251d	0.0084317
255	0xbe3ec4a6	-0.18629703

fcn1.bias f4 [32]
0	0x3de862d1	0.11346973
1	0x3d0b133b	0.033953886
2	0x3b2358ac	0.0024924679
3	0x3d86300e	0.065521345
4	0x3dd1d991	0.102465756
5	0xbe2d4f39	-0.16924752
6	0x3e058b90	0.1304152
7	0x3e11151a	0.14168206
8	0x3d0e1540	0.034688234
9	0xbdb1a75c	-0.086744994
10	0xbd5c125c	-0.053728446
11	0xbd45b388	-0.048266917
12	0xbd811728	-0.06303245
13	0x3decf353	0.11569848
14	0xbe31cf16	-0.17364153
15	0xba3de307	-0.00072436075
16	0x3e260d8a	0.16216102
17	0x3df4dd75	0.11956302
18	0xbe0268d8	-0.12735307
19	0x3d907e18	0.070553005
20	0xbe1ea6d9	-0.15493335
21	0xbe1cdfd5	-0.1531976
22	0x3e412cb1	0.18864705
23	0xbc27d2a5	-0.010243093
24	0xbe352592	-0.17690113
25	0xbe153c03	-0.14573674
26	0x3aac8d80	0.0013164729
27	0x3c863293	0.016381538
28	0x3e0a2ab6	0.13492855
29	0xbd5df29e	-0.054186456
30	0x3dc4c624	0.09608105
31	0x3d4bb9d1	0.049737755

fcn2.weight f4 [64, 32]
0	0x3dc8f4d0	0.09812319
1	0xbe2adf33	-0.16686706
2	0xbdaf70cc	-0.08566436
3	0xbe0af0a6	-0.13568363
4	0x3d44569c	0.04793416
5	0xbdfa0a86	-0.122090384
6	0xbdd77a38	-0.10521358
7	0x3ce9916d	0.028511727
8	0x3d7a9ba8	0.0611836
9	0x3d829fec	0.06378159
10	0x3dfc0729	0.12306053
11	0xbe3020af	-0.17199968
12	0xbcd20194	-0.025635518
13	0x3e2cfa61	0.16892387
14	0x3d2e72f8	0.04259011
15	0x3d830780	0.06397915
16	0x3e24b739	0.16085519
17	0x3de06a71	0.10957802
18	0xbe209682	-0.15682414
19	0xbdab807c	-0.08374116
20	0xbc0b6c40	-0.0085096955
21	0xbd82d614	-0.063884884
22	0x3e212e83	0.15740399
23	0xbdedf846	-0.1161962
24	0x3c29d1ca	0.010364959
25	0x3e059241	0.13044073
26	0xbe31e63c	-0.17372984
27	0xbde4a497	-0.111642055
28	0x3e2a56a5	0.16634615
29	0xbe2a0399	-0.16602935
30	0x3e199e90	0.15001893
31	0x3d80b851	0.062851556
32	0xbe169872	-0.14706591
33	0x3e4016bb	0.18758671
34	0x3c0afe80	0.008483529
35	0x3cffa8fe	0.031208511
36	0x3e27ff24	0.16405922
37	0x3d170554	0.036870316
38	0x3d8efa5e	0.069813475
39	0xbc98f3ba	-0.018670905
40	0xbe25bec6	-0.16186056
41	0x3dc44542	0.095835224
42	0x3db2759b	0.08713838
43	0xbc965d58	-0.018355057
44	0x3e163c0a	0.1467134
45	0xbd599900	-0.053124428
46	0x3e094933	0.1340683
47	0x3b5ae2c2	0.0033399318
48	0xbdc9718b	-0.0983611
49	0x3cae1e00	0.02125454
50	0x3e043cbc	0.12913793
51	0xbda22567	-0.0791729
52	0x3d545588	0.05183938
53	0x3e2d44a3	0.16920714
54	0x3db8c089	0.09021098
55	0x3d706caa	0.05869738
56	0xbdfa712c	-0.12228617
57	0x3daaab56	0.08333461
58	0x3e09ede7	0.13469659
59	0x3e2afdcc	0.16698378
60	0xbdc15ef9	-0.09441943
61	0xbdf6fc3d	-0.120598294
62	0xbddd6d90	-0.10811913
63	0xbdb775dd	-0.089580275
64	0xbdb05ac8	-0.08611065
65	0xbb8884d8	-0.004166227
66	0x3de89ae2	0.113576666
67	0xbe11d03e	-0.14239594
68	0x3e040427	0.12892209
69	0x3d15e486	0.03659489
70	0x3d177a6b	0.03698198
71	0x3dca2435	0.09870187
72	0x3e056c1b	0.1302952
73	0x3dea281f	0.11433434
74	0xbe1ee7d5	-0.15518124
75	0xbcc90026	-0.024536204
76	0x3d8f7ea1	0.070065744
77	0xbe3380e4	-0.17529637
78	0xbe0ce870	-0.13760543
79	0x3df2a325	0.118475236
80	0xbda920ba	-0.08258195
81	0x3d458160	0.048219085
82	0x3d9e8a43	0.07741215
83	0x3e26f580	0.16304588
84	0xbcfe3150	-0.031029373
85	0xbe305093	-0.17218237
86	0x3c97672c	0.018481813
87	0xbdee813a	-0.11645742
88	0x3ced2ef7	0.028953059
89	0xbd83b4aa	-0.06430943
90	0xbe2aabe8	-0.1666714
91	0x3cf3a59d	0.029742057
92	0x3dc6a391	0.096991666
93	0xbdc24b59	-0.09487028
94	0x3da0eca7	0.07857638
95	0xbdc843d2	-0.09778561
96	0xbd706a5e	-0.05869519
97	0xbaf9e8a9	-0.001906653
98	0xbd288337	-0.04114076
99	0x3cda9dab	0.02668651
100	0xbe37378a	-0.1789228
101	0x3df35d3d	0.11883018
102	0xbe2e8b77	-0.17045389
103	0x3d37c7a3	0.044868123
104	0x3e177dde	0.14794108
105	0xbdac8331	-0.0842346
106	0xbe2fe830	-0.17178416
107	0x3e14fcbb	0.14549534
108	0x3dddbd45	0.10827116
109	0xbe20cdd1	-0.15703513
110	0x3bfc8e40	0.007707387
111	0x3dcb11a6	0.099154755
112	0xbdf7d93f	-0.12101983
113	0xbcb4fae2	-0.022092286
114	0x3de11b70	0.109915614
115	0x3dbd6c7c	0.092492074
116	0xbba08ec0	-0.0048998296
117	0xbba37d80	-0.004989326
118	0x3e06799a	0.13132325
119	0x3dd1f1eb	0.1025122
120	0xbe2f57d5	-0.17123349
121	0xbe23939f	-0.15974282
122	0xbd4404f4	-0.047856286
123	0xbdb98737	-0.09058993
124	0xbda5a005	-0.08087162
125	0x3c68d180	0.014210105
126	0x3cc3dfd1	0.023910435
127	0x3e07eba0	0.13273478
128	0x3d92db88	0.071707785
129	0x3d08c20e	0.03338819
130	0x3dba1266	0.090855405
131	0xbe361bb3	-0.17784004
132	0xbd33722f	-0.043810066
133	0x3dfbc0d8	0.122926414
134	0xbd1c06fc	-0.0380926
135	0x3d0c3274	0.034227803
136	0xbd41c738	-0.04730913
137	0x3b3dae42	0.0028942977
138	0xbd33102e	-0.043716602
139	0x3e1eb846	0.15499982
140	0x3dd59132	0.104280844
141	0xbd0a2852	-0.03372986
142	0x3e069ed5	0.13146527
143	0xbda733c2	-0.08164169
144	0x3dc53802	0.09629823
145	0x3e35cf0a	0.1775476
146	0xbdb10b8a	-0.08644779
147	0x3dcc6c4e	0.09981595
148	0xbdef6eaa	-0.11691029
149	0xbe2a05e0	-0.16603804
150	0x3e2bee70	0.16790175
151	0x3d3363d1	0.043796364
152	0xbdde5621	-0.108562715
153	0x3e234577	0.15944467
154	0x3daf1dde	0.085506186
155	0x3cd946fe	0.02652311
156	0xbd071d84	-0.032987133
157	0x3d5bfb34	0.053706363
158	0xbe43067f	-0.19045447
159	0xbe1f0549	-0.1552936
160	0xbe334234	-0.17505723
161	0xbcebeda6	-0.028799843
162	0xbc9cd274	-0.01914332
163	0x3e0c84af	0.1372249
164	0xbe2e855b	-0.17043059
165	0x3d12d478	0.035847157
166	0x3c525361	0.012837262
167	0x3e3d2ee0	0.18474913
168	0x3e17e820	0.14834642
169	0xbe327a60	-0.17429495
170	0xbde56ad5	-0.11202017
171	0xbba8f5d4	-0.005156258
172	0x3e1d0b84	0.15336424
173	0x3da6f5e9	0.081523724
174	0x3e08f38d	0.13374157
175	0xbd2b2763	-0.04178561
176	0xbdbbbd17	-0.091669254
177	0x3e01afb0	0.12664676
178	0x3dd4a733	0.10383453
179	0x3da29e02	0.07940294
180	0xbd9b289b	-0.07576104
181	0x3e121b17	0.14268146
182	0x3e2a71cc	0.16644973
183	0xbd87c925	-0.06630162
184	0xbd2ba21e	-0.041902654
185	0x3e0e1e89	0.13878836
186	0x3da48882	0.08033849
187	0x3e095bd7	0.1341394
188	0x3cc98187	0.024597896
189	0xbe1b77b1	-0.15182377
190	0x3cd2a76e	0.025714602
191	0xba099adb	-0.00052492105
192	0x3e2f83e1	0.17140152
193	0x3bdfc560	0.006828949
194	0x3cbc91c0	0.023018718
195	0x3d88e7bc	0.06684825
196	0xbe1c84f8	-0.15285099
197	0xbd343168	-0.04399243
198	0xbe1574c0	-0.14595318
199	0xbe1955ce	-0.14974138
200	0x3d883be6	0.0665205
201	0xbd8aa5a2	-0.06769873
202	0xbdd5d213	-0.10440459
203	0xbe1e3e18	-0.15453374
204	0x3e325425	0.17414911
205	0xbe10a98e	-0.1412718
206	0xbe0c5670	-0.13704848
207	0xbe03bf61	-0.12865974
208	0xbd8c5867	-0.06852799
209	0x3cf3b018	0.029747054
210	0xbd102d4c	-0.03519945
211	0xbe02746c	-0.12739724
212	0x3df5a7ba	0.11994882
213	0xbdee4009	-0.116333075
214	0xbdde16cf	-0.10844194
215	0x3c954950	0.018223435
216	0xbd6988dc	-0.057015285
217	0xbde9e84a	-0.11421259
218	0xbe117c2c	-0.14207524
219	0x3db864d6	0.09003608
220	0x3cca48f8	0.024692997
221	0xbe27c3c7	-0.16383277
222	0xbd80c2b9	-0.062871404
223	0xbe095fe6	-0.13415489
224	0x3d796a2a	0.06089226
225	0x3d27db46	0.0409806
226	0x3dfa474d	0.12220631
227	0x3e064dac	0.13115567
228	0xbba91690	-0.0051601604
229	0x3c76fb92	0.0150746275
230	0xbe003099	-0.12518539
231	0xbe1c37d6	-0.15255675
232	0xbcce8e76	-0.025214415
233	0xbd3da583	-0.046300422
234	0x3da3ddb5	0.08001272
235	0x3cff766e	0.031184401
236	0xbde63f85	-0.11242584
237	0x3c81d3fc	0.015848152
238	0xbdf6e980	-0.12056255
239	0xbc5a0794	-0.013307471
240	0x3e2be368	0.16785967
241	0xbd33fb7d	-0.04394101
242	0xbe26a2b8	-0.1627301
243	0xbd3c94d5	-0.046040375
244	0xbddad089	-0.10684306
245	0x3e0beea1	0.13665248
246	0x3db87b3a	0.090078786
247	0xbe28209b	-0.16418688
248	0xbb740839	-0.0037236346
249	0xbcb6d198	-0.022316739
250	0x3dcb8a3e	0.09938477
251	0x3d70754a	0.058705606
252	0x3db611e2	0.088901296
253	0x3db14086	0.08654885
254	0xbdcbebdd	-0.09957097
255	0x3ca7efc4	0.020500071

fcn2.bias f4 [64]
0	0x3e26658c	0.16249675
1	0x3cdcd0c0	0.026955009
2	0x3e215cb5	0.15758021
3	0x3dd8e8be	0.10591267
4	0x3dad0c2d	0.08449588
5	0x3d882346	0.06647353
6	0xbe062993	-0.13101797
7	0xbd2f35eb	-0.04277603
8	0x3dad701a	0.08468647
9	0xbe2a3280	-0.16620827
10	0xbdbd44d9	-0.09241647
11	0xbe3039b4	-0.17209512
12	0x3ddda076	0.10821621
13	0x3dc8c192	0.098025456
14	0xbd8a2b4a	-0.06746538
15	0xbde2c514	-0.11072746
16	0xbe10d644	-0.14144236
17	0xbd18b5f3	-0.037282895
18	0x3d6bca92	0.057566233
19	0x3e0972e2	0.1342273
20	0xbe12786b	-0.14303748
21	0xbca812c0	-0.020516753
22	0x3d8d031a	0.06885357
23	0xbde3d222	-0.11124064
24	0xbd90b7f6	-0.07066338
25	0x3de4ebba	0.11177774
26	0xbe17b248	-0.14814103
27	0xbcfb81bd	-0.030701512
28	0xbc72b6dc	-0.014814105
29	0x3d5230a6	0.051315926
30	0x3e31ed8d	0.17375775
31	0xbcbda5c5	-0.023150334
32	0xbcd8e13d	-0.02647459
33	0xbd9d1f32	-0.07671966
34	0x3e09b5d1	0.13448264
35	0x3e11ee63	0.14251094
36	0x3e273ceb	0.16331832
37	0xbda61b8f	-0.08110725
38	0x3e008799	0.12551726
39	0xbe2207dc	-0.1582331
40	0xbc40a2f0	-0.011757597
41	0xbd53425c	-0.051576957
42	0x3c71e36a	0.014763692
43	0xbd0042b7	-0.031313624
44	0xbe002371	-0.1251352
45	0xbdccd84c	-0.10002193
46	0xbc4aa724	-0.012368951
47	0xbdd6eaaa	-0.10493977
48	0xbd27a896	-0.04093226
49	0xbda5c4d0	-0.0809418
50	0xbe09c849	-0.13455309
51	0x3e1fa269	0.15589298
52	0xbe257aed	-0.16160174
53	0x3d948bce	0.07253228
54	0xbe0cfae2	-0.13767579
55	0xbde1d1b4	-0.11026326
56	0x3d18eda5	0.03733601
57	0x3e16701f	0.14691208
58	0xbd8d3d3a	-0.06896444
59	0xbc8b5c1b	-0.017011693
60	0x3dbe5613	0.09293761
61	0x3e30dd0d	0.17271824
62	0x3df77fb1	0.12084902
63	0xbe0f62ba	-0.14002505

fcn3.weight f4 [32, 64]
0	0x3df28700	0.118421555
1	0x3c845236	0.016152482
2	0x3a859987	0.001019285
3	0x3d2c77a4	0.042106286
4	0xbde31121	-0.110872515
5	0x3c4deb8d	0.012568367
6	0x3da95870	0.08268821
7	0x3d616283	0.05502559
8	0x3df5a2e0	0.119939566
9	0x3d2be9a0	0.04197085
10	0x3cbee390	0.02330187
11	0x3c54add0	0.012980893
12	0xbbe5b2ee	-0.0070098555
13	0x3d901e07	0.07036977
14	0xbd165a48	-0.036707193
15	0x3dbb19f8	0.091358125
16	0xbdf94832	-0.12171973
17	0xbc1c422a	-0.009537259
18	0x3c8e7871	0.017391415
19	0xbdd6af21	-0.10482622
20	0xbdd47b8c	-0.10375127
21	0x3d84364c	0.06455669
22	0xbd852acd	-0.06502304
23	0x3de7b7b6	0.11314337
24	0x3d9483ae	0.072516784
25	0xbd0858cd	-0.033287812
26	0x3de6d86c	0.11271748
27	0xbdb1fadf	-0.08690428
28	0xbdee8439	-0.11646313
29	0x3d25f8e8	0.04052058
30	0xbdc14885	-0.0943766
31	0x3dcc5456	0.09977023
32	0x3d719d3e	0.05898785
33	0xbd13e950	-0.036111176
34	0x3cd4591c	0.025921397
35	0xbde9021d	-0.11377356
36	0xbc8b3edc	-0.016997747
37	0xbd9580bf	-0.07299947
38	0xbde3fccf	-0.11132204
39	0x3cd01036	0.025398355
40	0xbd45c5c4	-0.048284307
41	0x3d30b5c4	0.043142095
42	0x3da8d7c9	0.08244283
43	0xbd1309ca	-0.035898007
44	0xbc0a18ad	-0.008428735
45	0x3dfe8d4c	0.12429294
46	0x3dc838c5	0.09776453
47	0xbd23b8b8	-0.039971083
48	0xbd3be72a	-0.045874752
49	0xbc8fb238	-0.017541036
50	0xbd138464	-0.03601493
51	0x3d92f9c3	0.071765445
52	0x3dc90bf8	0.09816736
53	0x3a8c63ff	0.0010710954
54	0xbd920cd2	-0.071313515
55	0xbdc13b46	-0.09435134
56	0x3d92891b	0.07155057
57	0x3c9fe89f	0.019520102
58	0xbddecad8	-0.10878533
59	0xbdd6358a	-0.104594305
60	0xbaf2d0f6	-0.001852541
61	0xbdc351d4	-0.09537092
62	0x3d7047ac	0.0586621
63	0xbdb5d5cc	-0.08878669
64	0xbcfebd70	-0.03109619
65	0x3c9d052e	0.019167509
66	0x3cc3d5a9	0.023905592
67	0xbd941e21	-0.07232309
68	0x3dc8c88b	0.098038755
69	0x3cf0e329	0.029405193
70	0xbdd67496	-0.10471456
71	0x3dea95da	0.11454363
72	0x3d066f69	0.032821093
73	0xbcfddf30	-0.030990213
74	0xbcf14b10	-0.029454738
75	0x3d97aa7c	0.07405564
76	0x3c14038d	0.00903405
77	0xbd675470	-0.05647701
78	0x3d8fd8f4	0.070238024
79	0x3da67938	0.081285894
80	0xbd983500	-0.07431984
81	0x3dfd3d74	0.12365237
82	0xbdf0a387	-0.1174994
83	0xbdd16b90	-0.10225594
84	0xbd1da0ec	-0.038483545
85	0xbe0be4fc	-0.1366157
86	0x3d3812c2	0.044939764
87	0x3cb1b8f1	0.021694632
88	0x3d9e7101	0.077363975
89	0x3d93a853	0.0720984
90	0xbdf55d34	-0.11980668
91	0xbd86bb53	-0.06578698
92	0xbc82458b	-0.015902301
93	0x3de05543	0.109537624
94	0xbcf2f6cf	-0.029658703
95	0xbbc33943	-0.005957754
96	0x3db3ac41	0.08773089
97	0x3d1fb0b8	0.03898689
98	0xbcc739bb	-0.02431952
99	0xbd93c0e3	-0.072145246
100	0x3d9592e6	0.07303409
101	0xbd397102	-0.04527379
102	0xbd0f12ae	-0.034929924
103	0x3cf7747f	0.030206917
104	0xbd94dbd4	-0.072684914
105	0x3decb7f8	0.11558527
106	0xbdeab8c9	-0.11461026
107	0xbd367414	-0.044544294
108	0xbe067e82	-0.13134196
109	0xbc23e910	-0.010004297
110	0x3cb328c1	0.021870019
111	0x3d214820	0.039375424
112	0xbce8d0bb	-0.028419843
113	0x3c91af38	0.017783746
114	0xbc5dfe10	-0.013549343
115	0x3d20367d	0.039114464
116	0x3da49e70	0.08038032
117	0xbd508a78	-0.050913304
118	0xbc7f09a0	-0.01556626
119	0xbc284a92	-0.010271685
120	0x3c54d0a8	0.012989201
121	0x3c66a750	0.014077976
122	0xbca50a7b	-0.020146599
123	0x3ca5cc12	0.02023891
124	0xbd5d38fd	-0.054009426
125	0xbcd3494f	-0.025791792
126	0xbd0b5bc7	-0.034023073
127	0x3d0eea48	0.034891397
128	0x3c9a84f6	0.018862229
129	0xbe05e72f	-0.13076471
130	0x3d70c429	0.058780823
131	0xbd098aa3	-0.03357948
132	0x3d82d7a5	0.06388787
133	0x3b42e338	0.0029737484
134	0xbc237fb0	-0.009979174
135	0x3da37a52	0.07982315
136	0x3cf94689	0.030429142
137	0x3d9e5426	0.07730894
138	0xbc531eea	-0.012885788
139	0x3df4e630	0.11957967
140	0xbd9b0fc3	-0.07571366
141	0xbddb0957	-0.10695141
142	0xbd3e95e5	-0.04652967
143	0x3baba060	0.005237624
144	0x3ca51d08	0.020155445
145	0xbdb26a0a	-0.087116316
146	0xbdac4eb4	-0.08413449
147	0x3ca103bd	0.019655103
148	0x3c774252	0.015091496
149	0xbd52edca	-0.051496305
150	0xbd05e229	-0.032686386
151	0x3aabc2db	0.0013104336
152	0xbdf24a4b	-0.118305765
153	0x3ccda313	0.025102174
154	0xbcbe91e8	-0.023262933
155	0xbc1cb3b0	-0.009564325
156	0x3abff1e6	0.0014644235
157	0xbcced3a5	-0.025247404
158	0xbcf33c18	-0.02969174
159	0x3df9b8b3	0.12193432
160	0x3dd9db9b	0.106375895
161	0x3ca8c9e8	0.020604089
162	0x3cb2cf63	0.021827405
163	0x3d37fed3	0.044920754
164	0xbd009348	-0.03139046
165	0x3d98b36b	0.07456096
166	0x3caaaaac	0.020833336
167	0x3de991ee	0.11404787
168	0x3c940a38	0.018071279
169	0x3c57de50	0.013175562
170	0x3c80d1ca	0.015725035
171	0xbb99a4ba	-0.0046888264
172	0xbe0c3a40	-0.13694096
173	0xbd9aa1c8	-0.075503886
174	0xbcbf775e	-0.023372348
175	0xbd81d68e	-0.06339751
176	0xbcfd318c	-0.030907415
177	0x3d06bfd4	0.032897785
178	0x3b9489a0	0.0045330077
179	0xbd22f15a	-0.039780952
180	0xbdac511e	-0.084139094
181	0xbb21002e	-0.0024566757
182	0xbdd077b2	-0.1017908
183	0x3d0a8107	0.033814456
184	0xbdb95a93	-0.09050479
185	0x3ca999a3	0.020703143
186	0xbd17ae6c	-0.037031576
187	0x3c332a1c	0.010935333
188	0x3c9b13a5	0.018930266
189	0xbce79eee	-0.028274026
190	0x3dceb3e5	0.10092906
191	0x3da32822	0.07966639
192	0x3e05c866	0.13064727
193	0xbd9320fa	-0.07184024
194	0xbe019212	-0.12653378
195	0xbdc3587a	-0.0953836
196	0x3d83a15f	0.064272635
197	0x3d22a3e9	0.0397071
198	0xbdb3184e	-0.0874487
199	0x3cac6457	0.02104394
200	0x3e067029	0.13128723
201	0x3da04d3a	0.0782723
202	0xbdb97877	-0.0905618
203	0x3c91e0d8	0.01780741
204	0x3d2ce542	0.042210825
205	0x3ccb579e	0.024822053
206	0x3dec9ef4	0.115537554
207	0x3d26501c	0.040603742
208	0xbda8a65e	-0.08234857
209	0xbde6e1f4	-0.11273566
210	0x3d9a5df7	0.075374536
211	0x3c2d34cb	0.010571669
212	0x3db9b480	0.09067631
213	0xbdb2d0fb	-0.08731266
214	0x3d8528b8	0.06501907
215	0xbd68615c	-0.056733474
216	0x3d27585b	0.040855747
217	0x3c3e56a4	0.011617336
218	0xbd9be3b8	-0.07611793
219	0x3cf89f39	0.03034936
220	0xbc80f24c	-0.015740536
221	0x3c3b396d	0.011427266
222	0xbcb61917	-0.02222876
223	0xbc00ff49	-0.007873365
224	0xbdb3e222	-0.08783366
225	0xba1eb900	-0.0006054789
226	0x3d2543ec	0.04034798
227	0x3c8eba60	0.017422855
228	0x3d9a71ba	0.07541223
229	0xbd7db38c	-0.061938807
230	0x3d1ee476	0.038792096
231	0xbd7de785	-0.061988372
232	0x3d0e0ee8	0.034682184
233	0xbdf9d1a4	-0.12198189
234	0x3b9c561f	0.0047710086
235	0xbc9af8c5	-0.01891745
236	0xbd95e642	-0.07319309
237	0xbdedcbfe	-0.11611174
238	0x3dca14ac	0.09867224
239	0x3dc78bae	0.09743439
240	0x3dadd68f	0.084881894
241	0xbbbd23c0	-0.005772084
242	0x3d9233c6	0.07138781
243	0x3d834f4c	0.06411609
244	0xbdc20728	-0.09474021
245	0x3c1c56ec	0.009542208
246	0xbdda8a24	-0.106708795
247	0xbd846d66	-0.064661786
248	0x3dbd0efb	0.09231373
249	0xbbcb648a	-0.0062070535
250	0x3d8577b0	0.06516969
251	0xbdf95149	-0.12173707
252	0x3bb23b7c	0.00543922
253	0xbdd57896	-0.104233906
254	0x3ddc531d	0.1075804
255	0xbd408450	-0.047001183
