models/haptic/intialstate_400_2.pt (torch_old, 21858 bytes, 5 tensors)

fcn1.weight f4 [32, 32]
0	0x3e347463	0.17622523
1	0x3da68174	0.0813016
2	0xbc99ee2f	-0.018790333
3	0x3b988e8f	0.004655666
4	0x3d12a0f7	0.03579804
5	0x3cb59777	0.02216695
6	0xbddece20	-0.10879159
7	0x3e236fe2	0.15960649
8	0x3e1c878e	0.15286085
9	0x3ddad73a	0.106855825
10	0x3e0e3883	0.13888745
11	0x3d88c2df	0.06677794
12	0x3a7167cb	0.0009208887
13	0xbe1c3f56	-0.15258536
14	0xbd7a1c9a	-0.061062433
15	0xbdee166e	-0.11625372
16	0x3d17ba0a	0.037042655
17	0x3d5a2632	0.053259082
18	0xbda2ef0c	-0.07955751
19	0x3d39f9d8	0.045404285
20	0x3db38948	0.08766419
21	0x3bec6775	0.0072144815
22	0xbe05badb	-0.13059561
23	0xbe04b57a	-0.12959853
24	0xbde3f1a7	-0.11130076
25	0x3e0a086a	0.13479772
26	0x3d82d0d0	0.06387484
27	0x3df34f37	0.118803434
28	0xbcfd7e4e	-0.030944016
29	0x3e17bcdf	0.14818142
30	0x3e004b68	0.12528765
31	0xbe231e96	-0.15929636
32	0xbcfce16a	-0.030869205
33	0xbdc6cf0d	-0.097074606
34	0x3e38a518	0.18031728
35	0xbddc3895	-0.1075298
36	0xbdbbd9cb	-0.091724
37	0xbda67a1e	-0.08128761
38	0x3e21e502	0.15810016
39	0x3e083802	0.13302615
40	0xbddc4473	-0.10755243
41	0xbe20ff1f	-0.15722321
42	0x3e1840e5	0.14868505
43	0x3e13e7b0	0.1444385
44	0x3d67a7f7	0.056556668
45	0x3d3b6aef	0.045756277
46	0xbc993dac	-0.018706165
47	0x3e192595	0.14955743
48	0x3c678d33	0.014132786
49	0xbd5b69bb	-0.05356763
50	0xbd2f89b0	-0.04285592
51	0x3d8e7ec6	0.06957774
52	0x3b8773be	0.0041336706
53	0xbdf456c0	-0.11930609
54	0xbd4e189d	-0.05031644
55	0x3e1a6b84	0.15080076
56	0x3d957ed2	0.0729958
57	0x3e1bccb1	0.15214802
58	0x3ddd8bc1	0.108176716
59	0x3b439b52	0.0029847217
60	0x3d7d0e9e	0.06178152
61	0xbe1e38e2	-0.15451387
62	0xbe1d22bd	-0.15345283
63	0x3d43d534	0.04781075
64	0x3d2447eb	0.04010765
65	0x3cc8a6a9	0.024493532
66	0x3d366903	0.04453374
67	0x3e230669	0.15920414
68	0x3df38264	0.118901044
69	0x3dc9fbb6	0.09862463
70	0x3c3c9931	0.011511133
71	0xbdfa4265	-0.12219695
72	0x3dbb25b6	0.09138052
73	0xbe1ae3c3	-0.15125947
74	0x3e17bcd5	0.14818127
75	0xbd87d7e8	-0.06632978
76	0x3b7bd399	0.0038425683
77	0x3e219d95	0.15782769
78	0xbd53f245	-0.051744718
79	0xbdffc0b2	-0.124879256
80	0xbddcba68	-0.10777742
81	0xbdbc727c	-0.09201524
82	0x3db3bfb2	0.08776797
83	0x3dc53dc2	0.0963092
84	0xbdfe9356	-0.12430446
85	0x3d3376b2	0.04381437
86	0xbe18467e	-0.1487064
87	0xbe1b1a97	-0.15146862
88	0x3e28de0b	0.16490953
89	0xbda99e2a	-0.082821205
90	0x3dea49b1	0.11439837
91	0x3e2882b8	0.16456115
92	0xbe339948	-0.17538941
93	0xbb81dd93	-0.0039631813
94	0x3da97f3c	0.08276221
95	0x3d2b4fbb	0.041824084
96	0xbd4aa903	-0.04947759
97	0x3d0a48ef	0.03376096
98	0xbb9f3044	-0.0048580486
99	0xbd2ec1fe	-0.042665474
100	0x3d8358e2	0.064134374
101	0x3e31c06e	0.17358562
102	0xbdeaba96	-0.1146137
103	0x3e064349	0.13111605
104	0xbe34a319	-0.17640342
105	0xbdb774d9	-0.08957834
106	0xbdf48d01	-0.11940957
107	0x3d8dfc26	0.06932859
108	0x3e213ed5	0.15746625
109	0x3d9c5642	0.0763364
110	0xbd1756f8	-0.036948174
111	0xbd9d5ed3	-0.07684102
112	0xbd1fb534	-0.03899117
113	0xbe18f1c4	-0.14935976
114	0xbcd59faa	-0.02607711
115	0xbdba4f2b	-0.09097131
116	0x3e0c4667	0.13698731
117	0x3d65ad5c	0.05607353
118	0x3d9c0b76	0.076193735
119	0x3dfce778	0.12348837
120	0x3e1e316f	0.15448545
121	0xbdce46b7	-0.100720815
122	0xbcb6b853	-0.02230469
123	0xbdb9ab19	-0.090658374
124	0xbdd7ceb9	-0.10537476
125	0xbc807692	-0.015681539
126	0xbd0b69d0	-0.034036458
127	0xbd364514	-0.04449947
128	0xbd84ca4d	-0.06483898
129	0xbdbbb2b0	-0.09164941
130	0x3e001e4b	0.12511556
131	0xbd98b9a5	-0.07457284
132	0xbe2d6a84	-0.16935164
133	0xbd3e81e4	-0.046510592
134	0xbba7c060	-0.0051193684
135	0xbe0270b8	-0.12738311
136	0x3dae7eae	0.08520256
137	0xbe04c31d	-0.12965055
138	0x3e08c219	0.13355292
139	0x3da7ebda	0.08199282
140	0x3dc132ee	0.09433542
141	0xbdcf8e5b	-0.10134574
142	0x3d9ba69e	0.07600139
143	0xbe06ca7a	-0.13163176
144	0x3e230c31	0.1592262
145	0x3ce4dca8	0.027937248
146	0xbd972cfe	-0.073816285
147	0xbb550140	-0.0032501966
148	0xbe0d0a22	-0.13773397
149	0x3e1b88ad	0.15188856
150	0x3cc12bc8	0.023580447
151	0x3d962342	0.07330944
152	0x3e312d57	0.17302452
153	0x3da178ea	0.07884391
154	0xbdcdd1a4	-0.100497514
155	0x3ce021b0	0.027359813
156	0x3d89f0c2	0.06735374
157	0xbd970573	-0.07374086
158	0xbe101082	-0.14068797
159	0xbdab1ff0	-0.08355701
160	0x3d3ef7c3	0.046623003
161	0x3ce5ba02	0.028042797
162	0xbe289d02	-0.16466144
163	0x3dd8b58e	0.10581504
164	0xbd794a2b	-0.060861748
165	0x3e20a26e	0.15686962
166	0x3dfa6ca0	0.1222775
167	0x3df0cf79	0.11758322
168	0x3e1c0bc1	0.15238859
169	0xbdb077b8	-0.086165845
170	0xbc8749e2	-0.016514722
171	0x3e34925b	0.17633955
172	0x3e106a4d	0.1410305
173	0x3d3b5cdb	0.04574285
174	0x3c0da3ca	0.008645007
175	0x3e111521	0.14168216
176	0xbe0d8c21	-0.13822986
177	0x3db9695a	0.09053297
178	0xbe1cc94d	-0.15311165
179	0x3dbbb841	0.09166003
180	0xbe03f687	-0.12887011
181	0x3e08ba04	0.1335221
182	0x3c26d651	0.010182933
183	0x3df9499f	0.12172245
184	0xbd140075	-0.03613325
185	0x3d603a53	0.054743122
186	0xbc30d7c7	-0.010793633
187	0x3dc8eea4	0.09811142
188	0x3b0fa0fa	0.0021916018
189	0x3db9e1bc	0.090762585
190	0x3d119673	0.03554387
191	0x3d8960d1	0.067079194
192	0x3af9f7eb	0.0019071078
193	0x3e00d34c	0.12580603
194	0x3d94927c	0.07254502
195	0x3e07bb8b	0.13255136
196	0x3dd950e3	0.10611131
197	0x3d3dfcba	0.046383597
198	0x3e0712d9	0.13190784
199	0x3d34aeee	0.04411214
200	0x3c76634a	0.015038321
201	0xbd8cd5a0	-0.06876683
202	0x39bac77a	0.00035625306
203	0x3c86e2c7	0.016465558
204	0x3e18a454	0.14906436
205	0x3dafe034	0.08587685
206	0x3d441a6f	0.04787677
207	0xbc8303e5	-0.015993068
208	0x3d6307ba	0.05542729
209	0x3de897ef	0.11357104
210	0xbe210de3	-0.15727954
211	0xbd204e08	-0.039136916
212	0xbd6cc745	-0.057807226
213	0xbdcb2db3	-0.09920826
214	0x3d2b8bde	0.041881435
215	0x3d811fe9	0.063049145
216	0x3d6175bd	0.055043925
217	0xbe3434ff	-0.17598341
218	0x3deaa6a3	0.11457565
219	0xbe261072	-0.16217211
220	0x3c7ee2bc	0.015556987
221	0xbc1d8c16	-0.009615919
222	0xbe38ce56	-0.18047461
223	0xbd814a27	-0.063129716
224	0xbe078c2d	-0.13237067
225	0xbd940693	-0.072278164
226	0xbc5c476d	-0.013444764
227	0xbd9f6c75	-0.077843584
228	0x3d1e5328	0.038653523
229	0x3cc3f60b	0.023921033
230	0x3d8600ff	0.06543159
231	0xbe2e0b5a	-0.16996518
232	0xbd4d0faf	-0.050063785
233	0x3db3c010	0.087768674
234	0xbd12e49d	-0.035862554
235	0x3d00c69b	0.031439405
236	0xbcc2e2e2	-0.023789827
237	0xbdb5f415	-0.088844456
238	0xbe2259cd	-0.15854569
239	0x3d2607eb	0.040534895
240	0x3d128e0d	0.03578
241	0x3df34d07	0.11879926
242	0xb78fd9bf	-1.7148324e-05
243	0x3e1edd5a	0.15514126
244	0x3d85f668	0.06541139
245	0xbdf21efa	-0.118223146
246	0xbdd520f0	-0.10406673
247	0x3d0f0489	0.034916434
248	0x3da87bc3	0.08226731
249	0xbdb819ed	-0.0898932
250	0x3df064b8	0.117379606
251	0x3d925383	0.07144835
252	0x3acf9678	0.001583769
253	0xbda4cfda	-0.08047457
254	0x3af3c2eb	0.0018597519
255	0xbc83ec16	-0.016103785

fcn1.bias f4 [32]
0	0xbdde9b4f	-0.108694665
1	0x3ddfe9bb	0.109332524
2	0x3c418f3f	0.011813938
3	0x3e1a1974	0.15048772
4	0xbe10237d	-0.14076038
5	0xbbee4e1f	-0.0072724964
6	0xbca80a63	-0.020512765
7	0x3d860fcb	0.06545981
8	0xbdc83ad7	-0.09776848
9	0x3dda91bb	0.10672327
10	0xbe1a351c	-0.15059322
11	0xbe378334	-0.17921144
12	0x3dcf45fb	0.101207696
13	0xb9fcdbed	-0.00048229043
14	0x3dbf6f62	0.093474165
15	0x3dc80896	0.09767263
16	0x3dd2aa26	0.102863595
17	0xbe309dab	-0.17247646
18	0xbe17ab3c	-0.14811414
19	0xbda6e64c	-0.081493944
20	0x3e165193	0.14679556
21	0x3e29dd14	0.16588241
22	0x3e18ef70	0.14935088
23	0x3ca6ca80	0.020360231
24	0xbe30eb60	-0.17277288
25	0x3d81424f	0.063114755
26	0x3dee52d4	0.11636892
27	0x3c9213f6	0.017831784
28	0xbda22daa	-0.07918866
29	0xbde4f5a7	-0.11179667
30	0x3e124e90	0.14287782
31	0xbd2afe04	-0.041746154

fcn2.weight f4 [64, 32]
0	0x3e330b6c	0.17484826
1	0x3dd37951	0.10325874
2	0x3ce2878f	0.02765253
3	0x3e14e1e8	0.14539301
4	0xbe248190	-0.16065049
5	0x3d703591	0.058644835
6	0xbde96fd6	-0.11398284
7	0xbdbeeead	-0.093228675
8	0x3dd66c75	0.10469905
9	0xbe2724da	-0.16322652
10	0xbdb601f0	-0.08887088
11	0xbe08b1e8	-0.13349116
12	0x3d1d98c9	0.038475785
13	0xbd01474d	-0.03156214
14	0x3e0407c3	0.12893586
15	0xbb81cab4	-0.0039609317
16	0x3def2dd6	0.116786644
17	0xbdbd9f28	-0.09258872
18	0xbd543d93	-0.051816534
19	0x3dd89fba	0.105773404
20	0x3e22639e	0.15858313
21	0xbd95f993	-0.07322993
22	0x3e00aa4a	0.1256496
23	0x3e360417	0.17774998
24	0x3e2e62ef	0.17029928
25	0x3dea9a20	0.11455178
26	0x3dd96456	0.10614841
27	0x3cc696ff	0.024241922
28	0x3dea2116	0.11432092
29	0x3e35ad3f	0.1774187
30	0xbe06fb74	-0.13181859
31	0x3e243fa9	0.1603991
32	0xbb07dc78	-0.0020730775
33	0xbe033ff8	-0.12817371
34	0xbe1425c1	-0.14467527
35	0x3de9e314	0.11420265
36	0x3dad7b4a	0.08470781
37	0x3ca66038	0.020309553
38	0x3d92ecc7	0.07174068
39	0xbc919f17	-0.017776055
40	0x3db06c2d	0.08614383
41	0xbd32c779	-0.043647263
42	0xbe1ef225	-0.15522058
43	0xbdde8ede	-0.108670935
44	0x3e0f5884	0.1399861
45	0x3cb63e42	0.022246484
46	0xbd63f40b	-0.05565266
47	0xbe06c80f	-0.13162254
48	0x3bd1fa9e	0.0064080497
49	0x3d134cd2	0.035961933
50	0x3e0edf77	0.13952433
51	0xbd372544	-0.044713274
52	0xbcd37647	-0.025813235
53	0x3e25eb18	0.16202962
54	0xbd6bb099	-0.057541464
55	0xbe09296b	-0.13394706
56	0xbe04b6aa	-0.12960306
57	0x3e3a6739	0.18203439
58	0x3ddfb133	0.1092247
59	0xbd922034	-0.071350485
60	0x3df1cf17	0.118070774
61	0xbe3c5df3	-0.18395214
62	0xbdc8d5b0	-0.09806383
63	0xbdc1beb1	-0.094601996
64	0xbdef3d66	-0.11681633
65	0xbe19368b	-0.14962213
66	0x3dbdaff2	0.092620745
67	0xbe093940	-0.13400745
68	0xbdba6c21	-0.09102655
69	0xbdecb9ba	-0.11558862
70	0x3e2f2b03	0.17106251
71	0x3dcec976	0.100970194
72	0xbdf0c88a	-0.11757
73	0xbd8af712	-0.06785406
74	0x3bc64de0	0.006051764
75	0x3dda1022	0.10647608
76	0xbcc46c00	-0.02397728
77	0xbe1b5bb9	-0.15171708
78	0xbcbe85d8	-0.023257181
79	0x3d36d53c	0.04463695
80	0xbc0ca9e0	-0.008585423
81	0xbd8d9fda	-0.06915255
82	0x3dd0f54a	0.10203035
83	0x3c5ac690	0.013353005
84	0xbe12ba79	-0.14328946
85	0x3d9a84e6	0.075448796
86	0xbe2502e5	-0.16114385
87	0x3de00daa	0.10940106
88	0xbe10ffb2	-0.1416004
89	0x3cd0a3c0	0.025468707
90	0x3d4647a4	0.048408166
91	0x3c972928	0.018452242
92	0x3e1c48e5	0.15262182
93	0xbd8248e1	-0.06361557
94	0xbd69da06	-0.05709269
95	0x3cc8a6e0	0.024493635
96	0xbb04d740	-0.00202699
97	0x3dc6deda	0.09710474
98	0xbe03e6d8	-0.12881029
99	0x3e1fbc53	0.15599184
100	0x3dec1a72	0.115284815
101	0x3e316125	0.17322214
102	0xbd82d1ae	-0.063876495
103	0xbdb678b6	-0.089097425
104	0x3e199a3b	0.1500024
105	0x3d0bfd30	0.034177005
106	0x3ded3fd2	0.115844384
107	0x3d68844c	0.056766793
108	0x3df17a16	0.11790864
109	0x3ccc7528	0.024958208
110	0xbe0948bb	-0.1340665
111	0xbb6a0380	-0.0035707653
112	0xbd1c3118	-0.038132757
113	0x3cc4f848	0.024044171
114	0xbe1bd562	-0.15218118
115	0x3d0d8abc	0.034556136
116	0xbe01e89e	-0.12686393
117	0xbccdb598	-0.025111005
118	0xbda0c603	-0.07850268
119	0x3e14c071	0.14526536
120	0xbdbfdd62	-0.09368397
121	0xbe0a7a5f	-0.13523243
122	0xbe13ec4a	-0.14445606
123	0xbbbeaca0	-0.0058189183
124	0xbdb41dc5	-0.087947406
125	0xbdc4e46d	-0.09613881
126	0x3e19c953	0.15018205
127	0xbe327b3c	-0.17429823
128	0xbe0bae08	-0.13640606
129	0x3e014e47	0.12627517
130	0xbd7aa9ba	-0.06119702
131	0xbd1b3749	-0.03789452
132	0xbdb53e91	-0.08849824
133	0x3e10d63c	0.14144224
134	0xbdd834e1	-0.10556961
135	0xbcc0271f	-0.023456154
136	0x3d85301e	0.06503318
137	0x3c58ee05	0.013240342
138	0xbdc317bf	-0.095260136
139	0x3de3b377	0.111182146
140	0x3e0466bc	0.12929815
141	0xbe298813	-0.16555814
142	0xbda52c28	-0.08065063
143	0xbdf13ea6	-0.11779527
144	0xbcdbd65c	-0.026835613
145	0x3e0b56d5	0.13607343
146	0x3e3e0a40	0.18558598
147	0xbdeecb56	-0.11659877
148	0xbd8b8b0f	-0.06813633
149	0xbd627c07	-0.055294063
150	0x3e39b409	0.18135084
151	0xbdb390c7	-0.087678485
152	0xbda5e7cb	-0.081008516
153	0x3e13b840	0.14425755
154	0x3e0ff40e	0.14057943
155	0xbe05c506	-0.1306344
156	0x3cf96b5e	0.030446704
157	0xbd1929fb	-0.03739355
158	0xbdea74a4	-0.11448029
159	0xbe0a8c89	-0.13530172
160	0xbc1176b0	-0.008878395
161	0xbd09ea6c	-0.033670828
162	0x3d8763f8	0.066108644
163	0xbc5ce720	-0.013482839
164	0x3de1d3fe	0.110267624
165	0x3e20fedd	0.15722223
166	0xbd1acacc	-0.03779106
167	0x3d672ae0	0.056437373
168	0x3df1e6ce	0.118116006
169	0xbe046c21	-0.12931873
170	0x3d03ca48	0.032175332
171	0xbd989908	-0.074510634
172	0x3cc11b58	0.023572609
173	0x3e1703e5	0.1474758
174	0x3d6eaeb0	0.058272064
175	0xbdacc1c3	-0.084353946
176	0xbdef33e9	-0.11679823
177	0x3e2ea883	0.1705647
178	0x3df502da	0.119634345
179	0xbe2a5385	-0.16633423
180	0x3c9b94e8	0.018991902
181	0xbdae3b2e	-0.085073814
182	0x3ceb4408	0.028718963
183	0x3e0ee255	0.13953526
184	0x3da4bbb2	0.080436125
185	0xbdaa3ebf	-0.08312749
186	0xbe21cc19	-0.15800513
187	0x3da7df1e	0.08196853
188	0xbe2da8dd	-0.16958947
189	0x3d41e8cc	0.047341153
190	0x3dd450fa	0.103670076
191	0x3e249d59	0.16075648
192	0x3e3df3b6	0.1855
193	0x3ce8183c	0.028331868
194	0xbdb8a287	-0.09015375
195	0xbe38a06b	-0.18029945
196	0x3b878900	0.0041362047
197	0x3db30f30	0.08743131
198	0xbd10b5f4	-0.035329774
199	0xbdd89a8f	-0.10576355
200	0xbdc695c7	-0.096965365
201	0x3e219fc7	0.15783606
202	0x3d6f1e40	0.058378458
203	0xbe283bef	-0.16429113
204	0x3d78b876	0.06072279
205	0x3e167de1	0.14696456
206	0x3c4dd252	0.012562351
207	0xbbcc5bff	-0.0062365527
208	0xbd8036b1	-0.062604316
209	0x3ce98041	0.028503539
210	0xbd94355f	-0.07236742
211	0x3ccc5cf8	0.024946675
212	0x3c9dda6a	0.019269187
213	0x3db249f2	0.0870551
214	0xbd6edbaf	-0.058314975
215	0x3e31b9fc	0.17356104
216	0x3e2f6fa1	0.17132427
217	0xbdc1abcb	-0.09456595
218	0xbdca110d	-0.098665334
219	0x3d9d2aca	0.07674177
220	0x3ce71947	0.028210295
221	0x3c2df0fb	0.010616536
222	0xbe0995d7	-0.13436066
223	0x3be6c2e0	0.007042274
224	0xbcaf9530	-0.021433443
225	0x3d5d77b4	0.054069236
226	0x3e1515b3	0.14559059
227	0x3db9a202	0.09064104
228	0xbd7aa646	-0.061193727
229	0xbd71707e	-0.05894517
230	0xbd9b7269	-0.075901814
231	0xbd03749c	-0.03209363
232	0x3d9cd60e	0.07658015
233	0xbe194fdb	-0.14971869
234	0xbd9347da	-0.07191439
235	0xbb5d88c0	-0.0033803433
236	0xbd84a484	-0.06476691
237	0xbda626f8	-0.081129014
238	0xbc9c75b8	-0.019099101
239	0xbdd4bf6b	-0.103880726
240	0x3cceaf60	0.02523011
241	0x3cfdaf98	0.030967519
242	0x3e1a41d1	0.1506417
243	0x3d2fce78	0.042921513
244	0xbdabbe5a	-0.08385916
245	0x3e283ba1	0.16428997
246	0xbd17c07c	-0.0370488
247	0x3dab608e	0.08368026
248	0xbd521df8	-0.05129811
249	0xbd935365	-0.071936406
250	0xbe244ebc	-0.1604566
251	0x3e26d8c9	0.16293634
252	0xbe1177c8	-0.14205849
253	0x3d587870	0.052849233
254	0xbdef4a8c	-0.116841406
255	0x3d8b4b64	0.06801489

fcn2.bias f4 [64]
0	0xbda279e5	-0.07933406
1	0x3d2a8365	0.041629214
2	0xbdc39632	-0.09550132
3	0xbe0a1a8a	-0.13486686
4	0x3d2abdfe	0.041685097
5	0xbdf7452e	-0.12073742
6	0x3e1bc445	0.1521159
7	0xbe266a09	-0.16251387
8	0x3e21a897	0.15786968
9	0xbdddd0e1	-0.10830856
10	0xbca4d912	-0.020123038
11	0x3e0e176b	0.13876121
12	0x3dbf5426	0.09342222
13	0xbdef5250	-0.11685622
14	0x3e11da57	0.14243446
15	0x3e2d824f	0.1694424
16	0x3df944a6	0.12171297
17	0xbc3f3bd0	-0.011671975
18	0xbe0354db	-0.12825339
19	0x3b9b10c0	0.0047322214
20	0xbd7257b2	-0.059165664
21	0x3cbbdcbc	0.022932403
22	0xbd6cb406	-0.05778887
23	0xba20b11c	-0.0006129907
24	0x3dd06f81	0.10177518
25	0x3d32d5c4	0.043660894
26	0x3d54b9a8	0.051934868
27	0xbd11eb88	-0.03562501
28	0xbe0fffd2	-0.14062431
29	0xbe115dc0	-0.14195919
30	0x3dec7efd	0.115476586
31	0xbdea77c7	-0.11448627
32	0x3e1a52db	0.1507067
33	0x3e2e4891	0.1701987
34	0x3d710a94	0.05884798
35	0x3d27b853	0.04094727
36	0xbdb4cc63	-0.08828046
37	0xbdf41fa4	-0.119200975
38	0x3c5d27c9	0.013498255
39	0xbb99eaf6	-0.004697199
40	0x3e32280e	0.17398092
41	0xbe1512e9	-0.14557995
42	0xbd7ef63a	-0.06224654
43	0x3cc10010	0.0235596
44	0x3d55cb7c	0.05219601
45	0xbd0e39f8	-0.034723252
46	0xbda6b9ce	-0.08140908
47	0xbd81e122	-0.06341769
48	0xbcd5aa20	-0.026082098
49	0xbded278c	-0.115798086
50	0x3e2728cd	0.16324158
51	0x3e18006b	0.1484391
52	0x38d2d000	0.00010052323
53	0x3ce12280	0.027482271
54	0xbca31d3f	-0.019911407
55	0xbda22fc3	-0.07919266
56	0x3dd97b22	0.10619189
57	0x3dd16776	0.10224812
58	0x3e0fff5a	0.14062253
59	0xbd39e5b6	-0.045385085
60	0x3db328b5	0.087479986
61	0x3d94704a	0.0724798
62	0xbd8e36b6	-0.06944029
63	0xbd8add9a	-0.067805484

fcn3.weight f4 [32, 64]
0	0x3d726438	0.059177607
1	0x3cbb592a	0.022869665
2	0xbdbcb380	-0.092139244
3	0xbdbbd0fe	-0.091707215
4	0x3dcd9836	0.100387976
5	0xbd73adcc	-0.059491917
6	0x3dd00f76	0.10159199
7	0x3cff2758	0.03114669
8	0x3d8aee20	0.067837
9	0xbd468733	-0.04846878
10	0xbdef713c	-0.116915196
11	0xbdfab66b	-0.12241825
12	0xbdf5f62b	-0.120098434
13	0x3d787527	0.0606586
14	0x3cd0dcc6	0.025495898
15	0xbd19ba73	-0.037531327
16	0x3dcd4929	0.1002372
17	0xbdd392b4	-0.10330716
18	0xbdeaa763	-0.11457708
19	0xbdef6dde	-0.116908774
20	0xbb5f73d4	-0.0034096139
21	0xbcf75418	-0.030191466
22	0x3d2c60a8	0.042084366
23	0xbc87d57e	-0.016581293
24	0xbda3f0a0	-0.0800488
25	0xbd12f88e	-0.03588157
26	0xbdbb90ce	-0.09158479
27	0xbde38075	-0.111084856
28	0x3dbad4a4	0.09122589
29	0xbc14b040	-0.009075224
30	0xbdcc3fd0	-0.09973109
31	0x3dc2e9bb	0.09517237
32	0x3dacba58	0.0843398
33	0x3db1f7ce	0.08689843
34	0x3ae9028b	0.0017777247
35	0x3d9bdfb2	0.07611026
36	0x3db10467	0.08643418
37	0xbddd308e	-0.10800277
38	0x3d13df44	0.036101595
39	0xbdec19f5	-0.115283884
40	0x3bbfba56	0.0058510704
41	0x3d6e4450	0.058170617
42	0x3dccd89b	0.10002252
43	0xbdbe2760	-0.09284854
44	0xbc4ab739	-0.012372785
45	0xbd84e9dc	-0.06489918
46	0xbc38d440	-0.011281073
47	0xbb8127e0	-0.003941521
48	0xbdbf6b89	-0.093466826
49	0xbd99a598	-0.075022876
50	0x3af2294c	0.0018475442
51	0x3de87806	0.11351018
52	0xbdd12864	-0.10212782
53	0xbdc26f81	-0.09493924
54	0x3dabdf3a	0.083921865
55	0xbdd788f8	-0.105241716
56	0xbd957c2f	-0.07299077
57	0x3cb6e71e	0.022327002
58	0x3d9126ff	0.07087516
59	0xbd4b1327	-0.049578812
60	0xbbda4004	-0.0066604633
61	0xbcbbdeef	-0.022933451
62	0xbd675cad	-0.056484867
63	0x3d676075	0.056488473
64	0xbcb1d1e0	-0.021706522
65	0x3e050dfb	0.12993614
66	0xbdf0b784	-0.11753753
67	0xbd990adc	-0.074727744
68	0x3db5018b	0.08838185
69	0xbdea25a8	-0.114329636
70	0x3dadcb63	0.084860586
71	0xbc26f720	-0.010190755
72	0x3c8a0c9e	0.01685172
73	0x3de1d1cc	0.11026344
74	0x3d5589d2	0.05213339
75	0xbd695502	-0.056965835
76	0xbdc0b91c	-0.09410307
77	0xbcc7df4b	-0.024398467
78	0xbd9de369	-0.07709391
79	0x3d6a0cd4	0.05714114
80	0xbc7bf5f2	-0.015378462
81	0xbbfc7600	-0.0077044964
82	0xbdc64ca8	-0.0968259
83	0x3c2b91a0	0.010471731
84	0xbdd73239	-0.10507626
85	0xbda29eb8	-0.079404294
86	0x3d0c55dc	0.03426157
87	0xbc511276	-0.012760749
88	0xbbad6b64	-0.005292343
89	0x3dcf8c4a	0.1013418
90	0xbe02bff7	-0.12768541
91	0x3d3eebd3	0.04661162
92	0x3dc05d2e	0.093927726
93	0xbd274b34	-0.040843204
94	0x3d4b5f77	0.04965159
95	0xbd7d83d3	-0.061893295
96	0x3d23239b	0.039828878
97	0xbdb3473a	-0.0875382
98	0xbdf6fb79	-0.12059683
99	0x3d9d17de	0.07670568
100	0xbce69aa1	-0.028149905
101	0xbd304d70	-0.0430426
102	0xbd053463	-0.032520663
103	0x3d659843	0.05605341
104	0xbda772ce	-0.08176194
105	0xbc9b9358	-0.018991157
106	0xbdaf2535	-0.085520186
107	0xbd075ad2	-0.033045597
108	0x3d681f69	0.05667058
109	0xbd8ee896	-0.06977956
110	0xbcb01dc0	-0.02149856
111	0x3d47f374	0.04881616
112	0xbc97f9bf	-0.018551705
113	0xbd7637dc	-0.060111865
114	0x3c8979b2	0.016781662
115	0x3d51ce79	0.0512223
116	0x3cc5c2a8	0.02414067
117	0x3da101f3	0.078617
118	0x3d32e844	0.043678537
119	0xbde51ca9	-0.11187107
120	0xbda46d66	-0.080286786
121	0x3d254d2a	0.040356793
122	0xbd78236b	-0.060580652
123	0xbcdf279c	-0.027240567
124	0xbd642832	-0.055702396
125	0xbd945c14	-0.07244125
126	0xbdb1f321	-0.08688951
127	0xbdd12729	-0.10212547
128	0xbcda1dce	-0.02662554
129	0xbde31de5	-0.11089686
130	0x3d83e0a8	0.06439334
131	0xbc202eb0	-0.009776756
132	0xbc6c6ba1	-0.014429958
133	0x3da53c7c	0.08068177
134	0x3d7127a5	0.0588757
135	0xbde00ba4	-0.1093972
136	0xbdb7d747	-0.08976608
137	0x3ba784e5	0.005112278
138	0xbcedad32	-0.02901325
139	0x3c35ace5	0.011088585
140	0xbcff3bc7	-0.031156434
141	0xbd707ba0	-0.058711648
142	0x3dbffaf1	0.09374035
143	0xbdb8c25e	-0.090214476
144	0x3b6ab9ae	0.003581624
145	0xbdd27084	-0.10275367
146	0xbdc7bdca	-0.09752996
147	0xbd2a2a30	-0.04154414
148	0x3d6c5c96	0.057705484
149	0x3d261410	0.040546477
150	0x3df6e168	0.120547116
151	0xbe050ce8	-0.12993205
152	0x3d7ff957	0.06249365
153	0x3c564f16	0.013080379
154	0x3cc6f8c1	0.024288537
155	0x3d0e5dd8	0.034757465
156	0xbc8f23c0	-0.017473102
157	0x3d136e5c	0.03599392
158	0xbbfe0977	-0.007752593
159	0xbd274361	-0.040835742
160	0x3d2880ca	0.041138448
161	0x3debf631	0.11521567
162	0xbd0b0c23	-0.03394712
163	0x3d633f4f	0.055480298
164	0x3c3280a9	0.010894933
165	0xbcac7788	-0.02105309
166	0x3dec887c	0.1154947
167	0xbd2e0a14	-0.04249008
168	0x3d8e0fe6	0.06936626
169	0x3d3c68fc	0.04599856
170	0xbb5b9ffd	-0.0033512108
171	0xbd228ca3	-0.039684903
172	0xbe04dc17	-0.12974583
173	0x3d9f9219	0.07791538
174	0x3d2d5950	0.042321503
175	0xbd70b244	-0.058763757
176	0xbde22692	-0.11042513
177	0xbdb7b030	-0.08969152
178	0xbdde713a	-0.1086144
179	0x3d2fe125	0.042939324
180	0x3c0f43c0	0.00874418
181	0xbdd3e7bb	-0.103469335
182	0xbdd4804d	-0.10376034
183	0xbdf6f040	-0.12057543
184	0xbd597753	-0.053092312
185	0xbd6210e8	-0.055191904
186	0x3d9972a1	0.07492567
187	0xbd8c1764	-0.06840399
188	0x3cd2669c	0.025683694
189	0x3c8680d5	0.016418854
190	0x3df918da	0.12162943
191	0xbdd7b6f4	-0.105329424
192	0xbdce2280	-0.10065174
193	0x3de07152	0.10959114
194	0x3cbd48d0	0.023106009
195	0xbdc0f78c	-0.09422216
196	0xbdc254bb	-0.09488817
197	0xbd4a05c8	-0.04932192
198	0xbd7b486f	-0.061348375
199	0x3d9c4a0a	0.07631309
200	0x3d141ac5	0.036158342
201	0xbd917af1	-0.07103527
202	0xbd76ca65	-0.060251612
203	0xbd0446ac	-0.03229396
204	0x3d42a4d5	0.047520477
205	0xbdd45ffe	-0.103698716
206	0x3de24e31	0.1105007
207	0xbd98db72	-0.07463731
208	0xbd5d79e6	-0.05407133
209	0xbdd9c212	-0.10632719
210	0xbd8da0ca	-0.06915434
211	0x3dc24884	0.094864875
212	0xbdf4997b	-0.119433366
213	0x3d1d7e44	0.038450494
214	0xbd9d08e8	-0.07667714
215	0xbc121c1b	-0.008917834
216	0xbdac6f80	-0.084197044
217	0x3de15fb7	0.11004584
218	0x3c3ea89a	0.011636877
219	0xbdb0a651	-0.08625472
220	0xbddb18ea	-0.10698111
221	0xbdfd5396	-0.123694584
222	0xba85319c	-0.001016188
223	0x3dc02bca	0.09383352
224	0xbe026040	-0.12732029
225	0xbd3a0b0e	-0.0454207
226	0x3d4f2ae2	0.050578006
227	0xbadd88d6	-0.0016901742
228	0x3dd2877c	0.10279748
229	0x3d695d4c	0.05697374
230	0xbdcdda1b	-0.10051366
231	0xbdd3bb31	-0.10338438
232	0x3dad81e9	0.08472044
233	0x3d80a082	0.062806144
234	0x3dab7e08	0.08373648
235	0xb81518fd	-3.554764e-05
236	0x3d2e4f6b	0.042556208
237	0xbcaa0b30	-0.020757288
238	0x3dfb74b4	0.12278119
239	0x37c6c000	2.3692846e-05
240	0xbd9c652d	-0.07636485
241	0x3ded14b4	0.115762144
242	0xbac04e75	-0.001467182
243	0x3c5f3d12	0.0136254
244	0xbdcf6f70	-0.10128677
245	0x3ca09fb0	0.019607395
246	0x3a9ec45e	0.0012112965
247	0xbd173d09	-0.036923442
248	0xbd8f591b	-0.069994174
249	0xbcf354b1	-0.02970347
250	0x3df581a1	0.119876154
251	0xbde82eb3	-0.11337032
252	0xbc9abc98	-0.018888757
253	0x3ddf644e	0.109078035
254	0x3d7bd76a	0.06148473
255	0xbca4762e	-0.020075884
