models/haptic/intialstate_100_3.pt (torch_old, 21858 bytes, 5 tensors)

fcn1.weight f4 [32, 32]
000000 96 79 fa 3d 7c a1 8f bd 6d 25 3e 3e 7c 7e 03 bd
       0.12230222 -0.070132226 0.18568964 -0.032103047
000010 4a 9d 3c bd 4b a3 39 3e 80 3b 1a 3d f8 c1 17 be
       -0.04604844 0.18128698 0.0376544 -0.14820087
000020 42 37 f0 3d 81 2a ba 3c 60 3b 1b bd 02 40 12 3e
       0.117292896 0.022725346 -0.03789842 0.1428223
000030 72 90 58 3d 03 6f 1d be 5b d3 8e bd 53 38 26 be
       0.05287213 -0.15374379 -0.069739066 -0.16232423
000040 cd 5e 48 bd 5c 07 50 3d ca 08 c0 3d 36 90 7e bd
       -0.048918534 0.05078827 0.093766764 -0.06214925
000050 02 2c ff 3d a0 97 02 3e 22 a9 8e 3d da a0 83 bd
       0.12459566 0.12753153 0.06965853 -0.064271644
000060 fa 17 d1 3d 3b 8f d8 3d 5d ba 0d be 5b a8 e1 bd
       0.10209651 0.10574194 -0.13840623 -0.110184394
000070 72 39 ef 3d 65 e0 8d bd b1 c6 1a be 88 75 cc bd
       0.11680879 -0.069275655 -0.15114857 -0.09983355
000080 0b 28 de 3a aa f8 69 bd d9 d6 61 bd ed e0 00 be
       0.001694919 -0.05712191 -0.055136535 -0.12585802
000090 17 42 26 bd 66 a0 89 3d 85 9f 2c 3e d9 84 9e bd
       -0.040590372 0.06720047 0.16857727 -0.077401824
0000a0 f4 c4 bf bd d4 ce 7a 3d 1d 59 3e 3e 63 35 9c 3d
       -0.09363738 0.061232403 0.18588682 0.0762737
0000b0 f7 47 fb bd 08 1d 22 3e f4 95 c6 3d 9b 6b 37 3d
       -0.122695856 0.15831387 0.0969657 0.044780355
0000c0 95 56 a2 bd bc 2b 19 bd 9f 6f c3 bd 5f f8 1d bd
       -0.079266705 -0.037395224 -0.095427744 -0.038566943
0000d0 cf 2a cd 3d b7 ac 96 3d ce dd 44 bd ce ce 24 3d
       0.10017931 0.073571615 -0.048063092 0.040236287
0000e0 8e 19 72 bc 28 d9 d9 3d 6d 0f 1b 3e e9 7c 21 3e
       -0.0147766005 0.106371224 0.15142603 0.15770306
0000f0 ff 7c fe bd 52 e8 de 3d 8a 99 87 3d 98 4d 84 bc
       -0.12426185 0.10884155 0.06621082 -0.01615028
000100 7e ca c5 3d b5 e9 89 3c 0f 33 e0 3d d6 ce 29 3d
       0.09657763 0.016835073 0.10947239 0.04145702
000110 23 47 12 3e af 9d f6 3d a2 db 34 3d 41 ad 09 3e
       0.14284949 0.120417945 0.04415477 0.13444997
000120 9b 07 70 bd 36 33 b9 bd d8 21 2e be cc ef 85 bd
       -0.058601003 -0.09042971 -0.17005098 -0.06539878
000130 67 92 e5 bd d3 f8 8f bd 31 e4 09 be 3c 85 b3 bd
       -0.11209565 -0.07029881 -0.13465954 -0.08765647
000140 8d 8b b8 bd 94 ee 1d 3e 28 48 b3 3d aa e3 05 be
       -0.09010992 0.15423042 0.08753997 -0.13075128
000150 ae 17 c7 bd 5a 81 28 3d ca 8b a0 bd b0 da f0 3d
       -0.097213134 0.041138984 -0.07839163 0.11760461
000160 6d 2b a7 3c 2b 08 1c be da 2d a2 bd 1f 61 09 3e
       0.02040645 -0.15237491 -0.07918902 0.13415955
000170 4f a7 bb bd 72 05 15 bd 12 21 02 be 82 94 f9 bd
       -0.09162771 -0.036382146 -0.12707928 -0.12186529
000180 03 8f 26 3e f4 2e f6 3d 74 0a 39 bc d7 21 1b be
       0.16265492 0.12020674 -0.011293996 -0.15149628
000190 ae ba 83 3d 98 1e fe bd da 05 95 3d de 98 73 bd
       0.06432091 -0.12408179 0.07276507 -0.059471957
0001a0 23 03 e6 bc 69 b9 08 3e f5 2b 13 be 64 4b 85 bd
       -0.028077668 0.13351978 -0.14372237 -0.0650852
0001b0 c7 db 1f 3d b6 6f f0 3d 5c 43 24 3c e2 56 04 bc
       0.039027955 0.11740057 0.010025825 -0.008077355
0001c0 92 02 d4 bd b4 9a c5 3d b4 b8 f9 bd 6e 28 2a 3e
       -0.10352053 0.09648648 -0.121934325 0.16616985
0001d0 58 38 f6 3d b3 0c 02 be 0a f5 40 3e b1 f9 02 be
       0.120224655 -0.12700157 0.18843475 -0.12790562
0001e0 44 67 89 bd 56 87 de 3d 38 88 0e be 30 ae 13 3e
       -0.067091495 0.10865657 -0.13919151 0.14421916
0001f0 d8 01 b2 3d ee 14 0c be 9e 7e 16 3e da f6 28 bc
       0.08691758 -0.13679859 0.14696738 -0.01031276
000200 76 34 14 3e 19 44 50 bd 14 7e a6 bd 22 55 1c be
       0.14473137 -0.050846193 -0.08129516 -0.1526685
000210 40 54 02 3e 6a a0 d6 bd fe 79 04 be f4 33 c3 3c
       0.12727451 -0.10479815 -0.12937161 0.023828484
000220 cc 7d 28 3e 3a 6d 1f 3e bf ae 3a 3c d5 ff 2e 3e
       0.16454238 0.1556901 0.011394202 0.1708978
000230 d9 e3 fe bb 72 9c 01 3e c9 cc 95 bd e0 c0 56 3b
       -0.0077786264 0.12657335 -0.0731445 0.003276877
000240 0e 3f e2 bd f3 99 29 bd 2d 38 16 3e 6a c0 bb bd
       -0.11047183 -0.041406583 0.14669867 -0.091675594
000250 a1 0b 38 bd 85 46 fb bb 73 df 6d bd f2 dd 36 3e
       -0.044932965 -0.0076683187 -0.058074426 0.17858103
000260 20 88 1f 3e 48 b3 22 be 84 1a 41 3e 5b 0c 0c be
       0.15579271 -0.15888703 0.18857771 -0.13676588
000270 a1 4d ed bd e5 c5 45 bd 94 48 b9 3c ed d2 42 3e
       -0.11587072 -0.04828443 0.022617616 0.19025774
000280 3f e1 1e 3e 89 d9 e7 3d 88 e8 ba bd 92 45 43 bd
       0.15515612 0.113207884 -0.09126383 -0.04767377
000290 ef ca 97 3d eb 3e 10 3e e8 89 2a be 14 f3 cf 3d
       0.074117534 0.14086501 -0.1665417 0.10153785
0002a0 01 66 0a 3e c2 dc 1c be 64 e4 ea bc 25 ae 2e 3e
       0.13515474 -0.15318587 -0.028673358 0.17058618
0002b0 c0 b6 bf bd 20 ce ca 3d 5a 43 c9 bd d0 72 2a be
       -0.09361029 0.099025965 -0.098272994 -0.1664536
0002c0 f6 be 26 3e 50 8f 05 be 7b bb 30 3e 11 95 15 bd
       0.16283783 -0.1304295 0.17259018 -0.036519114
0002d0 4d 94 ba bc bb 08 0d 3e 4e da 27 3e 8a ef c7 3d
       -0.022775793 0.13772862 0.1639187 0.09762485
0002e0 0b c1 43 3d c6 03 d2 3d fe da 03 3d 5f ed 89 3d
       0.047791522 0.10254626 0.03219127 0.06734728
0002f0 8c 1d 13 3e 5b e0 31 3e 69 61 2f 3d 3d 98 17 3e
       0.1436674 0.17370741 0.042817507 0.14804168
000300 85 12 95 bd 5a e7 f1 3d 04 44 21 be 1c cc 38 3d
       -0.07278923 0.11811705 -0.15748602 0.04511653
000310 4d 0a 2d be 08 fe 35 3d c6 1d 77 bd 78 97 f3 bc
       -0.1689846 0.044431716 -0.06033113 -0.029735312
000320 80 df c0 bc 55 ea 19 be 00 fe 0c 3a 8e 2c b1 3d
       -0.023544073 -0.15030797 0.0005378425 0.08651076
000330 f1 8b 17 3e 83 9c db bd 4e bc ac bd bc 8a 3f bd
       0.14799477 -0.107232116 -0.08434354 -0.046763167
000340 5c 12 13 bd 10 60 33 3c 93 91 20 be a8 52 fc bc
       -0.03590618 0.010948196 -0.15680532 -0.030801132
000350 35 89 26 3e e2 bb c2 3d 10 55 69 3d 2a d5 ae 3d
       0.16263278 0.09508492 0.056965888 0.085367516
000360 88 47 99 bc 33 ee 1b be a0 96 fc bd a8 3d a7 bd
       -0.018710867 -0.15227585 -0.12333417 -0.08166057
000370 c4 41 9b bd 41 e7 96 bd 32 d6 11 be 88 8d 41 3d
       -0.07580903 -0.07368327 -0.14241865 0.047254115
000380 cf b1 df 3d 6a 65 97 bc 73 75 f0 3d c2 2c 1a bd
       0.10922586 -0.018480975 0.11741152 -0.03764034
000390 ce c9 0c bd c5 51 08 3d 08 7b a1 bd 36 c4 0f 3e
       -0.034372143 0.033281107 -0.078847945 0.14039692
0003a0 da cb ce 3d bb 0d 97 bd 71 c4 2c bc 8d 41 40 bd
       0.10097475 -0.07375666 -0.010544882 -0.046937514
0003b0 7e 44 4e bd b4 eb 86 bb 64 08 04 be 9b 01 1b 3e
       -0.050358288 -0.0041174535 -0.12893826 0.15137331
0003c0 cc af 2d bd d7 e6 15 3e de 3e 0d 3e 22 07 8a 3d
       -0.04240398 0.1463884 0.13793513 0.06739642
0003d0 06 47 b6 3d 10 4e fe 3d e5 ea ea 3d f0 26 c7 3d
       0.089002654 0.12417233 0.11470584 0.097242236
0003e0 a1 fb 0c 3e 1a 2b 60 bc ae 02 29 3d b4 09 20 3e
       0.13767864 -0.013682151 0.04126232 0.15628701
0003f0 74 e3 1b 3e 17 6e 14 be 6d a0 21 3e 28 27 29 3d
       0.15223485 -0.14495121 0.15783854 0.041297108

fcn1.bias f4 [32]
000000 63 91 b9 3d bd db 44 bc e9 6b fc 3d 6f a1 00 3e
       0.090609334 -0.01201528 0.1232527 0.12561582
000010 b8 cf 75 bc 1b 6a 00 be 82 f2 b4 bd f2 91 68 bd
       -0.015003137 -0.12540476 -0.08835317 -0.05677981
000020 80 86 38 bb 00 fc 98 bd f2 aa a8 bd 2d 51 97 3c
       -0.002815634 -0.0746994 -0.0823573 0.018471325
000030 73 a4 04 3e d5 db 8b bd 10 6e 20 bc 56 16 03 be
       0.12953357 -0.06829039 -0.009791866 -0.12801489
000040 56 d4 9d 3d 55 b3 11 be 91 94 75 bd d8 fd 2f 3e
       0.077065155 -0.14228566 -0.059956137 0.17186677
000050 30 bd d9 bd 85 01 8e 3d a5 54 96 3d 27 b5 ca 3c
       -0.10631788 0.069338836 0.073403634 0.024744583
000060 02 27 0c 3e dc 70 c4 bd cf 4a 2e be 61 b9 0f 3e
       0.13686755 -0.09591839 -0.17020725 0.1403556
000070 20 04 a3 bc ec cc 1e 3d e5 f7 2e be 77 9e 30 3e
       -0.019899428 0.038769647 -0.17086752 0.1724795

fcn2.weight f4 [64, 32]
000000 ae 82 c5 bc d0 17 d4 bd d3 dc 4c bd 3a 51 d0 bd
       -0.024110164 -0.103561044 -0.050015282 -0.10171743
000010 36 88 b4 3d 8a b4 27 bb 60 3e af 3c ca 0b 8d bd
       0.08815043 -0.0025589787 0.021392047 -0.06887014
000020 8a eb fe 3d f4 98 01 be 90 86 ec bc 83 79 10 be
       0.12447269 -0.12656003 -0.028872758 -0.14108853
000030 1b bf 2e 3e 62 4d 03 3e a8 b9 61 3d af 35 8b 3c
       0.17065088 0.12822488 0.055108696 0.016993372
000040 36 0b 63 3c e2 3c 1e 3e 51 c6 1a bd 18 58 17 3e
       0.013857653 0.15452912 -0.037786786 0.14779699
000050 40 5c 07 bc 96 d9 d8 bd 39 91 12 be b4 88 c1 3d
       -0.00826174 -0.10588376 -0.1431321 0.09449902
000060 d3 a9 2c be 50 54 8b bd e8 17 92 bc 92 2a 00 3e
       -0.16861658 -0.06803191 -0.017833665 0.1251624
000070 08 bd 64 3d db 38 16 3d 74 13 11 bd 1a f7 22 be
       0.055844337 0.036675315 -0.035418943 -0.15914574
000080 95 96 dc bd d1 28 21 3e 24 cf c6 3d f4 a1 cb bc
       -0.10770909 0.15738226 0.09707478 -0.024857499
000090 12 b3 82 bc 75 1f a0 3d 46 cc 9e bd 70 9f 20 3e
       -0.015954528 0.078185 -0.07753806 0.1568582
0000a0 e9 56 15 3e 64 da 15 3e 00 55 8e 3d 47 62 76 3d
       0.14583935 0.1463409 0.06949806 0.06015232
0000b0 98 c2 80 bd 5e d8 eb bd 19 bc 12 3e 4b 3a 15 be
       -0.06287116 -0.11515878 0.14329566 -0.14573018
0000c0 88 8a ab bd ba 4d c5 bc b5 16 b7 3d fc 8f f0 3d
       -0.08376032 -0.024084914 0.08939878 0.11746213
0000d0 e3 ab 25 be fa 9d 99 bd 20 51 45 bd e5 d5 21 be
       -0.16178851 -0.07500835 -0.04817307 -0.1580425
0000e0 b7 d7 71 3d d2 e8 41 bd c0 1e a7 3b b6 67 4c 3d
       0.059043612 -0.047341175 0.005100101 0.049903594
0000f0 d6 ab a8 3d 88 c7 b8 3d 90 5b 2c bc 9f 23 dc 3d
       0.082359 0.090224326 -0.010519877 0.10748982
000100 32 59 f9 3d 74 eb a2 bc 92 a3 19 be 1b 9b 09 be
       0.12175216 -0.019887663 -0.15003803 -0.13438074
000110 4d 65 ed bd aa c2 1b 3e 90 b5 c2 3c 6d 45 9f bd
       -0.11591587 0.15210977 0.023768216 -0.07776914
000120 55 d5 f5 bd 3e 73 ba 3d 98 82 e6 3c 03 75 06 be
       -0.120035805 0.09104012 0.028138444 -0.13130574
000130 8f 1e e8 3c 08 d0 f5 3d c8 50 ad bc 2f f1 a9 bb
       0.028334884 0.120025694 -0.021156684 -0.005186222
000140 ec da 2b be a2 8b 0e 3e b8 e4 09 bd bc b5 03 3d
       -0.16782731 0.13920453 -0.03366539 0.032155737
000150 83 42 31 3e ef d8 2e be d0 ac 20 bc e4 49 39 3d
       0.17310528 -0.17074941 -0.009806827 0.045236483
000160 3c 55 28 3e a1 21 17 be 9b 11 09 3e 31 a4 29 3e
       0.16438764 -0.14758922 0.13385622 0.1656654
000170 e0 92 4c 3d ed 85 0f bd 80 12 dc bd 91 36 12 3e
       0.04994476 -0.03503983 -0.10745716 0.14278628
000180 c4 e5 a8 bd ad 6a 20 3e b1 e0 8e 3d 1b e8 17 3e
       -0.08246949 0.15665694 0.0697645 0.14834635
000190 59 bc 34 3e f2 38 96 bd 30 d1 cd bd 92 a6 e2 3d
       0.17649974 -0.0733508 -0.10049665 0.11066927
0001a0 f0 4e ad bd 4f c2 1c 3e 70 01 0e bd 13 e2 37 bd
       -0.08462322 0.15308498 -0.03466934 -0.044893336
0001b0 a1 9b 84 3d ab b1 08 3e d0 f6 b1 bc 02 63 99 bd
       0.06474996 0.13349025 -0.021724135 -0.07489587
0001c0 ff 8d 26 be 23 2c 16 3e 89 1a e9 3d 6c e5 8f 3d
       -0.16265105 0.14665274 0.11382014 0.070261806
0001d0 4c 19 00 3e 22 68 df bd ca 80 23 be 24 4b 66 3d
       0.1250965 -0.10908534 -0.15967098 0.056224003
0001e0 5a 7f 34 3e ff a0 32 3e 05 da 09 3e 24 b9 0b 3e
       0.17626706 0.17444228 0.13462074 0.13644844
0001f0 08 1b 52 bd d7 31 7c 3d 5c 83 12 bd 16 aa 40 be
       -0.05129531 0.06157097 -0.035769805 -0.18814883
000200 d3 91 29 3e 0a a5 f8 bd b6 7d 52 3d 99 1e 29 be
       0.16559534 -0.12140854 0.05138942 -0.16515578
000210 f4 38 bc bd 6a bb bf bd 32 32 99 3d 0d c4 1d be
       -0.091905504 -0.09361918 0.07480277 -0.15406819
000220 b7 73 1e be a5 28 29 3e 40 ea af bd fe 80 d4 3d
       -0.15473829 0.16519411 -0.085896015 0.10376166
000230 68 11 2a 3e f8 70 26 bd 7a 3b 58 bd 46 51 e2 3c
       0.16608202 -0.04063508 -0.052791096 0.027626645
000240 ec e4 29 3e 32 62 c4 3d 6d 6d bd 3b 10 b9 0e be
       0.16591233 0.09589042 0.005780867 -0.13937783
000250 f8 0d a4 bb c8 2e 0a 3e db 75 06 3d 34 5a 30 be
       -0.005006548 0.13494408 0.03282724 -0.1722191
000260 c8 6c d3 bd c8 d6 97 bd 59 24 30 be fa 72 59 3d
       -0.10323483 -0.07414013 -0.17201366 0.053088166
000270 7a bc 08 be 8b 92 28 3e 1b 79 11 3e bc 06 fc bd
       -0.13353148 0.16462152 0.14206354 -0.12305972
000280 84 83 3c 3e dc d7 9b bd 77 64 db 3c f7 d3 e6 3d
       0.18409544 -0.07609531 0.026781304 0.11270898
000290 36 c0 22 3e 5b 69 ca bd 68 52 c6 3c 0e c1 48 bd
       0.15893635 -0.09883376 0.024209216 -0.049012236
0002a0 5b 56 80 bd 67 c7 41 bd 9f 63 06 3e 18 bc 07 be
       -0.06266471 -0.047309306 0.1312394 -0.13255346
0002b0 65 42 b1 3d ad 90 25 3e 65 70 d3 bd 12 36 49 3d
       0.08655242 0.1616847 -0.10324172 0.04912383
0002c0 e3 51 95 bd b2 a9 07 be e2 95 31 bd 08 a3 0a 3c
       -0.07291009 -0.13248327 -0.04335583 0.008461721
0002d0 1c 95 ba bc a4 a0 1b 3e 4b df 7c 3d 8a 9d 25 be
       -0.022776179 0.15197998 0.061736386 -0.16173378
0002e0 54 d4 1f be 3c c2 2e 3d e6 cc b2 bd 8b 4b 01 be
       -0.1560834 0.042665705 -0.087304875 -0.12626474
0002f0 20 a8 b5 bd 97 b4 a2 bd c1 8e 03 3e 34 8c 00 3e
       -0.08869958 -0.07944601 0.12847425 0.12553483
000300 ed 58 27 be ba 8c ca bd 70 27 b6 3c a3 de 02 3e
       -0.16342516 -0.09890123 0.022235602 0.12780242
000310 62 ef a5 bd 64 b4 df bd 58 b8 ae 3c d8 82 0d 3d
       -0.08102299 -0.10923079 0.021328136 0.03454861
000320 7c e2 6d bd 93 bb 27 3e 70 73 84 bc f1 d6 0a be
       -0.05807732 0.16380148 -0.016168326 -0.13558556
000330 00 1f ae bc c0 16 95 bd c0 a6 30 be 98 bf 9c bc
       -0.021255016 -0.0727973 -0.1725111 -0.019134328
000340 c0 80 08 3b 63 32 30 be 07 7e 27 be 83 7c 14 be
       0.0020828694 -0.17206721 -0.1635667 -0.14500622
000350 3e d1 bb 3d ec c2 0b 3d 8b 63 0e be 8f f9 18 3e
       0.09170769 0.03412144 -0.1390516 0.14938949
000360 68 c2 b3 bc 80 0b a3 3b b9 89 e3 bd 60 07 56 bc
       -0.021943286 0.004975736 -0.11110253 -0.013063282
000370 09 0d 09 3e 17 d4 2b be fd 43 21 be 9e c3 1a be
       0.13383879 -0.16780125 -0.15748592 -0.15113685
000380 1e 29 15 3e 82 2a 04 3e f8 f6 c5 bd b1 13 b3 3d
       0.14566466 0.1290684 -0.09666246 0.0874399
000390 b1 ff 0b be 55 ef c7 3d af 53 02 be 01 74 f2 bd
       -0.13671757 0.09762446 -0.12727235 -0.11838532
0003a0 83 cc 01 3e e6 41 91 bd a9 10 31 3e 4c ce 11 3e
       0.12675671 -0.07092647 0.17291512 0.14238852
0003b0 80 c1 1c be 91 86 94 3b c8 69 29 be f0 62 03 be
       -0.1530819 0.004532643 -0.16544259 -0.1283071
0003c0 86 da d8 bd 9b 31 e9 bc 8f 05 79 bd f2 6a 0a 3e
       -0.10588555 -0.028466037 -0.060796317 0.13517359
0003d0 a1 20 89 3d a5 2c 1c be e5 59 65 bd 80 b3 af bd
       0.066956766 -0.15251406 -0.055993933 -0.08579159
0003e0 5e 08 17 3e d1 dd 72 3d 68 ee 84 3d 32 ff 7c 3b
       0.14749286 0.05929357 0.06490785 0.0038604257
0003f0 29 9f 24 be 70 35 c4 3d 61 15 22 3e 0f 4d 50 bd
       -0.1607634 0.09580505 0.15828468 -0.05085474

fcn2.bias f4 [64]
000000 8b db 35 3d 79 56 1f 3e 10 1a 0e be 55 22 10 bc
       0.044398826 0.1556033 -0.1387713 -0.008797248
000010 51 fd 3f bc 8b ae 83 3c e4 68 d7 bd eb 9e 2c 3e
       -0.01171811 0.01607444 -0.10518053 0.16857497
000020 8a d6 a4 3d af 8c 05 3e 76 6f dc 3d c7 ab c4 bc
       0.080487326 0.13041948 0.10763447 -0.024007691
000030 a6 01 40 3e 31 83 82 bd b2 00 c1 3d 9e 68 13 be
       0.18750629 -0.06372679 0.09423961 -0.14395377
000040 f6 16 cf 3d 26 fe c4 3d 55 0f 32 3e 95 cf 21 3e
       0.10111801 0.096187875 0.17388661 0.15801843
000050 1d 2d e9 bd b0 41 34 bc 67 86 24 3e 34 ea 2d bd
       -0.11385558 -0.011001989 0.16066895 -0.04245968
000060 e2 c7 f2 bd 58 4b 40 bd 35 ee 1e 3e 20 c0 00 3c
       -0.11854531 -0.046946853 0.15520556 0.007858306
000070 a9 fa fa 3c 70 1c 74 bd 06 66 85 3d 4f e5 89 3c
       0.030637102 -0.059597433 0.065136 0.016832976
000080 d1 ad 33 be b7 4d 1c 3e a1 95 26 3d a0 24 4a 3d
       -0.17546774 0.15264021 0.04067004 0.049351335
000090 bc 92 69 bd 80 18 8c bd 40 0f f6 bb d1 ee 1b 3e
       -0.057024702 -0.068406105 -0.007509142 0.1522782
0000a0 31 3b 0e be 12 f9 c9 bd 26 56 bf 3d c3 eb 03 be
       -0.13889767 -0.098619595 0.093426034 -0.12882905
0000b0 6e 2b 13 be 09 39 5d bd 20 2c 91 bd 86 f6 21 3e
       -0.14372036 -0.05400947 -0.07088494 0.15816697
0000c0 00 aa 42 3c 14 c7 0a 3a 80 39 56 3d 88 ae 81 bd
       0.0118813515 0.0005293947 0.05230093 -0.06332117
0000d0 1e d2 e8 3d f5 f4 3a 3e 92 3f f2 bd 4f 81 98 bd
       0.11368202 0.18257506 -0.11828531 -0.07446539
0000e0 77 a9 21 3e 1b 54 7b bb 34 4e ca 3d 81 48 1c be
       0.15787302 -0.0038349691 0.09878197 -0.15262033
0000f0 05 99 8b bd ba cf c8 3d 2e e1 de 3d 96 04 18 be
       -0.068162955 0.09805246 0.10882793 -0.148455

fcn3.weight f4 [32, 64]
000000 6d 2e 10 3d de 8f 2a bd 75 d7 63 bd c0 82 56 bd
       0.035200525 -0.04164111 -0.055625398 -0.052370787
000010 06 ae de bd 2b 4b d7 bd a0 79 98 3b 8c 4e b8 3c
       -0.10873036 -0.10512384 0.0046531707 0.022498392
000020 e5 b8 c6 3d 67 1b f1 3d 4a a1 10 3d 6c 76 ac 3d
       0.097032346 0.11772805 0.035310067 0.08421025
000030 b9 34 05 bc be c7 89 bc 73 1e aa 3d ec f3 9e bd
       -0.008130246 -0.016818877 0.08306589 -0.07761368
000040 46 9b 06 bc c2 c0 cb bd 81 bf 1e bd 1b 3b 06 bd
       -0.008215731 -0.09948875 -0.03875685 -0.03277121
000050 00 5f 4e bd 49 f8 a7 3c b6 0c 41 bc 9d c7 e8 3c
       -0.050383568 0.020504134 -0.011782816 0.028415496
000060 a2 f0 0c bc 64 a3 0a 3e 94 6b 0a 3c e0 48 cb 3d
       -0.008602293 0.13538891 0.0084485 0.09926009
000070 df 78 5c 3d 64 c7 43 3d 31 54 9c bc a1 ed 5e bd
       0.05382621 0.047797576 -0.019083114 -0.05442584
000080 80 c5 4f bb f2 85 e4 3c ba f2 f0 3c 3f ee 0c bc
       -0.0031703413 0.027895901 0.029412616 -0.008601724
000090 d0 62 0f bd 94 2b 0d 3d 62 2a a3 3d 18 25 d1 bd
       -0.035006344 0.034465387 0.07967068 -0.10212153
0000a0 63 29 d8 bd 60 3e e4 3c 9c 89 d9 bd d4 ec ad bd
       -0.10554769 0.027861774 -0.1062195 -0.08492437
0000b0 e0 60 ad 3c bc 4a 4d 3d e2 f5 ae bd 95 85 91 3d
       0.021164358 0.0501201 -0.08542992 0.07105557
0000c0 9d 11 84 bd ec 09 ed 3d c5 d7 8a 3b aa 18 c8 bd
       -0.06448672 0.11574158 0.0042371475 -0.09770329
0000d0 bb 49 25 bd 5a 73 06 be 50 a8 2d 3d 4a 44 0e 3b
       -0.040353518 -0.1312994 0.042396843 0.0021708184
0000e0 a8 0a 05 3e 3d 81 c1 3d 3d 57 c9 3d 30 82 c2 3d
       0.12992346 0.09448478 0.098310925 0.094974875
0000f0 93 73 6e 3d a1 9d 70 3d eb da c9 3d 31 0b dd 3c
       0.05821569 0.058744077 0.098562084 0.026982876
000100 95 f6 73 3d 9d b2 cc bd 43 98 58 3d 75 c7 3e bd
       0.05956133 -0.09995005 0.052879583 -0.046576936
000110 70 f2 56 3d ed db 98 bc 68 7b ff bc d8 93 97 bd
       0.0524773 -0.018659556 -0.031186774 -0.07401246
000120 f4 22 b6 3c ba ce 8d bc 3f 0e da 3d 83 c6 74 bd
       0.022233464 -0.017310489 0.106472485 -0.059759628
000130 97 5f 9f 3c 99 95 c5 3d 6e ef 24 3d 7c 0b 96 bb
       0.01945476 0.09647674 0.0402674 -0.0045790058
000140 cc b9 a6 bd 1d 0d e3 bd d9 8b 9c bd f0 5e 2d 3d
       -0.08140907 -0.110864855 -0.07643861 0.042326868
000150 f8 8d eb 3c 7a 27 a5 bd f0 7b 19 bd dc af 0c bd
       0.02875422 -0.0806417 -0.03747171 -0.0343474
000160 cb 08 28 bd 29 f1 c4 bd de 61 94 3c 70 84 17 bc
       -0.04102401 -0.0961631 0.018113073 -0.009247884
000170 d8 f9 07 3d bc 38 9e 3d 9f 0b e1 bd 88 a6 e8 bd
       0.033197254 0.07725665 -0.10988545 -0.11359888
000180 94 70 e1 bd 85 df ad 3c 5b 79 02 3e 7a 73 4f 3c
       -0.11007801 0.021224746 0.12741606 0.012661809
000190 b0 41 d1 3c 90 4e 7e 3c 6c f8 98 3d 0b a0 a8 3c
       0.025544018 0.01552166 0.07469258 0.020584127
0001a0 06 0a cc bd 80 70 8c bd 0a 0a fc bd d4 db 46 bd
       -0.09962849 -0.06857395 -0.12306602 -0.04854949
0001b0 f4 72 33 bd e0 28 92 3d 8f 5e aa 3d ed 3e 84 bb
       -0.0438108 0.071367025 0.08318817 -0.0040358217
0001c0 ef b4 8d bd 6d f4 8d 3d 6e cf ce 3c b6 ca a9 3d
       -0.06919276 0.06931386 0.025245395 0.08290617
0001d0 89 37 28 3d 63 ce f1 bc ac 75 cc 3d 34 04 c3 bd
       0.041068587 -0.029517358 0.09983382 -0.09522286
0001e0 f0 89 d8 bd 2a 96 0a bd b6 e0 eb 3d f6 f2 f8 3c
       -0.105731845 -0.033834614 0.115174696 0.03038929
0001f0 ae de a9 3d 29 d6 03 3e cc 08 f4 3d c8 2a 99 bd
       0.08294426 0.12874664 0.1191574 -0.07478863
000200 24 af f8 b9 bc be c3 bd 0f 32 77 bd 23 13 62 bc
       -0.00047432736 -0.09557864 -0.060350474 -0.013798508
000210 97 4b eb bd 25 1e 83 bc e0 7a 44 3d 31 07 e2 bd
       -0.11489027 -0.016005585 0.047968745 -0.11036528
000220 fc 60 b3 bd 2c a7 c2 3d bc f0 cc bd b8 b0 bf 3d
       -0.08758733 0.09504542 -0.10006854 0.09359878
000230 3a f5 15 bb 28 a1 85 bb ac 57 ef bd 6c 97 c2 bd
       -0.0022881762 -0.004078049 -0.11686644 -0.09501538
000240 7c 6b e0 bd 07 84 65 3d 9e 19 82 3d 50 9c 2c bc
       -0.10958001 0.056034114 0.06352542 -0.010535315
000250 e2 71 e6 3d 99 68 fd 3c 4a 38 ba bd fe c6 00 3d
       0.1125219 0.030933665 -0.090927675 0.031439774
000260 53 04 ce 3c 91 af 13 bb f7 0e 62 bd f0 47 a9 bd
       0.025148546 -0.0022535066 -0.055190053 -0.08265674
000270 cf 7f e2 bd 70 73 f9 bc 9d a3 83 3d 8e 7d 9d 3c
       -0.11059534 -0.030450553 0.06427691 0.019224908
000280 4e fc cd bd 16 79 24 3c 60 dd 14 bd b0 b8 88 3c
       -0.10057889 0.010038635 -0.036343932 0.016689628
000290 60 54 49 3c f4 2d f8 bd 58 23 6a 3d e3 a9 b2 3d
       0.012288183 -0.1211814 0.057162613 0.087238096
0002a0 f1 0f b0 bd 90 0f 95 bd 7a 79 0b bd e8 fa c6 3c
       -0.085967906 -0.07278359 -0.034051396 0.024289563
0002b0 be a3 8a bd 7a 4a d0 bd f4 df 05 bd 13 7f b3 3d
       -0.067695126 -0.10170455 -0.03268428 0.08764472
0002c0 f9 5e 89 bd 57 5c 7b 3d 08 02 92 3d a0 18 b2 3d
       -0.06707568 0.06136736 0.07129294 0.08696103
0002d0 8b de d4 3d 3d f2 d7 3d 82 b7 a9 bd 0d f1 92 3d
       0.10394009 0.1054425 -0.082869545 0.07174883
0002e0 fc 3e 0a be dd 8d d7 bd 69 f4 bb bd 68 04 9c bc
       -0.13500589 -0.10525105 -0.09177477 -0.01904507
0002f0 52 16 63 bc 67 2a 02 bc d0 57 86 bb 84 7c cc 3d
       -0.013860302 -0.00794468 -0.0040998235 0.09984687
000300 e2 17 8a bc 91 46 a7 bd 74 6e 77 3d ac 6f c6 3d
       -0.016857091 -0.08167756 0.06040807 0.096892685
000310 ea 51 6c 3d 93 46 d9 bc e4 d0 48 3d 88 83 9a 3d
       0.057695307 -0.02652291 0.04902734 0.07544619
000320 1b d4 3b 3d 0c 52 be bd ae 5e db 3d c3 dd c3 3d
       0.045856576 -0.09292993 0.10711418 0.09563782
000330 4e 06 da bd d5 1c 65 3b 38 fe 21 3d 5b 08 08 3d
       -0.10645734 0.0034959812 0.039549083 0.033211093
000340 6a 52 01 3e f7 4c 4e 3d 09 6a f6 3d 7a 98 fe bc
       0.12629095 0.05036637 0.12031943 -0.031078566
000350 9e 08 ef 3d 27 78 d0 3d 1a 6d e3 bd 4f a2 e9 3d
       0.116715655 0.10179167 -0.11104794 0.11407911
000360 39 c1 99 3d 4e ab b6 3d e4 90 a0 bd e0 63 d5 3b
       0.075075574 0.089193925 -0.07840136 0.00651215
000370 ef 42 0c 3d 94 6b 44 bd 31 39 99 bd 70 09 ab 3c
       0.03424352 -0.047954157 -0.074816115 0.020878524
000380 a0 1c 91 bb 75 49 06 3e ee d9 ae bc 0a b2 03 be
       -0.004428461 0.13113959 -0.021344151 -0.12860885
000390 66 c5 99 bd 52 2d e2 3d 5a eb 95 3d 5d 20 32 3d
       -0.07508354 0.110438004 0.073202804 0.043487895
0003a0 39 7a a1 bd ec d7 c3 bd 10 e5 82 3d b8 71 e5 3c
       -0.0788464 -0.09562668 0.063913465 0.028008327
0003b0 ee ff f1 3d 38 e0 59 3d d4 32 80 3d d1 fc 32 3d
       0.11816393 0.053192347 0.06259695 0.043698136
0003c0 48 1f b7 bd 94 91 91 bd db 88 88 bb c0 59 f7 bb
       -0.08941513 -0.07107845 -0.004166705 -0.007548541
0003d0 83 22 a0 bd 8d 3d 26 bc a8 bc 08 3d 9f 1c 7a bd
       -0.078190826 -0.010146511 0.03338304 -0.06106245
0003e0 a3 65 d4 3d 04 53 bc bc 5e 99 6a 3d 24 6a 94 bd
       0.10370948 -0.022988804 0.05727517 -0.07246807
0003f0 bb 7b 4f 3d b8 74 8d bd 0a cb 8f bd 31 b1 8c 3c
       0.050655108 -0.06907028 -0.070211485 0.017174335
