models/haptic/intialstate_400_4.pt (torch_old, 21858 bytes, 5 tensors)

fcn1.weight f4 [32, 32]
0	0xbc92c515	-0.017916242
1	0x3d090752	0.033454247
2	0x3e3996dd	0.18123956
3	0xbe20bf62	-0.15698007
4	0xbdd1b61c	-0.10239813
5	0xbe05d2f4	-0.13068753
6	0xbd8e0de0	-0.0693624
7	0xbd606e1a	-0.0547925
8	0xbd0886db	-0.033331733
9	0xbddad879	-0.1068582
10	0xbde2fbae	-0.1108316
11	0x3d90f47e	0.07077883
12	0x3dae321f	0.085056536
13	0x3e2ac421	0.1667638
14	0x3dce2b25	0.10066823
15	0xbd0afdf8	-0.03393361
16	0x3d21b924	0.039483204
17	0xbdd7b7dc	-0.10533115
18	0xbe1cb04e	-0.1530163
19	0xbcbcae5c	-0.02303236
20	0x3d25af79	0.040450547
21	0x3de7ddcb	0.113216005
22	0x3e0e8ca1	0.13920833
23	0xbcbdde83	-0.02317739
24	0xbe2d7af1	-0.1694143
25	0x3c59f9e2	0.013304206
26	0xbe2768b1	-0.1634853
27	0xbdddbf16	-0.108274624
28	0x3df3d803	0.11906435
29	0xbe155c25	-0.14585932
30	0x3e12dfc1	0.14343168
31	0x3d97b21f	0.07407021
32	0x3da91508	0.082559645
33	0x3e028cd9	0.12749042
34	0x3d1afd3e	0.037839167
35	0x3da76e56	0.08175342
36	0xbcea4b15	-0.028600255
37	0x3e19dfa5	0.1502672
38	0x3e4093b4	0.18806344
39	0xbdf6baf5	-0.12047378
40	0x3e06d09d	0.13165517
41	0xbe30c878	-0.17263973
42	0xbdc8f501	-0.09812356
43	0xbdb5b005	-0.08871464
44	0xbe237549	-0.1596271
45	0x3d37f982	0.044915684
46	0xbdb8bd0b	-0.09020432
47	0xbe274ac8	-0.1633712
48	0x3ceefb7d	0.029172653
49	0x3e28f7dd	0.16500802
50	0x3e2bd534	0.1678055
51	0x3d7362c5	0.059420366
52	0x3dcf4bd4	0.10121885
53	0x3d8d1fdc	0.06890842
54	0x3da79799	0.08183212
55	0x3c02c59b	0.007981683
56	0xbdb03b4d	-0.08605061
57	0xbc88b6ec	-0.016688786
58	0xbd93f0ff	-0.07223701
59	0x3decded3	0.11565938
60	0xbd55f813	-0.052238535
61	0x3dd6f528	0.104959786
62	0x3e0b0a8c	0.13578242
63	0xbd8e6f4d	-0.06954823
64	0x3dc7a375	0.09747974
65	0x3d4c39de	0.049859874
66	0xbe153a61	-0.14573051
67	0xbdbe0bca	-0.09279592
68	0xbc189764	-0.009313438
69	0x3de8b750	0.11363089
70	0x3d5bb2f2	0.053637452
71	0xbd8eb58d	-0.06968222
72	0x3cdb40a3	0.02676422
73	0x3e149688	0.14510548
74	0xbd3a65f9	-0.045507405
75	0xbdcc5724	-0.09977558
76	0xbd3f334d	-0.046679784
77	0x3e14a1a9	0.14514793
78	0x3d5720ce	0.05252152
79	0x3d9219b9	0.071338125
80	0x3d0833be	0.03325247
81	0x3e1d9936	0.15390477
82	0x3df1aa7c	0.118000954
83	0x3d88196c	0.06645474
84	0x3db5c8bd	0.088761784
85	0x3c6f2dd3	0.014598328
86	0x3e0ba12d	0.13635702
87	0xbc1e2a8c	-0.009653699
88	0x3e1bac21	0.1520238
89	0x3d28ac8b	0.041180175
90	0x3e136df3	0.14397411
91	0x3d843763	0.06455877
92	0xbca8efe4	-0.020622201
93	0x3cd3c976	0.0258529
94	0xbdcfe42c	-0.10150942
95	0xbddea190	-0.10870659
96	0xbe168173	-0.14697818
97	0x3e22a664	0.15883785
98	0xbdfd8aab	-0.123799644
99	0xbe2f4db5	-0.17119487
100	0x3df7e4cc	0.121041864
101	0xbd191755	-0.037375767
102	0x3de259bc	0.11052272
103	0xbdc7680f	-0.097366445
104	0xbe008aae	-0.12552902
105	0x3e0f7cda	0.14012471
106	0xbdbf764d	-0.09348736
107	0xbdf9c0ac	-0.12194952
108	0xbace62a1	-0.0015745946
109	0xbe054566	-0.13014755
110	0xbe0ff654	-0.1405881
111	0x3e1af1f0	0.15131354
112	0x3de49493	0.11161151
113	0x3e0e2713	0.13882093
114	0x3deaf2fd	0.114721276
115	0xbe09d346	-0.134595
116	0xbdb2b5c9	-0.08726079
117	0xbe2c37ab	-0.1681811
118	0x3de4d6c5	0.111737765
119	0xbd6f9d5a	-0.05849967
120	0x3d9915dc	0.074748725
121	0x3d4e3dc2	0.050351866
122	0xbd8d2913	-0.068926
123	0x3d04718b	0.032334846
124	0x3d9410cd	0.07229767
125	0x3e1eb50a	0.15498748
126	0x3dc7a04e	0.097473726
127	0x3c35445b	0.0110636605
128	0x3e27ae0b	0.16374986
129	0xbe1c18ab	-0.15243785
130	0xbbc5e688	-0.0060394444
131	0xbdf9fbf4	-0.12206259
132	0xbe2fccb4	-0.17167932
133	0x3c3426ea	0.010995606
134	0xbe34f869	-0.17672886
135	0xbd388e15	-0.045057375
136	0x3c286a95	0.010279317
137	0xbe1b12b6	-0.15143856
138	0xbbcbfaa9	-0.0062249494
139	0x3e04bd28	0.12962782
140	0xbe1d1db9	-0.1534337
141	0xbe22e4ff	-0.15907668
142	0xbd80d981	-0.062914856
143	0xbdad3a0b	-0.084583364
144	0xbe216043	-0.15759377
145	0x3e0bf7fc	0.13668817
146	0xbda20977	-0.079119615
147	0x3e2a983c	0.16659635
148	0xbe08fba4	-0.13377243
149	0x3df3ab57	0.11897915
150	0xbd66f2b1	-0.056383792
151	0xbd611bd0	-0.054958165
152	0xbcb25345	-0.021768222
153	0x3e0d3d6c	0.13792962
154	0x3d3b4005	0.04571535
155	0x3d8d4902	0.06898691
156	0xbd09cc04	-0.03364183
157	0xbdebec4d	-0.1151968
158	0xbe0e301f	-0.13885544
159	0x3de608f3	0.11232176
160	0x3e306a88	0.17228138
161	0x3e00ea19	0.12589301
162	0xbe0cac20	-0.13737535
163	0x3d0e788d	0.034782935
164	0x3daf77f3	0.085678004
165	0x3debeeb1	0.11520136
166	0xbde490ea	-0.11160453
167	0xbd4c1ed2	-0.04983408
168	0x3dceb129	0.10092384
169	0x3df8a940	0.12141657
170	0xbdc9d2a4	-0.0985463
171	0x3de12535	0.10993425
172	0xbe1252ae	-0.14289352
173	0xbe2cea96	-0.16886362
174	0x3c21d813	0.009878176
175	0xbe07cf1f	-0.13262604
176	0xbe0aa4d6	-0.13539442
177	0xbb39d571	-0.002835598
178	0x3d9cd636	0.07658045
179	0xbd913720	-0.070905924
180	0xbd7ba9de	-0.061441295
181	0xbda5fa95	-0.08104435
182	0xbe37d357	-0.17951714
183	0x3dde8e86	0.10867028
184	0x3e0f5e17	0.14000736
185	0x3e192321	0.14954807
186	0xbca241e0	-0.019806802
187	0x3da314cc	0.07962951
188	0xbe2e058a	-0.169943
189	0xbdf245a3	-0.118296884
190	0xbe3755da	-0.17903844
191	0x3da6455e	0.081186995
192	0x3d1b33bc	0.037891135
193	0x3dec4fc3	0.11538651
194	0xbd0d6bdc	-0.03452669
195	0x3ce762af	0.028245298
196	0xbdae38ba	-0.085069135
197	0xbdaa605c	-0.0831916
198	0xbb6aef04	-0.003584803
199	0x3db59e8f	0.08868133
200	0x3de0cc0d	0.109764196
201	0x3e1c7d14	0.15282089
202	0x3db2250b	0.08698472
203	0x3d0aa277	0.033846345
204	0x3e21eaed	0.15812273
205	0x3e2e535c	0.17023987
206	0x3d873266	0.066014096
207	0x3e395539	0.18098916
208	0x3c93b66f	0.018031327
209	0xbc50dc6f	-0.012747868
210	0x3e315eab	0.17321269
211	0xbcd0fd59	-0.02551143
212	0x3dfb2ff3	0.12265005
213	0x3e23d1d3	0.1599801
214	0x3d9deac6	0.07710795
215	0x3ddcd7e0	0.107833624
216	0xbdf704b0	-0.12061441
217	0x3e2ab629	0.16671051
218	0xbdcfd46c	-0.10147938
219	0x3dfebea8	0.124387085
220	0x3c6153cd	0.01375289
221	0x3e07792c	0.13229817
222	0x3d87d4d8	0.066323936
223	0x3e301712	0.171963
224	0x3d4c82c3	0.04992939
225	0xbdf6719a	-0.120333865
226	0x3e2d915c	0.16949981
227	0x3cb567d8	0.022144243
228	0x3d32d05c	0.04365574
229	0x3e3380b4	0.17529565
230	0xbc745761	-0.014913411
231	0xbdda5866	-0.10661392
232	0x3d0585f4	0.03259845
233	0x3d768450	0.060184777
234	0xbe0be2aa	-0.13660684
235	0xbe2922c7	-0.16517173
236	0x3d4f67b4	0.05063601
237	0x3e0f74c2	0.14009383
238	0xbe258616	-0.16164431
239	0xba36cdd5	-0.00069734204
240	0x3dfb9b85	0.12285522
241	0xbe08641b	-0.13319437
242	0xbdcc8590	-0.099864125
243	0xbd417e10	-0.047239363
244	0xbda4eef6	-0.08053391
245	0x3cf541e1	0.02993864
246	0x3d8544a4	0.06507233
247	0x3e18c077	0.1491717
248	0xbdf8b1e3	-0.12143304
249	0xbdaf3e32	-0.08556785
250	0xbd0124f0	-0.031529367
251	0x3dc8c32d	0.09802852
252	0xbc11d9f6	-0.008902064
253	0xbe0c0d46	-0.13676938
254	0xbe0862b7	-0.13318907
255	0x3c4decaa	0.012568632

fcn1.bias f4 [32]
0	0x3cc8ead1	0.024526032
1	0x3d23361c	0.039846525
2	0x3e29a48a	0.16566673
3	0x3e100e7b	0.14068024
4	0x3d5e9c59	0.054348323
5	0x3d8fa6e6	0.07014255
6	0xbd28e511	-0.04123408
7	0x3dc2bd4c	0.09508762
8	0xbe1de21a	-0.15418282
9	0x3c24c920	0.010057718
10	0xbd23cd19	-0.03999052
11	0xbe04f907	-0.12985621
12	0xbe0676bf	-0.13131236
13	0x3e415480	0.1887989
14	0xbdf6cca7	-0.12050753
15	0xbb5ef4a4	-0.003402033
16	0x3deb408e	0.11486922
17	0xbe30a975	-0.17252143
18	0x3d6697dd	0.05629717
19	0x3c85e18f	0.016342906
20	0xbe0db1d8	-0.13837373
21	0x3e2fc1bc	0.17163748
22	0xbd266912	-0.040627547
23	0x3df111fc	0.11771008
24	0xbe20544f	-0.15657161
25	0xbd8e7fb7	-0.069579534
26	0xbc97dbea	-0.01853748
27	0xbc844390	-0.016145498
28	0xbc811965	-0.01575918
29	0xbd8adb10	-0.06780064
30	0x3bdc930e	0.0067313975
31	0x3ba946e0	0.0051659197

fcn2.weight f4 [64, 32]
0	0x3df6faa6	0.12059526
1	0x3d3ba640	0.045812845
2	0x3e0f4e73	0.1399477
3	0xbc899708	-0.01679565
4	0x3d357568	0.04430142
5	0xbd7f6c66	-0.062359236
6	0xbdbcd0b1	-0.09219492
7	0x3dc241ce	0.094852075
8	0xbc00a770	-0.00785242
9	0xbc4eeee0	-0.012630194
10	0xbda136c0	-0.07871771
11	0xbd2bb2e4	-0.04191865
12	0x3e175f53	0.14782457
13	0x3d3bdd94	0.04586561
14	0xbe1c3ebd	-0.15258308
15	0xbde29b3d	-0.110647656
16	0x3c913178	0.017723784
17	0xbdcd29de	-0.10017751
18	0xbe10be49	-0.14135088
19	0x3e18431f	0.14869355
20	0xbe160ecf	-0.14654087
21	0xbe211ecf	-0.15734409
22	0x3e2aa2d7	0.16663681
23	0x3de8ffb6	0.11376898
24	0xbdc6bfd6	-0.097045586
25	0x3d89add6	0.0672261
26	0xbd3c99e8	-0.046045214
27	0x3e02ef97	0.12786709
28	0xbd4e4d58	-0.05036673
29	0xbe2c12f6	-0.16804108
30	0xbd15df98	-0.03659019
31	0x3de4053a	0.111338094
32	0xbdc8ff90	-0.0981437
33	0x3c46be97	0.012130401
34	0x3d52c227	0.05145469
35	0xbc649837	-0.0139523065
36	0xbd99bb41	-0.07506419
37	0xbe32b30a	-0.1745111
38	0x3dc1388e	0.09434615
39	0x3cc64b29	0.024205761
40	0xbd6ed80e	-0.058311515
41	0xbd970b54	-0.073752075
42	0xbde8b436	-0.113624975
43	0x3b1d0b78	0.0023963135
44	0xbd16918a	-0.03675989
45	0xbd706d85	-0.058698196
46	0x3c3936ae	0.011304541
47	0xbd92ef92	-0.07174601
48	0x3d358315	0.044314463
49	0x3d918bfa	0.071067765
50	0xbc77fbdc	-0.015135732
51	0x3dc0e046	0.09417777
52	0x3e3d3093	0.18475561
53	0xbe214046	-0.15747175
54	0xbd1aee5e	-0.03782498
55	0xbd1d5b76	-0.038417302
56	0xbde37615	-0.11106507
57	0x3def79ee	0.11693178
58	0x3d98346b	0.07431873
59	0x3b216c0d	0.0024631054
60	0xbdd3952a	-0.10331185
61	0x3cb7c651	0.022433432
62	0x3e0a9254	0.13532382
63	0x3de0f90e	0.109850034
64	0x3d6cef24	0.05784525
65	0xbd41d0a7	-0.047318127
66	0xbd3fe161	-0.046845797
67	0xbd9d26b5	-0.076733984
68	0xbdf45291	-0.11929811
69	0xbcc5dc22	-0.024152819
70	0xbd43f48a	-0.047840632
71	0x3e061f94	0.13097984
72	0xbe026ae0	-0.12736082
73	0xbe0a93fd	-0.13533016
74	0x3e2e8a49	0.17044939
75	0xbdab65fc	-0.08369061
76	0x3def32b8	0.11679596
77	0x3da70ccd	0.081567384
78	0xbbfff898	-0.007811617
79	0x3e1bad20	0.1520276
80	0xbbb2c1c5	-0.005455228
81	0xbda88a71	-0.082295306
82	0x3c8619a9	0.016369658
83	0x3dbd03f6	0.09229271
84	0x3df30d0d	0.118677236
85	0xbca691ab	-0.020333132
86	0x3da57c5a	0.08080359
87	0x3de0c6db	0.10975429
88	0xbc81b801	-0.01583481
89	0xbdb27735	-0.08714143
90	0xbe2a5e93	-0.1663764
91	0x3e139943	0.14413933
92	0xbd38f415	-0.04515465
93	0x3a91fb71	0.0011137557
94	0x3d68b4f7	0.056813207
95	0x3cab1830	0.020885557
96	0xbe343c42	-0.17601112
97	0x3deac59b	0.114634715
98	0xbdf80059	-0.12109441
99	0x3dd0e407	0.10199743
100	0x3d88c53e	0.06678246
101	0x3e171d23	0.14757209
102	0x3d104e59	0.03523097
103	0xbcd2abcb	-0.025716683
104	0xbd8b126e	-0.067906246
105	0xbe03f100	-0.12884903
106	0xbe0c5fff	-0.13708495
107	0xbda88889	-0.08229167
108	0x3e1ebe8e	0.15502378
109	0xb98aa5a1	-0.00026444814
110	0x3cadf200	0.021233559
111	0xbc82820d	-0.015931154
112	0xbda74a9c	-0.081685275
113	0x3dd8048a	0.10547741
114	0x3ca0a6e8	0.019610837
115	0x3dbf9bde	0.09355901
116	0xbe0a4b44	-0.13505274
117	0x3d7d1808	0.061790496
118	0x3e159eb7	0.14611326
119	0xbcb89d39	-0.022535907
120	0x3dc2fcfd	0.0952091
121	0xbd6d614a	-0.05795411
122	0xbe3216e2	-0.17391542
123	0xbdf6d354	-0.120520264
124	0xbd6385fe	-0.055547707
125	0x3e1e7021	0.15472461
126	0x3e316c34	0.17326432
127	0x3d595ad4	0.053065136
128	0x3cda8833	0.026676273
129	0xbc8afe83	-0.016967064
130	0xbe055251	-0.13019682
131	0xbbb7ae24	-0.005605476
132	0x3dbc5133	0.09195175
133	0xbdfb7a26	-0.12279157
134	0x3e0ffb24	0.14060646
135	0x3d093072	0.033493467
136	0xbdd81dab	-0.10552534
137	0xbe258db8	-0.16167343
138	0xbd5d1071	-0.053970758
139	0xbe2d07b8	-0.16897476
140	0x3d466f37	0.048445906
141	0xbdb914c2	-0.09037162
142	0xbe3a974c	-0.18221778
143	0x3e2d2edb	0.16912405
144	0x3d95dce0	0.07317519
145	0xbdb50fb0	-0.08840883
146	0x3e3405f2	0.17580393
147	0xbcd6f907	-0.026241792
148	0xbd11e955	-0.035622913
149	0xbe171b4d	-0.14756508
150	0x3dba40e3	0.090944074
151	0xbd7334ae	-0.05937641
152	0x3d1b1305	0.037859935
153	0xbc1c7100	-0.009548426
154	0x3d7d0599	0.061772916
155	0x3c21aa38	0.0098672435
156	0x3de2efd1	0.110808976
157	0xbd806ed9	-0.062711425
158	0x3dac9954	0.084276825
159	0xbc5ecda0	-0.0135988295
160	0xbdfb6960	-0.12275958
161	0xbdbf545c	-0.09342262
162	0xbe09e9c0	-0.13468075
163	0xbe0ee692	-0.13955143
164	0x3d8335d6	0.06406753
165	0x3d818b43	0.0632539
166	0xbd0159b6	-0.031579696
167	0x3e13d478	0.14436519
168	0x3d1e8450	0.0387004
169	0xbd20b042	-0.039230593
170	0x3dfa9f73	0.12237444
171	0x3e2023bc	0.15638632
172	0x3e136675	0.14394553
173	0x3de9404c	0.11389217
174	0xbe19f1ca	-0.15033641
175	0xbe2da823	-0.1695867
176	0x3d0c234e	0.034213357
177	0x3df6df5a	0.1205432
178	0xbdc9c5cf	-0.09852182
179	0x3d6d37b0	0.057914436
180	0x3e166880	0.14688301
181	0x3dbf29f3	0.09334173
182	0xbdf395c5	-0.11893801
183	0x3dd01835	0.10160867
184	0x3cd18714	0.025577106
185	0x3e27105b	0.16314833
186	0x3dfebc45	0.12438253
187	0x3dc33830	0.09532201
188	0x3e34021b	0.17578928
189	0x3c03fea0	0.008056313
190	0x3d954f6b	0.072905384
191	0xbe0f2128	-0.13977492
192	0x3ded3d2d	0.11583934
193	0xbe1e91df	-0.15485333
194	0xbd47378b	-0.048636954
195	0xbc01dd64	-0.007926319
196	0x3d0fea05	0.035135288
197	0xbdf7adfa	-0.1209373
198	0x3db9b58f	0.09067833
199	0x3deb5ed1	0.11492694
200	0x3d423054	0.04740937
201	0xbde2c53a	-0.11072774
202	0xbe09f8c1	-0.13473798
203	0xbe2201ed	-0.15821047
204	0xbe208fa0	-0.15679789
205	0xbdf618b5	-0.12016431
206	0xbd436e51	-0.047712628
207	0x3c96abca	0.018392462
208	0x3e39b28d	0.18134518
209	0x3d749154	0.05970891
210	0xbe03c214	-0.12867004
211	0xbdd527fe	-0.104080185
212	0x3e279f2c	0.16369313
213	0xbd12c97b	-0.035836678
214	0x3adc5f63	0.0016813095
215	0xbd462730	-0.048377216
216	0xbe13a033	-0.1441658
217	0xbca5a170	-0.020218581
218	0x3c8bb2ba	0.017052997
219	0xbcd030c6	-0.025413882
220	0xbe196c4a	-0.14982715
221	0xbe05ece9	-0.13078655
222	0xbb9bacd2	-0.0047508264
223	0xbd0ca718	-0.03433904
224	0xbe11b6f3	-0.14229946
225	0xbc59980d	-0.013280881
226	0x3cc678c9	0.024227517
227	0x3dd923bd	0.1060252
228	0xbe0f4513	-0.13991193
229	0x3dfc0e88	0.12307459
230	0xbe1105dc	-0.14162391
231	0x3d986f62	0.074431196
232	0x3da8b9ae	0.082385406
233	0x3c9785bf	0.018496392
234	0xbe38a916	-0.18033251
235	0xbdb5eed7	-0.08883446
236	0xbdb20ca5	-0.08693818
237	0x3c0b4ede	0.00850269
238	0x3dcfd24c	0.10147533
239	0x3d90f065	0.070771016
240	0x3d9dc465	0.07703475
241	0x3e1047c5	0.14089878
242	0x3dfca425	0.123359956
243	0x3e3c8c5c	0.18412918
244	0x3daf4184	0.08557418
245	0xbd787aed	-0.060664106
246	0x3c2a20c7	0.010383791
247	0xbe13e03b	-0.14441006
248	0xbde923cd	-0.113837816
249	0xbe0a4ac9	-0.13505091
250	0x3df3faae	0.11913048
251	0xbd894cbc	-0.06704089
252	0x3e21be30	0.15795207
253	0xbd5d63ae	-0.05405014
254	0xbe0b79cc	-0.1362068
255	0xbd98d4ba	-0.07462449

fcn2.bias f4 [64]
0	0xbe0b5277	-0.13605677
1	0x3d093703	0.03349973
2	0x3c52b900	0.01286149
3	0x3d050a09	0.032480273
4	0x3da05592	0.07828821
5	0x3cbccd3e	0.023047086
6	0x3e239c59	0.1597761
7	0x3d87e174	0.06634799
8	0xbe03e000	-0.12878418
9	0x3dcf1870	0.10112083
10	0xbd40d7ba	-0.047080733
11	0x3d0dba63	0.03460158
12	0xbdbd940b	-0.092567526
13	0x3b1c30db	0.002383283
14	0x3d81752c	0.06321177
15	0x3e0de31f	0.13856171
16	0xbe2655ac	-0.16243619
17	0xbdcdbaa6	-0.10045366
18	0x3d26c88c	0.0407186
19	0x3dc7de88	0.09759241
20	0x3e072f9b	0.13201754
21	0x3e19d14e	0.1502125
22	0xbe282946	-0.16421995
23	0xbc87f348	-0.016595498
24	0x3d3f5cf6	0.046719514
25	0x3de686ba	0.11256166
26	0x3cb502f8	0.022096142
27	0x3e3520ab	0.17688243
28	0x3d148014	0.036254957
29	0x3c24b33d	0.010052499
30	0xbd5665a0	-0.05234301
31	0x3ddf4e91	0.10903657
32	0xbc9ad330	-0.01889953
33	0xbdad5742	-0.08463909
34	0x3d172afc	0.036906227
35	0xbe19bf37	-0.15014349
36	0xbe09581c	-0.13412517
37	0x3df19b1e	0.117971644
38	0xbde5dcba	-0.11223741
39	0xbdd0abc8	-0.10189015
40	0xbd9fc99e	-0.07802127
41	0xbe2dfeb0	-0.16991687
42	0xbe2237cb	-0.15841596
43	0xbb8387eb	-0.0040140054
44	0xbde92c51	-0.11385406
45	0xbe024b98	-0.12724149
46	0xbd13acc0	-0.03605342
47	0xbdfc3026	-0.12313871
48	0x3e4102cb	0.18848722
49	0xbe217fd2	-0.15771416
50	0x3bdcd308	0.006739024
51	0x3dc2a06f	0.095032565
52	0x3d5f9eb6	0.054594718
53	0x3e3fe9e3	0.18741564
54	0xbde4a197	-0.11163633
55	0x3c5e3650	0.013562754
56	0x3c95be64	0.018279262
57	0xbd346b60	-0.044047713
58	0x3d33e190	0.043916285
59	0xbd2317ea	-0.039817728
60	0x3d936c6c	0.07198414
61	0xbd356028	-0.044281155
62	0xbd940810	-0.072281
63	0xbcceda2d	-0.025250519

fcn3.weight f4 [32, 64]
0	0x3d0d32e0	0.034472346
1	0x3c9d5302	0.01920462
2	0x3d902b07	0.07039457
3	0x3d458ab8	0.048227996
4	0x3de155c0	0.11002684
5	0xbb86eb79	-0.004117426
6	0x3d7d5829	0.061851654
7	0xbba83873	-0.0051336824
8	0xbdddfec4	-0.10839608
9	0x3e06feea	0.1318318
10	0x3d8d7c28	0.069084466
11	0xbdad09a0	-0.084491014
12	0xbdb63443	-0.08896687
13	0x3d856cc5	0.06514887
14	0xbde0fa19	-0.10985202
15	0x3dd9a435	0.10627023
16	0x3d759250	0.059953988
17	0xbd96f3ac	-0.073706955
18	0xbde12304	-0.10993007
19	0x3d071270	0.032976568
20	0xbdfc139f	-0.1230843
21	0xbc979f30	-0.018508524
22	0xbdd9bf44	-0.10632184
23	0xbd695a39	-0.05697081
24	0xbde1bcda	-0.11022349
25	0x3e02b61b	0.1276478
26	0xbdc2dcfe	-0.09514807
27	0x3dcaca81	0.09901906
28	0xbd711e5c	-0.058866844
29	0x3d03b9c6	0.03215959
30	0x3cbf1fee	0.023330655
31	0xbcd1fd6b	-0.025633534
32	0x3d27e33b	0.04098819
33	0xbdaca27e	-0.084294304
34	0x3de47861	0.11155773
35	0xbd79a841	-0.060951475
36	0x3da7c432	0.08191718
37	0x3e063f6a	0.13110128
38	0xbcd76824	-0.026294775
39	0xbd96e74c	-0.07368335
40	0xbd9747c8	-0.07386738
41	0xbdcb95d2	-0.09940685
42	0x3db235d4	0.08701673
43	0x3d7611c9	0.060075555
44	0xbaa5b780	-0.0012643188
45	0x3e0b3079	0.1359271
46	0xbdbcdd14	-0.09221855
47	0xbc0d40ea	-0.008621434
48	0xbded85a7	-0.11597758
49	0xbdcf528c	-0.101231664
50	0xbaeba3e7	-0.0017977924
51	0xbdad4f1e	-0.08462356
52	0xbddb276a	-0.10700877
53	0xbcfa9593	-0.0305889
54	0xbda2e23b	-0.07953306
55	0xbdd1f308	-0.10251433
56	0xbc58fe26	-0.013244187
57	0xbdfe60aa	-0.12420781
58	0x3d47a198	0.048738092
59	0xbc8fa646	-0.01753534
60	0xbd09693d	-0.03354763
61	0x3c8b93e7	0.017038299
62	0xbd40c658	-0.047064155
63	0xbd605457	-0.054767933
64	0xbc12f410	-0.008969322
65	0x3d79d48c	0.060993716
66	0xbd8e757a	-0.069560006
67	0xbd309679	-0.043112252
68	0xbd79aa7b	-0.0609536
69	0xbcd27cc6	-0.025694262
70	0x3d447a75	0.047968347
71	0x3da04a62	0.078266874
72	0xbd5a48e6	-0.053292178
73	0x3e00b793	0.12570028
74	0x3dbcbad9	0.09215326
75	0x3d3b9fcc	0.04580669
76	0x3d1bc0c5	0.038025636
77	0xbd64b36a	-0.055835165
78	0xbc60f6d9	-0.013730728
79	0x3e0a0819	0.13479652
80	0xbdbe5ac0	-0.09294653
81	0xbca256d8	-0.019816801
82	0x3dc4e824	0.0961459
83	0x3dc56d8a	0.096400335
84	0x3dd1d0f8	0.10244936
85	0xbd9d15f5	-0.076702036
86	0x3df39b1e	0.11894821
87	0x3d290b87	0.04127076
88	0xbdc8f583	-0.09812453
89	0x3db9e107	0.09076124
90	0x3df85357	0.12125271
91	0xbc7f2743	-0.015573326
92	0xbdee45ef	-0.116344325
93	0xbd95dfc5	-0.07318071
94	0x3dd176f0	0.10227764
95	0x3cb7f2fd	0.022454733
96	0xbd292497	-0.04129466
97	0xbd939ff8	-0.07208246
98	0xbd92ffca	-0.07177694
99	0xbdb01d72	-0.08599366
100	0xbddb13b4	-0.106971174
101	0x3dded8b8	0.108811796
102	0xbda18320	-0.07886338
103	0xbd381ba3	-0.04494823
104	0xbded482a	-0.1158603
105	0xbde8cc72	-0.1136712
106	0x3e078e54	0.13237888
107	0x3daf9d7b	0.08574959
108	0xbd8cca98	-0.06874579
109	0x3d585712	0.05281741
110	0x3c0b8100	0.008514643
111	0xbd0682e6	-0.03283968
112	0x3ced7d22	0.028990332
113	0xbda44288	-0.08020502
114	0x3bf22ea4	0.007390814
115	0x3dce3441	0.100685604
116	0x3d3bb94a	0.045831002
117	0x3d171b04	0.036891
118	0x3db7b8e4	0.08970812
119	0x3decbd12	0.115595
120	0xbdce76e9	-0.10081274
121	0x3c880970	0.016606063
122	0x3b834d2f	0.0040070037
123	0xbdc01f77	-0.093810014
124	0xbc4e9f8e	-0.012611283
125	0x3d6c38df	0.057671424
126	0x3caec760	0.021335304
127	0xbd910a25	-0.07082013
128	0x3dabca7e	0.08388232
129	0x3d2047a4	0.03913082
130	0xbd9ac3cc	-0.075568765
131	0xbd6f50f0	-0.058426797
132	0xbd80c594	-0.06287685
133	0xbd998f3d	-0.07498024
134	0x3b97f690	0.004637547
135	0xbdd12440	-0.10211992
136	0xbdb90f9a	-0.09036179
137	0x3d6a02cc	0.057131574
138	0x3cff16ea	0.031138856
139	0x3c807359	0.015680002
140	0x3d1aafa2	0.037765153
141	0x3d98a0f6	0.07452576
142	0xbdd05ba8	-0.10173732
143	0x3d5b989e	0.053612344
144	0x3de2f9dc	0.11082813
145	0x3dab3ab2	0.083608046
146	0xbd652190	-0.05594021
147	0xbdb19040	-0.08670092
148	0xbd5fdf17	-0.054656114
149	0xbc8b7d66	-0.017027568
150	0xbdc36400	-0.09540558
151	0x3ca5793c	0.02019941
152	0x3dfa68fc	0.122270554
153	0x3c8d4b6d	0.01724788
154	0xbdb4637f	-0.0880804
155	0x3df29aee	0.11845957
156	0xbd955247	-0.07291084
157	0x3d8212c3	0.06351235
158	0x3dd145b9	0.10218377
159	0x3c999ef4	0.018752553
160	0xbda4c98c	-0.080462545
161	0x3bcf51c5	0.0063268864
162	0x3b0cc1eb	0.0021477889
163	0xbd90b302	-0.07065393
164	0xbc596770	-0.01326929
165	0xbd2d6b2d	-0.04233854
166	0xbd7e6ce5	-0.06211557
167	0x3da3d299	0.07999153
168	0x3da9dd8e	0.08294211
169	0x3d21b22c	0.03947656
170	0xbdd511fa	-0.104038194
171	0x3d79615b	0.06088386
172	0xbd419a1c	-0.04726611
173	0x3d3d21b0	0.046174705
174	0xbda60ee8	-0.08108312
175	0x3c6b7a2a	0.014372388
176	0x3dfc22c5	0.12311319
177	0xbcf65c20	-0.030073225
178	0xbddde4e9	-0.10834677
179	0xbc7798b7	-0.015112094
180	0x3dde1128	0.10843116
181	0x3e059293	0.13044195
182	0xbd1c8d1b	-0.038220506
183	0x3db9c9d4	0.09071699
184	0x3db4dc90	0.088311315
185	0x3dd47882	0.103745475
186	0xbdff6f50	-0.12472403
187	0x3d375508	0.044758826
188	0xbdb88f32	-0.09011687
189	0x3d6bebc2	0.057597883
190	0xbddf454e	-0.10901891
191	0x3d61da7c	0.055140004
192	0x3d9ed674	0.077557474
193	0x3d8ccd2d	0.06875072
194	0xbc79b077	-0.015239826
195	0x3d8777e9	0.06614668
196	0xbd3e724b	-0.046495717
197	0x3dd5cc7d	0.10439394
198	0x3c171d68	0.00922332
199	0x3da67e43	0.08129551
200	0xbce4c88e	-0.027927663
201	0x3c318242	0.010834279
202	0xbd83e63b	-0.06440397
203	0x3dc0b1bc	0.094089
204	0x3d6922d3	0.056917977
205	0xbd415c2b	-0.04720704
206	0x3dddbae3	0.108266614
207	0xbe09bdd2	-0.13451317
208	0xbdf4dcca	-0.11956175
209	0xbde37190	-0.11105645
210	0xbd72b1a0	-0.059251428
211	0x3d9f1473	0.07767572
212	0x3dc91b2f	0.09819638
213	0x3d0b129d	0.033953298
214	0xbdf700ec	-0.12060723
215	0xb9be1482	-0.00036254904
216	0x3dfb2498	0.12262839
217	0x3d462e38	0.04838392
218	0x3de2308e	0.11044417
219	0x3dd315d3	0.10306897
220	0xbd9e60aa	-0.07733281
221	0xbd8813bb	-0.06644388
222	0xbd9e44b1	-0.077279456
223	0x3d80d8d7	0.06291359
224	0x3ccd7c72	0.025083754
225	0xbc25f2dd	-0.010128704
226	0x3d116122	0.035493024
227	0xbd2d66f6	-0.04233452
228	0xbd7703dc	-0.060306415
229	0xbd0910aa	-0.033463158
230	0xbcc87950	-0.024471909
231	0xbd94f71d	-0.072736956
232	0x3ddbb5a4	0.107280046
233	0x3dd2d808	0.10295111
234	0xbdc7b5d8	-0.09751481
235	0xbd9d0fe5	-0.07669047
236	0x3cca1be8	0.02467151
237	0xbbacd950	-0.005274929
238	0xbdab8da2	-0.08376624
239	0x3d351372	0.044207998
240	0x3d8e21dd	0.06940053
241	0x3d6f4284	0.058413044
242	0x3dd7fb6c	0.10546002
243	0xbdc1deb4	-0.094663054
244	0xbd4efb28	-0.05053249
245	0xbdafe89c	-0.085892886
246	0xbce08a04	-0.027409561
247	0xbd8f671c	-0.070020884
248	0xbda2858d	-0.07935629
249	0xbda4e538	-0.080515325
250	0xbd8997d2	-0.067184106
251	0x3dfd32e8	0.12363225
252	0xbe018845	-0.12649639
253	0xbd4b015b	-0.04956184
254	0xbcf84978	-0.03030847
255	0x3c88a5dc	0.01668065
