models/haptic/intialstate_400_0.pt (torch_old, 21858 bytes, 5 tensors)

fcn1.weight f4 [32, 32]
0	0xbe2e55a1	-0.17024852
1	0xbe119194	-0.1421569
2	0xbbcbec63	-0.006223248
3	0x3e18a8b0	0.14908099
4	0xbdd62cb9	-0.10457749
5	0x3d283bb0	0.041072547
6	0x3dc8ce3f	0.09804963
7	0x3d04f3a3	0.032458913
8	0x3ab8b48f	0.0014091897
9	0x3e0b3a82	0.13596538
10	0xbe239d1c	-0.15977901
11	0x3e1febc2	0.15617278
12	0x3e1f4327	0.1555296
13	0x3e25c732	0.16189268
14	0x3e101fef	0.14074682
15	0xbb16c89a	-0.0023007751
16	0xbe06e31e	-0.13172576
17	0xbdd1553a	-0.10221334
18	0xbe115a49	-0.14194597
19	0xbdcd78c5	-0.100328006
20	0xbe17caa6	-0.14823398
21	0x3e0676d4	0.13131267
22	0x3db0dd86	0.08636002
23	0xbd89ea44	-0.06734136
24	0x3c05430b	0.00813366
25	0x3cd9ad87	0.026572002
26	0x3c4dc33d	0.012558755
27	0x3e07bf7d	0.1325664
28	0x3db17c36	0.086662695
29	0xbe0156c4	-0.12630755
30	0x3e34bdd8	0.17650545
31	0xbd7838ac	-0.06060092
32	0xbd84a81b	-0.06477376
33	0x3e3e55ba	0.1858739
34	0xbdcbc54d	-0.099497415
35	0xbd039fc6	-0.032134794
36	0x3ce40edc	0.027839117
37	0xbe16c686	-0.14724168
38	0x3e110577	0.14162241
39	0x3e1a50aa	0.15069833
40	0xbe20a6ea	-0.15688673
41	0xbc809b27	-0.015698982
42	0x3d282fca	0.0410612
43	0x3dea5529	0.11442024
44	0x3da1f526	0.079080865
45	0xbc508e3d	-0.012729225
46	0x3e214553	0.15749101
47	0xbd0bd6ed	-0.034140516
48	0x3c697d32	0.01425104
49	0xbddaee14	-0.10689941
50	0xbdc2e4cf	-0.09516298
51	0xbd35caf4	-0.044383004
52	0xbe1e78a6	-0.15475711
53	0xbc885ff2	-0.016647313
54	0x3d351c56	0.044216476
55	0xbdeb3af9	-0.114858575
56	0xbe0ff201	-0.14057161
57	0x3e27b3e1	0.16377212
58	0xbd8f46f2	-0.069959536
59	0xbdfc326f	-0.12314307
60	0xbd18c104	-0.03729345
61	0xbd9bb001	-0.076019295
62	0xbe257f93	-0.16161947
63	0xbc871057	-0.016487284
64	0xbd910080	-0.070801735
65	0xbd3e3663	-0.046438586
66	0x3db39c47	0.08770042
67	0x3c80cc84	0.01572252
68	0x3e1c9f5e	0.15295169
69	0xbe2ef9a9	-0.17087425
70	0x3e23b361	0.15986396
71	0x3dcfcf08	0.1014691
72	0xbd2d95dc	-0.042379245
73	0x3e0573eb	0.130325
74	0x3e32f76c	0.17477196
75	0x3ce17af7	0.027524455
76	0x3d7469e0	0.059671283
77	0xbd2185c8	-0.039434224
78	0xbb351114	-0.0027628588
79	0x3aef1c6e	0.0018242726
80	0xbda25631	-0.07926596
81	0x3d274f03	0.040846836
82	0xbd8557fa	-0.06510921
83	0x3dcdd04a	0.100494936
84	0x3d193a9c	0.03740941
85	0xbe01c41c	-0.12672466
86	0x3e2ceceb	0.16887252
87	0x3d81567a	0.06315322
88	0x3dc18822	0.094497934
89	0xbe28c577	-0.16481577
90	0x3e25ef05	0.1620446
91	0x3d827b89	0.06371219
92	0xbb6be4df	-0.0035994572
93	0xbdd7dffd	-0.10540769
94	0x3d374cce	0.04475098
95	0x3d9f2eb2	0.07772578
96	0x3d747d45	0.05968978
97	0x3e0ac5cf	0.1355202
98	0xbe1cee49	-0.15325274
99	0xbe0538f5	-0.13010009
100	0x3e37a478	0.17933834
101	0x3e2147a1	0.1574998
102	0xbbfca171	-0.007709675
103	0x3ddabd96	0.10680692
104	0x3e0a9262	0.13532403
105	0x3e0c0708	0.13674557
106	0xbd9aa645	-0.07551245
107	0xbd71733c	-0.058947787
108	0xbdb59647	-0.08866554
109	0xbd3dbf46	-0.04632499
110	0x3e2bec4f	0.16789363
111	0xbaa0ecef	-0.0012277643
112	0xbe0d4b80	-0.13798332
113	0x3e0cf18d	0.1376402
114	0x3d9780ea	0.07397635
115	0x3d08187d	0.03322648
116	0xbdb428eb	-0.08796867
117	0x3e07c485	0.1325856
118	0xbe0e63e9	-0.139053
119	0x3dbdb6a8	0.092633545
120	0xbc865cdf	-0.016401706
121	0xbd73abd5	-0.059490044
122	0xbe1df62b	-0.15425937
123	0x3cee63cb	0.02910032
124	0xbda08ad7	-0.078389816
125	0xbd858b94	-0.06520763
126	0x3dd692de	0.104772314
127	0xbdde4a95	-0.10854069
128	0x3e3849a9	0.17996849
129	0x3e1f7107	0.1557046
130	0x3e10be5f	0.14135121
131	0x3d021335	0.0317566
132	0xbdf926f6	-0.12165634
133	0xbcdcbc68	-0.026945308
134	0xbd928486	-0.07154183
135	0xbc2cb494	-0.0105411
136	0xbe1a6943	-0.15079217
137	0xbd894f15	-0.06704537
138	0xbcbfa490	-0.0233939
139	0x3ace6792	0.0015747419
140	0xbd418586	-0.04724648
141	0x3d0b4de8	0.034009844
142	0xbdccb39c	-0.09995195
143	0xbdfca112	-0.12335409
144	0xbe05c55a	-0.13063565
145	0x3e267259	0.16254558
146	0x3dd5ec37	0.10445445
147	0xbe1fc79f	-0.15603493
148	0xbe18de87	-0.14928637
149	0xbbdcbb5f	-0.0067362036
150	0xbdc16d31	-0.09444655
151	0x3d771826	0.060325764
152	0xbd8021af	-0.06256425
153	0x3c8f7fac	0.017516933
154	0xbd358135	-0.044312675
155	0xbe0c2e58	-0.13689554
156	0xbc840553	-0.01611582
157	0x3e255f23	0.16149573
158	0x3e0d5ea6	0.13805637
159	0xbdf5ee99	-0.120083995
160	0x3d821144	0.063509494
161	0x3e24b861	0.1608596
162	0x3c976866	0.018482398
163	0xbc9de002	-0.019271854
164	0x3e0a233a	0.1349
165	0xbc5809b0	-0.013185903
166	0xbd48abe9	-0.04899207
167	0x3e15c3e6	0.1462551
168	0x3d88ef57	0.066862755
169	0xbdddb7ed	-0.10826097
170	0x3e0ef04f	0.13958858
171	0x3e1fee62	0.1561828
172	0x3e1c2aff	0.15250777
173	0xbd94b3b6	-0.0726084
174	0xbd6508c4	-0.055916563
175	0x3dfe3aa1	0.12413526
176	0x3e11f862	0.14254907
177	0xbe098c75	-0.13432486
178	0x3e21ce46	0.15801343
179	0x3dca6cc6	0.09884028
180	0x3d82634c	0.063665956
181	0xbd25e26b	-0.040499132
182	0xbc4b43df	-0.012406318
183	0x3df2b4a7	0.11850863
184	0x3d222f3a	0.03959582
185	0x3e1a819f	0.15088509
186	0xbdca2467	-0.098702244
187	0xbd537876	-0.051628552
188	0xbc1e1f0b	-0.009650956
189	0x3da8a0dd	0.08233807
190	0x3d940ed5	0.072293915
191	0x3dd6087a	0.104508355
192	0xbdb5af94	-0.088713795
193	0xbcbfa25f	-0.023392854
194	0x3d9f55a1	0.07780004
195	0xbd8ff5e5	-0.070293225
196	0x3e05cb7c	0.13065904
197	0x3e038515	0.12843736
198	0x3dcfb27c	0.10141465
199	0x3dc62968	0.09675866
200	0x3de4c34c	0.111700624
201	0xbe1261c8	-0.14295113
202	0xbd3a5154	-0.045487717
203	0x3e122987	0.14273654
204	0xbd7e41d3	-0.062074494
205	0x3cd62e47	0.026145114
206	0xbd4898d4	-0.048973873
207	0x3b848f2e	0.0040453887
208	0xbc9ed481	-0.01938844
209	0xbd22d0c5	-0.03974988
210	0x3d2d8028	0.042358547
211	0x3e317cef	0.17332815
212	0x3c6af384	0.014340285
213	0xbd231703	-0.039816868
214	0x3e1f34cc	0.15547484
215	0xbd8ec6dc	-0.06971523
216	0x3d688515	0.056767542
217	0x3c68da5d	0.014212218
218	0x3d80d0a1	0.06289793
219	0x3dea511e	0.11441253
220	0x3d6c964c	0.05776052
221	0xbace7d8c	-0.0015753969
222	0x3db1a7db	0.08674594
223	0x3d15df11	0.036589686
224	0xbca217df	-0.019786773
225	0x3d3896ee	0.045065813
226	0xbda57c1f	-0.08080315
227	0x3c9147a6	0.01773436
228	0xbddea83d	-0.10871933
229	0x3d9a0dde	0.07522176
230	0x3e28f676	0.16500267
231	0xbd8a676c	-0.067580074
232	0xbe26674c	-0.16250342
233	0x3e195455	0.14973576
234	0xbda60652	-0.08106674
235	0x3e03b4f2	0.12861994
236	0x3e0a0258	0.13477457
237	0xbd4cd0f3	-0.050003957
238	0x3c87309b	0.01650267
239	0xbd80d3dd	-0.0629041
240	0x3e239bc0	0.15977383
241	0xbdec27ca	-0.11531027
242	0x3d018fb3	0.031631183
243	0xbdb32380	-0.087470055
244	0x3e1ad71d	0.15121122
245	0x3dc846a2	0.09779097
246	0x3e289ecf	0.1646683
247	0xbd8db9a0	-0.06920171
248	0x3d92d7ff	0.07170104
249	0xbe0e1f0c	-0.13879031
250	0x3def8b8e	0.1169654
251	0xbd3f84e9	-0.046757612
252	0x3d911fa5	0.07086114
253	0x3dc846f5	0.09779159
254	0xbdca9d0a	-0.09893234
255	0x3de3db6c	0.11125836

fcn1.bias f4 [32]
0	0x3e2db177	0.16962229
1	0x3d6beee9	0.05760089
2	0x3d522077	0.051300492
3	0xbdb647e8	-0.08900434
4	0x3d8c3049	0.06845147
5	0x3e0c1c71	0.13682725
6	0xbe1025c4	-0.14076906
7	0x3e249630	0.16072917
8	0xbdb67058	-0.089081466
9	0x3d649e8d	0.05581527
10	0x3dc4e2a9	0.096135445
11	0x3caf28d0	0.021381766
12	0xbdd6c776	-0.10487263
13	0xbdb62cc7	-0.08895259
14	0x3af99a6f	0.0019043217
15	0xbdc7b049	-0.097504206
16	0xbdf38223	-0.11890056
17	0xbe1f2d34	-0.15544587
18	0x3e272fff	0.16326903
19	0xbe186a31	-0.14884259
20	0xbdfb8160	-0.12280536
21	0x3d8ab32f	0.06772458
22	0x3e036bba	0.12834063
23	0x3e38b51c	0.18037838
24	0x3d72d62d	0.059286285
25	0x3e2ae6eb	0.1668965
26	0xbdddd821	-0.10832239
27	0x3d5a803d	0.053344954
28	0x3d296576	0.041356526
29	0xbe17646b	-0.147844
30	0x3e28c4e8	0.16481364
31	0x3d994780	0.07484341

fcn2.weight f4 [64, 32]
0	0x3dc96415	0.09833542
1	0x3db05060	0.0860908
2	0x3d857eb5	0.06518308
3	0xbdd33a87	-0.103138976
4	0x3dce5d03	0.10076334
5	0x3cb63f61	0.022247018
6	0xbda115cc	-0.078654855
7	0x3de2bb7c	0.11070916
8	0xbb0a10f5	-0.0021067236
9	0x3d3d1597	0.046163168
10	0x3e03276b	0.12808006
11	0x3e140b15	0.14457352
12	0xbc602cf0	-0.013682589
13	0x3c8a4128	0.016876772
14	0x3ca005f9	0.019534098
15	0x3dae431f	0.08508896
16	0x3d73248b	0.059361022
17	0x3df6c5a8	0.12049419
18	0xbd34e54e	-0.044163994
19	0xbd948277	-0.07251447
20	0xbd285ad4	-0.041102245
21	0x3dd1a6db	0.10236903
22	0x3e079b09	0.13242735
23	0xbdaf66c8	-0.08564526
24	0x3dc4b8e2	0.09605576
25	0x3e375e5d	0.1790709
26	0x3e05149e	0.12996146
27	0x3c9d173b	0.019176116
28	0xbd29fd2f	-0.04150122
29	0x3e38c943	0.18045525
30	0x3d8ba7f6	0.068191454
31	0xbd9b734b	-0.0759035
32	0x3d4c31b5	0.04985209
33	0xbdb08f0a	-0.086210325
34	0xbdaca4ac	-0.08429846
35	0x3e275185	0.16339691
36	0x3dd1fa43	0.10252812
37	0xbdeac98c	-0.11464223
38	0xbd0bf4cd	-0.034169007
39	0xbc28e3b7	-0.010308198
40	0xbdb220ab	-0.08697637
41	0xbde48647	-0.11158424
42	0x3dea358b	0.11435994
43	0x3de7f035	0.11325113
44	0xbd7fb4b8	-0.062428206
45	0xbe328fbf	-0.17437647
46	0x3df5be75	0.119992174
47	0xbddfe02e	-0.10931431
48	0xb9c72678	-0.000379849
49	0xbdd643e9	-0.104621716
50	0xbd79a731	-0.06095046
51	0x3dec839b	0.11548539
52	0x3e135451	0.14387633
53	0xbdabd51a	-0.08390255
54	0x3e14873a	0.1450471
55	0xbdc2392f	-0.09483563
56	0xbe0b77cc	-0.13619918
57	0x3d6e8700	0.058234215
58	0xbc3c5eba	-0.011497194
59	0x3dcf8969	0.10133631
60	0x3e0c7c27	0.13719235
61	0xbd57e911	-0.052712504
62	0x3d25a720	0.040442586
63	0x3d969e2d	0.073543884
64	0xb94e9d5d	-0.00019704313
65	0xbc814b27	-0.015782906
66	0x3d11fc0d	0.035640765
67	0xbe0c0bed	-0.13676424
68	0xbbc50495	-0.006012509
69	0xbdfa4844	-0.12220815
70	0xbe37601a	-0.17907754
71	0x3e0883b6	0.13331494
72	0xbdfa2885	-0.1221476
73	0xbdb423b3	-0.087958716
74	0x3e0dc2dd	0.13843866
75	0xbdf5a68a	-0.119946554
76	0xbcd25988	-0.025677457
77	0x3e09a507	0.13441859
78	0x3d8a885f	0.06764292
79	0x3dbf586c	0.09343037
80	0x3d8b1da2	0.067927614
81	0xbcf3800d	-0.029724145
82	0x3dfc7b52	0.12328209
83	0x3e0e414c	0.13892096
84	0xbc8fc838	-0.017551526
85	0xbd6ff2e7	-0.05858126
86	0xbd8352d6	-0.06412284
87	0x3cec0f09	0.028815763
88	0xbe11cec9	-0.14239039
89	0xbe217b39	-0.15769662
90	0xbe382b8d	-0.17985363
91	0x3da7bb43	0.08190014
92	0x3d2d7deb	0.042356413
93	0x3d8754b6	0.06607954
94	0xbca2bef5	-0.019866446
95	0xbdc455ff	-0.09586715
96	0x3ce99b57	0.028516455
97	0xbd0a8a58	-0.03382334
98	0xbd2e61ea	-0.042573847
99	0x3dc6040e	0.09668742
100	0xbda290a0	-0.07937741
101	0x3d03c9ff	0.03217506
102	0xbd989205	-0.07449726
103	0x3bb044d5	0.005379299
104	0x3c70e477	0.014702908
105	0xbdc0f483	-0.09421637
106	0x3db052ae	0.0860952
107	0xbc99e952	-0.018788014
108	0xbdffa532	-0.124826804
109	0x3e04ca82	0.12967876
110	0xbd8e1df1	-0.069393046
111	0x3e266478	0.16249263
112	0xbd20ce81	-0.039259437
113	0x3e2fc8b5	0.17166407
114	0xbde24c67	-0.11049729
115	0xbd396358	-0.045260757
116	0x3e2b993f	0.16757677
117	0xbcd78920	-0.026310503
118	0xbdb93ecf	-0.09045183
119	0x3d5428bf	0.05179667
120	0xbdf23ee8	-0.11828405
121	0x3de3c793	0.1112205
122	0xbd4f9545	-0.050679464
123	0x3e1b7df6	0.15184769
124	0x3de51693	0.11185946
125	0x3e23a7d7	0.15981995
126	0xbcf33ec1	-0.02969301
127	0xbcf93e4f	-0.030425219
128	0xbb2b3be4	-0.0026128227
129	0x3da1e926	0.07905798
130	0xbe280e81	-0.16411783
131	0x3db28b52	0.087179795
132	0x3e1a4290	0.15064454
133	0xbd85634f	-0.06513082
134	0x3e101d9a	0.14073792
135	0x3e1440bb	0.14477818
136	0x3db609bf	0.08888578
137	0x3cd5a5ac	0.026079975
138	0x3e18da2b	0.14926974
139	0x3db03146	0.08603148
140	0xbcbbdec8	-0.022933379
141	0x3e196665	0.14980467
142	0xbe0aa2a7	-0.1353861
143	0xbd8d7c13	-0.06908431
144	0xbe255b4b	-0.16148107
145	0x3df38059	0.11889715
146	0x3e06329b	0.13105242
147	0x3e370450	0.17872739
148	0xbe31257c	-0.17299455
149	0x3d67e769	0.056617174
150	0xbdcf8fc3	-0.10134842
151	0xbd9f7088	-0.077851355
152	0xbdd44b7b	-0.10365959
153	0xbe248759	-0.16067256
154	0xbd388fcc	-0.04505901
155	0x3ddde069	0.108338185
156	0x3b9f3d8d	0.0048596323
157	0xbd94e514	-0.07270256
158	0xbc7a8131	-0.015289591
159	0xbdd1986e	-0.10234152
160	0xbd92e618	-0.07172793
161	0x3e18ea17	0.14933048
162	0xbe09f5fc	-0.13472742
163	0x3d8e4454	0.06946626
164	0xbe1f6cc1	-0.1556883
165	0x3a81cf00	0.000990361
166	0x3d72fc00	0.059322357
167	0xbc240b50	-0.010012463
168	0x3e1163c9	0.14198221
169	0x3d3022d8	0.04300198
170	0xbd08bdb8	-0.033384055
171	0xbe1c1b87	-0.15244876
172	0xbde9f1a2	-0.11423041
173	0x3db4c37a	0.08826347
174	0x3ded7482	0.11594488
175	0x3dfe320e	0.12411891
176	0xbd31fea0	-0.04345572
177	0xbdfd8398	-0.12378615
178	0x3e218283	0.15772443
179	0xbe18a55f	-0.14906834
180	0x3d88212a	0.066469505
181	0x3dbae7d6	0.091262504
182	0x3d8f1dfa	0.069881395
183	0x3e17a73b	0.14809887
184	0x3c1bb030	0.009502456
185	0xbe120a50	-0.14261746
186	0xbcb654c8	-0.022257224
187	0x3c5f4080	0.013626218
188	0xbd0ae204	-0.03390695
189	0x3d8c90e0	0.0686357
190	0x3db176be	0.086652264
191	0xbd9d0163	-0.0766628
192	0xbd2dcb40	-0.042430162
193	0xbd5feea0	-0.05467093
194	0xbd93b99b	-0.07213136
195	0xbe1b61ed	-0.15174074
196	0xbd8413c2	-0.06449081
197	0xbcba3418	-0.022729918
198	0xbe12d2d4	-0.14338237
199	0xbe0dde32	-0.13854292
200	0x3e188cef	0.14897512
201	0x3decf03a	0.11569257
202	0xbe10fa0d	-0.14157887
203	0xbde7aeae	-0.113126144
204	0x3d85fbe0	0.06542182
205	0x3d381a30	0.04494685
206	0xbdf0b710	-0.117536664
207	0xbcb06718	-0.021533534
208	0xbe068796	-0.1313766
209	0xbbdfe940	-0.0068332255
210	0xbdf8d38a	-0.12149723
211	0xbcdb5a80	-0.026776552
212	0xbc1b8b90	-0.0094937235
213	0xbdd7e2ae	-0.105412826
214	0x3e15eb49	0.14640535
215	0xbd0893cc	-0.033344075
216	0x3db9d29a	0.09073372
217	0x3cd19d38	0.025587663
218	0xbd9f5c10	-0.077812314
219	0x3dc58a32	0.09645499
220	0xbc825050	-0.015907437
221	0xbda77774	-0.08177081
222	0xbcb7dc28	-0.022443846
223	0xbe0e80a6	-0.13916263
224	0xbc89e8fb	-0.016834727
225	0x3d3a49bf	0.045480486
226	0x3e08faff	0.13376997
227	0xbdb23522	-0.087015405
228	0xbe287b27	-0.16453229
229	0xbda2cec6	-0.07949595
230	0xbd964339	-0.073370405
231	0x3c972b4d	0.018453265
232	0xbd777674	-0.0604157
233	0x3e2cabee	0.16862461
234	0xbd2bef19	-0.04197607
235	0xbcdc547a	-0.02689575
236	0xbe1a0e18	-0.15044439
237	0x3e1844b1	0.14869954
238	0x3e0976b4	0.13424188
239	0xbe23beff	-0.15990828
240	0xbc4cd6a5	-0.012502347
241	0x3dbf89f4	0.09352484
242	0x3dd01a38	0.10161251
243	0xbdb17b6c	-0.08666119
244	0x3b8b8700	0.0042580366
245	0x3d0e0437	0.03467199
246	0xbe151816	-0.1455997
247	0xbe1c5f67	-0.15270768
248	0x3d8796c8	0.06620556
249	0xbe031af9	-0.12803258
250	0x3d6d1074	0.05787702
251	0xbcef3cea	-0.02920385
252	0x3c20e3d2	0.009819942
253	0x3d0043af	0.031314548
254	0xbb7917f8	-0.0038008671
255	0xbd405a49	-0.046961103

fcn2.bias f4 [64]
0	0x3db93c36	0.090446874
1	0x3d889dd6	0.0667073
2	0x3d86e334	0.06586304
3	0xbcb97276	-0.022637587
4	0x3cc3ad14	0.023886241
5	0xbe16eb04	-0.14738089
6	0xbd00f3fc	-0.03148268
7	0x3d47db29	0.04879299
8	0xbe1e94db	-0.15486471
9	0xbd8674d2	-0.065652505
10	0xbc66a236	-0.01407676
11	0x3e28181f	0.16415451
12	0x3e38f6d3	0.18062906
13	0x3e233e21	0.15941669
14	0x3d07a19c	0.033113107
15	0xbe141b36	-0.14463505
16	0xbe00f91c	-0.12595028
17	0x3d0ac215	0.033876497
18	0x3c9606b7	0.018313749
19	0x3d99fb53	0.075186394
20	0xbe3309ae	-0.17484161
21	0xbdbfd41a	-0.09366627
22	0xbde089dc	-0.109637946
23	0x3e165929	0.1468245
24	0xbe24a996	-0.16080317
25	0xbdb552e6	-0.08853702
26	0x3df3b726	0.11900167
27	0xbcfbd010	-0.03073886
28	0xbe08b460	-0.13350058
29	0xbe04bb7f	-0.12962149
30	0x3cf460e8	0.029831365
31	0x3e127aad	0.1430461
32	0x3ddafd4a	0.10692842
33	0x3d8fdd9a	0.07024689
34	0xbda35251	-0.07974685
35	0x3d02e01c	0.03195201
36	0xbe01e020	-0.12683153
37	0xbde77e04	-0.113033324
38	0xbdb5a3f9	-0.08869166
39	0x3dc11919	0.09428615
40	0xbd7ca556	-0.061681114
41	0xbe1c0839	-0.15237512
42	0x3dec5b34	0.11540833
43	0xbcbddfdc	-0.023178034
44	0x3cf63670	0.030055255
45	0x3dc06051	0.09393371
46	0xbc41f9b9	-0.011839324
47	0x3d8e39f3	0.06944647
48	0x3dec81ae	0.11548172
49	0xbd20573d	-0.039145697
50	0x3e15955c	0.14607757
51	0x3d26fdc7	0.040769365
52	0x3c8a18be	0.016857501
53	0xbe140258	-0.14454019
54	0x3e16123f	0.14655398
55	0x3d4e6d64	0.05039729
56	0x3df0d46e	0.11759268
57	0x3d0544f5	0.032536466
58	0x3dbd670a	0.09248169
59	0x3e0ff98b	0.14060037
60	0x3c335cf9	0.010947459
61	0x3c1fcb69	0.009753087
62	0xbe24d61f	-0.16097306
63	0xbd2359cc	-0.03988056

fcn3.weight f4 [32, 64]
0	0xbdc53012	-0.09628309
1	0x3df10e19	0.11770267
2	0x3d0f959d	0.03505479
3	0xbdd64f8d	-0.10464392
4	0xbd40a7be	-0.04703497
5	0xbd2400d4	-0.040039852
6	0x3dd0db1c	0.10198042
7	0x3d6a63d1	0.0572241
8	0x3d27b189	0.040940795
9	0x3da1b337	0.07895511
10	0xbdb11231	-0.08646048
11	0x3d86610a	0.065614775
12	0xbd48aa59	-0.04899058
13	0xbceb295c	-0.028706245
14	0xbd424539	-0.047429297
15	0x3d144580	0.036199093
16	0x3dfdcfe2	0.12393166
17	0x3ddd6d54	0.10811868
18	0xbd8cc19f	-0.06872868
19	0x3de982a0	0.11401868
20	0xbd587d8e	-0.052854113
21	0xbce9300c	-0.028465293
22	0xbd7154f4	-0.05891891
23	0xbde2bb02	-0.11070825
24	0xbd563643	-0.05229784
25	0xbccaf030	-0.024772733
26	0xbe0246ac	-0.12722272
27	0x3d705460	0.058674216
28	0xbc83a730	-0.016070932
29	0x3d0146e0	0.031561732
30	0xbdea4c51	-0.114403374
31	0x3c00c080	0.007858396
32	0xbcb1a74f	-0.021686224
33	0xbdb72490	-0.089425206
34	0x3c00b29a	0.007855082
35	0xbdf06ba7	-0.11739283
36	0xbdd9b730	-0.10630643
37	0xbd00988c	-0.03139548
38	0x3df0a49c	0.11750147
39	0xbd27dc3e	-0.040981524
40	0xbd019e90	-0.031645358
41	0x3cca2de0	0.024680078
42	0x3e098c6e	0.13432476
43	0x3df0b1d4	0.11752668
44	0xbd5ae94c	-0.053445145
45	0x3c475009	0.012165078
46	0xbdfcacd7	-0.12337654
47	0xbd11fa02	-0.035638817
48	0x3dacc0af	0.08435189
49	0xbe08d35a	-0.13361874
50	0xbdb06eb7	-0.08614867
51	0x3d51c1bb	0.051210146
52	0xbdf7b397	-0.12094801
53	0xbd517bd0	-0.051143467
54	0xbdb9807f	-0.09057712
55	0xbdd0bf50	-0.1019274
56	0xbcb9dcb7	-0.022688253
57	0x3d3ac9af	0.045602497
58	0xbd91063f	-0.070812695
59	0xbd8d07ff	-0.06886291
60	0xbcd19c2d	-0.025587166
61	0xbd2f9e55	-0.042875607
62	0x3de78d06	0.11306195
63	0x3cb47c01	0.022031786
64	0xbe04411d	-0.12915464
65	0xbddeb6e6	-0.10874729
66	0x3e00d8c3	0.12582688
67	0x3c827b6e	0.015927996
68	0xbd5e8ac8	-0.05433157
69	0x3de34750	0.11097586
70	0xbcaa8f68	-0.020820335
71	0x3b25e007	0.0025310533
72	0xbe078479	-0.13234128
73	0xbdfb8984	-0.122820884
74	0xbe074c10	-0.1321261
75	0x3d61f5d2	0.055166073
76	0x3dbf36ea	0.09336646
77	0xbda07136	-0.07834093
78	0x3d3a7f08	0.045531303
79	0x3df9efc3	0.12203934
80	0x3cf839a8	0.03030093
81	0x3ba7707a	0.005109844
82	0xbd1b5647	-0.037924077
83	0x3d044ad2	0.032297917
84	0x3db0e672	0.08637704
85	0x3d8dddc5	0.06927065
86	0xbdf97726	-0.12180929
87	0x3d1fbab2	0.038996406
88	0xbd97bc15	-0.07408921
89	0x3dc8054e	0.09766637
90	0xbdc9c476	-0.09851925
91	0xbdf5be82	-0.11999227
92	0x3d83d4ea	0.064370945
93	0xbd2823c0	-0.04104972
94	0xbc1111c7	-0.008854336
95	0xbcbbdfd8	-0.022933885
96	0x3cbe6b9d	0.023244673
97	0xbd0f4433	-0.03497715
98	0x3c7b22d3	0.015328127
99	0xbd879bc5	-0.066215076
100	0x3da5ef90	0.081023335
101	0x3d5f67b6	0.054542266
102	0xbd939c6e	-0.07207571
103	0xbd15c60a	-0.036565818
104	0xbc11641e	-0.008873967
105	0xbb1b23c0	-0.0023672432
106	0x3dde6d7d	0.10860727
107	0xbd4d4132	-0.050111003
108	0x3d488568	0.04895535
109	0xbd9fd036	-0.07803385
110	0xbc127a5d	-0.0089403065
111	0xbd8e74de	-0.069558844
112	0xbc9615c3	-0.018320924
113	0x3d0d13d6	0.034442745
114	0xbc936a86	-0.01799513
115	0x3dd4ff90	0.10400307
116	0xbd10cc21	-0.035350922
117	0x3d863dc4	0.065547496
118	0xbb5cb80d	-0.0033679039
119	0xbda5c6c8	-0.08094555
120	0x3d1d7cd6	0.03844913
121	0xbd0c8083	-0.034302246
122	0x3d5e2574	0.054234937
123	0xbd4ff7c9	-0.050773416
124	0xbdb7036c	-0.089361995
125	0x3decb21a	0.11557408
126	0xbdfdee46	-0.12398963
127	0x3c9cf0bf	0.019157765
128	0x3e05fa26	0.13083705
129	0xbdbfd9d9	-0.09367723
130	0xbe0590b8	-0.13043487
131	0x3dc779eb	0.09740051
132	0x3ce78f0d	0.028266454
133	0x3dac0df6	0.084011
134	0x3cd9af70	0.026572913
135	0x3c77b643	0.015119138
136	0x3d5a0ba1	0.053233746
137	0xbde9f261	-0.11423183
138	0x3d82e4cc	0.06391296
139	0xbd817965	-0.06321982
140	0xbdb1fe8a	-0.086911276
141	0x3d34a135	0.04409905
142	0x3c78e2ee	0.015190823
143	0x3ddd50a5	0.10806397
144	0xbd9223c0	-0.07135725
145	0xbdd62d7d	-0.10457895
146	0x3cabd3c2	0.020974997
147	0xba684f3d	-0.0008861905
148	0xbd6412e5	-0.05568208
149	0xbd07bba4	-0.033137932
150	0x3dccdfa6	0.10003595
151	0x3de6bfc4	0.11267045
152	0xbd451173	-0.048112344
153	0xbd0740ec	-0.0330209
154	0xbccb20ca	-0.024795908
155	0xbd4b04a0	-0.049564958
156	0xbbfe8600	-0.007767439
157	0x3d17c6bc	0.037054762
158	0xbd6e1ca9	-0.0581328
159	0xbc508727	-0.012727535
160	0xbe010c2e	-0.12602302
161	0x3d9d6bd4	0.07686582
162	0xbcd90649	-0.026492255
163	0xbd913f03	-0.07092097
164	0x3df32640	0.1187253
165	0x3d2228ea	0.0395898
166	0x3d8c4900	0.06849861
167	0x3dc4dbd0	0.096122384
168	0x3d51c9d7	0.05121788
169	0xbd88abda	-0.06673403
170	0xbe0277ef	-0.12741064
171	0xbd3bc199	-0.045838926
172	0xbcbbc4e9	-0.022921043
173	0xbd169d5a	-0.036771156
174	0x3da519e5	0.080615796
175	0xbe053e83	-0.13012128
176	0x3d75eb52	0.060038872
177	0x3da33681	0.0796938
178	0x399184ba	0.00027755444
179	0xbcd62cc5	-0.026144395
180	0x3da49e96	0.0803806
181	0xbda810ec	-0.082063526
182	0xbc97c0dd	-0.018524582
183	0x3cec2766	0.02882738
184	0x3cb0204f	0.021499781
185	0xbbc202a6	-0.005920726
186	0x3d2ab9c8	0.04168108
187	0xbdb612ea	-0.08890326
188	0x3d8f4449	0.06995446
189	0xbdce0f8b	-0.10061558
190	0x3d439054	0.047745064
191	0xbc889b03	-0.016675478
192	0xbd3b651e	-0.04575073
193	0xbc103d4e	-0.008803679
194	0xbd18e3fd	-0.0373268
195	0x3df18c24	0.11794308
196	0x3df153e2	0.117835775
197	0x3d43c630	0.04779643
198	0xbbae49a0	-0.0053188354
199	0x3de91f3a	0.11382909
200	0xbdc7eb31	-0.09761656
201	0x3dfc997c	0.12333962
202	0x3d8570a9	0.06515629
203	0x3d93cef0	0.072172046
204	0x3dd39aaf	0.10332238
205	0x3ca69a79	0.02033733
206	0x3d3f2545	0.046666402
207	0x3d849ead	0.064755775
208	0xbdad6142	-0.08465816
209	0x3dfaabce	0.122398004
210	0x3ac99ccb	0.0015381811
211	0x3d029020	0.03187573
212	0xbd956155	-0.07293955
213	0x3df8410f	0.12121784
214	0x3cc0db98	0.02354221
215	0xbdb0431a	-0.086065486
216	0x3dc558e9	0.09636099
217	0x3d2ce744	0.04221274
218	0x3d961942	0.07329036
219	0xbc406740	-0.011743367
220	0x3cb70fb0	0.022346348
221	0xbdae1e1c	-0.08501837
222	0x3df596ee	0.11991678
223	0x3dcc1eca	0.0996681
224	0xbcac231d	-0.021012837
225	0xbde22108	-0.110414565
226	0xbd9f934a	-0.07791765
227	0xbd4c4cb0	-0.049877822
228	0x3da8c12a	0.08239968
229	0xbdab813e	-0.0837426
230	0xbd760abc	-0.06006883
231	0xbd205bb7	-0.039149966
232	0xbdb501d6	-0.08838241
233	0x3d459d08	0.04824546
234	0x3ce94bf0	0.028478593
235	0xbdd7ecdb	-0.105432235
236	0x3dd65024	0.10464504
237	0xbc072897	-0.0082494235
238	0xbd81d8df	-0.06340193
239	0xbb601bb5	-0.0034196202
240	0x3cbaef87	0.022819294
241	0x3d4c7cdf	0.049923774
242	0xbdac7a69	-0.084217854
243	0x3dfe3e80	0.12414265
244	0x3de043e8	0.10950452
245	0x3de372f2	0.111059085
246	0xbc734835	-0.0148487585
247	0xbc61744f	-0.01376064
248	0xbdd590f9	-0.10428042
249	0x3dd329d9	0.10310716
250	0xbbe66021	-0.0070305024
251	0xbcab8efb	-0.020942202
252	0xbd1023df	-0.03519046
253	0xbdae123b	-0.08499571
254	0xbdd4881c	-0.10377523
255	0xbb8982d5	-0.0041965046
