models/haptic/intialstate_100_0.pt (torch_old, 21858 bytes, 5 tensors)

fcn1.weight f4 [32, 32]
00000000: 633f 2fbe 669d 13be dcba 3cbb 688c 173e
00000010: 96fe eebd 7185 eb3c 6321 b43d 38c6 b53c
00000020: 7994 31ba ce9e 0c3e 2907 21be a75d 223e
00000030: 1c17 223e bc91 283e b0dd 123e f794 cf39
00000040: 021f 04be 59cd cbbd 9f96 0ebe d9f1 c7bd
00000050: 7107 15be 033a 093e e863 b63d ea63 84bd
00000060: 1875 313c 5cc6 ef3c dbf4 793c 8f82 0a3e
00000070: 6c02 b73d 5c27 fdbd e980 373e 2c2c 6dbd
00000080: 3c63 81bd 4983 413e 6765 c6bd eb27 fbbc
00000090: 781e ea3c 1be1 15be aa40 123e 09c9 1b3e
000000a0: edf8 1ebe 004c 60bc affd 2e3d a03c dc3d
000000b0: d9fc 863d bc3c c5bc 9017 173e 5a4f 34bd
000000c0: 4dae a53b 3695 eabd fc2d cfbd a7cc 49bd
000000d0: 9dd3 22be 1261 a8bc 3ee3 253d 51a0 f2bd
000000e0: db91 13be 5f1e 243e 5f66 96bd d0a5 01be
000000f0: 40ec 26bd aec3 a2bd f008 29be 2c58 a3bc
00000100: efe3 94bd 7a7e 51bd 3a60 b63d 0d39 523c
00000110: 48f4 133e c1b5 35be 60fc 203e b0f9 ca3d
00000120: ce40 27bd bbd6 063e 5498 333e fd3b e03c
00000130: e1d3 743d 21c9 20bd 8d89 27bb 9f6a 063b
00000140: e0e5 a1bd ee21 283d def2 84bd ca32 ce3d
00000150: eafc 193d fb93 01be e91c 2d3e 39b6 813d
00000160: bae7 c13d ad95 28be cb1e 263e 08db 823d
00000170: 71f3 5fbb 7a80 d7bd cd0b 383d 368e 9f3d
00000180: 07a8 873d cb9f 113e 4d6a 19be d27f 02be
00000190: f69c 3c3e b165 253e 586c c4bb 5f8f da3d
000001a0: 6366 0a3e bbfc 0b3e 9f4d 99bd b1a2 6ebd
000001b0: bc6d b4bd eac3 3bbd 7b60 2c3e b69f 99ba
000001c0: ac90 0dbe 8d8e 0c3e 37b1 963d e880 063d
000001d0: daed b4bd 4164 073e c8c2 0ebe 74fa bc3d
000001e0: bf4a 89bc 0d22 75bd 8f53 1ebe fe78 eb3c
000001f0: 7345 a1bd 3346 86bd 4bd8 d53d 2e05 dfbd
00000200: 520a 2e3e ef38 1b3e d336 0d3e fa9f ea3c
00000210: 97a2 00be 1d65 04bd 7ed8 9fbd a2c7 83bc
00000220: cc02 1fbe 3610 92bd 86b6 e9bc 0a03 60bb
00000230: 23b9 4bbd 6500 043d 3301 d1bd 2c20 01be
00000240: 1265 09be a53c 223e c5cc cc3d 5e8a 24be
00000250: b4bd 1dbe 754c 3dbc 755c cbbd ce25 633d
00000260: d726 8abd 23a1 4e3c 18a0 49bd 2537 11be
00000270: 0150 acbc 7b55 203e cc54 083e 3c01 00be
00000280: 0fd4 243d 2f6f 0e3e 4293 793b a830 02bd
00000290: 87c2 0b3e 7a6c 48bc 69bc 3ebd fb1e 183e
000002a0: 7c06 713d 9598 ffbd fa10 093e 5aff 1d3e
000002b0: 2a30 1b3e 3e14 96bd 732b 67bd cd26 fd3d
000002c0: ae55 113e 0b47 0abe 9c02 213e cfbf c83d
000002d0: 84a9 803d bd64 29bd ea6e 59bc f1ec f03d
000002e0: 059d 1e3d b49c 193e d8ee cbbd 9a0d 57bd
000002f0: 0275 2cbc f6d5 a63d e743 923d 833d d43d
00000300: aa4b bfbd 653f e7bc 7e3d 9f3d e339 a0bd
00000310: 98de f53d fe8e f13d c011 b63d c85a aa3d
00000320: 3e1d d13d 9731 17be 6751 40bd 3cd2 103e
00000330: a99e 80bd 34f8 d23c 3668 49bd a393 7c3b
00000340: e712 a1bc 7740 24bd 23da 2b3d 370b 313e
00000350: 018b 633c f4fb 24bd 09ba 1e3e 19be 8fbd
00000360: 9e94 663d 2514 613c 1faf 7f3d cc57 e93d
00000370: a0a3 6a3d 926b 06bb 51ae b03d 39ec 133d
00000380: 1942 1bbd 16a1 c23c 2e41 b8bd c8ef 953a
00000390: 81bf f4bd 8c9c 843d 2e8a 203e 9aff 93bd
000003a0: 6586 31be 7c51 0a3e 342a aebd 771e 033e
000003b0: 8522 0a3e 668a 4bbd d87c 8a3c 2007 80bd
000003c0: ccf3 233e a092 ebbd e393 023d 60ad b2bd
000003d0: 9e0e 1b3e 72b1 c83d 0dd3 283e 5552 8dbd
000003e0: 983e 933d 04ec 0dbe 8af1 ef3d 31b9 3ebd
000003f0: 7185 913d b1ac c83d 4e37 cabd 2441 e43d
-0.17114024 -0.14415511 -0.00287979 0.14799654 -0.11669652 0.028750153 0.087954305 0.022189245
-0.00067741383 0.13732454 -0.15725388 0.15856038 0.15829128 0.16461843 0.1434238 0.00039593104
-0.12902454 -0.09951276 -0.13924645 -0.09762926 -0.1455362 0.13401036 0.08905774 -0.064643696
0.01083114 0.02926939 0.015256132 0.13526367 0.08936009 -0.12361023 0.17920269 -0.057903454
-0.063177556 0.18897738 -0.0968731 -0.030658683 0.028578982 -0.14636652 0.1428248 0.15213408
-0.15524645 -0.013689995 0.0427224 0.10753751 0.065911956 -0.024076812 0.14755082 -0.044020988
0.0050561787 -0.11454241 -0.10116193 -0.049267437 -0.15901037 -0.0205541 0.04049992 -0.11846984
-0.14411108 0.1602721 -0.073437445 -0.12660909 -0.04075265 -0.07947479 -0.16507316 -0.019939505
-0.072700374 -0.051146008 0.089050725 0.012830985 0.14448655 -0.17745115 0.15721273 0.09910905
-0.040833287 0.1316785 0.17538577 0.027372355 0.059772376 -0.03925431 -0.0025564164 0.0020510328
-0.07905173 0.041047983 -0.06491636 0.10068281 0.037594713 -0.12654106 0.1690556 0.06333584
0.094680265 -0.16463347 0.16222684 0.06389433 -0.0034172202 -0.10522552 0.04493313 0.077907965
0.066238455 0.14221112 -0.14981957 -0.12744072 0.18419251 0.16152073 -0.005994361 0.10671877
0.1351562 0.13670628 -0.07485508 -0.058260623 -0.08809993 -0.045841135 0.1683368 -0.0011720571
-0.13824719 0.13726254 0.0735802 0.03283778 -0.08834429 0.13221838 -0.1394149 0.09227458
-0.016759275 -0.059846926 -0.15461563 0.028744217 -0.078745745 -0.06556358 0.10441645 -0.1088966
0.16996124 0.15158437 0.13790445 0.028640736 -0.12562023 -0.03232299 -0.078049645 -0.016086403
-0.1552841 -0.07131998 -0.028529417 -0.00341815 -0.049737107 0.03222694 -0.10205307 -0.12609929
-0.13417462 0.15843447 0.09999994 -0.16068408 -0.15404397 -0.011553873 -0.09929744 0.055455975
-0.06745689 0.01261166 -0.049224943 -0.14181192 -0.021034243 0.15657608 0.13313597 -0.12500471
0.040241297 0.139096 0.0038082157 -0.031784683 0.13648425 -0.012232894 -0.0465664 0.14855568
0.058844075 -0.124802746 0.13385382 0.1542944 0.15155092 -0.0732808 -0.05643792 0.12360916
0.1419284 -0.13503663 0.15723652 0.098022096 0.062823325 -0.041355837 -0.013271073 0.11763943
0.038723964 0.15001184 -0.09957665 -0.052503206 -0.010525944 0.081462786 0.071418576 0.10363295
-0.09340604 -0.028228471 0.077754006 -0.07823541 0.12005347 0.11794852 0.08890104 0.083180964
0.10210656 -0.14765011 -0.04695263 0.14142698 -0.06280262 0.025753118 -0.04917165 0.0038540147
-0.019662334 -0.04010054 0.04195608 0.17289434 0.013888122 -0.040279344 0.15500654 -0.0701868
0.056294076 0.013737713 0.062422868 0.11393699 0.05728495 -0.0020510894 0.08626998 0.03611395
-0.037904833 0.023758452 -0.08996807 0.0011439258 -0.11950589 0.064751714 0.15677711 -0.072264865
-0.17336424 0.13507646 -0.08504143 0.1280459 0.1348973 -0.049692534 0.016905233 -0.06251359
0.1601097 -0.11502576 0.031879317 -0.08724475 0.15142295 0.0979947 0.1648676 -0.06900469
0.07189673 -0.13859564 0.11715992 -0.04656333 0.0710553 0.09798563 -0.0987383 0.11145237

fcn1.bias f4 [32]
00000000: c759 2f3e 3ac4 6e3d b376 563d eed9 afbd
00000010: bd16 753d 12a5 073e e735 13be 0e8f 143e
00000020: 11b9 b5bd 5bb9 693d bf35 a23d 1f23 643c
00000030: 76c7 d6bd 7dd4 d6bd 1d50 983c 96b2 a4bd
00000040: a061 f1bd ad86 1fbe c104 263e 29f4 23be
00000050: 6081 fbbd 591f 933d 2214 033e 46b5 353e
00000060: 0226 9f3d eda4 293e df2e e1bd 2a11 6b3d
00000070: 0754 253d 50f0 18be 7053 1b3e 83ef 803d
0.17124091 0.058292605 0.052359294 -0.08586489 0.059836138 0.13246563 -0.14376031 0.14507696
-0.08873189 0.057061534 0.079204075 0.013924389 -0.10487263 -0.10489748 0.018592888 -0.08041875
-0.117861986 -0.15578718 0.16212751 -0.16011108 -0.12280536 0.071837135 0.12800649 0.17744932
0.07770921 0.1656682 -0.10995268 0.057389416 0.040363338 -0.14935422 0.15168548 0.06295683

fcn2.weight f4 [64, 32]
00000000: a1ab c93d f84b b03d 4311 813d 5030 d5bd
00000010: 840c d03d 4bc3 ad3c a71f a4bd 25cf e23d
00000020: 0efb 0fbc fad5 373d 8cdb 033e 0bdf 133e
00000030: f02c 60bc 0046 bc3b dbc6 b03c bd47 9c3d
00000040: 1756 5f3d 9670 f53d 34db 35bd 0fdc 96bd
00000050: d45a 28bd ed71 dd3d 3d83 073e 81b0 b1bd
00000060: bcf0 d13d 93a5 1f3e 40d5 033e 5bf3 cb3a
00000070: d2d7 1fbd a8ca 233e b960 903d 09e0 8dbd
00000080: 3445 543d 824e b0bd f236 a7bd 1b43 283e
00000090: 039b cc3d 8ea5 e3bd 4fba acbc f71d 15bc
000000a0: b9b7 b5bd ac67 e5bd 56de d33d 3de2 e03d
000000b0: b8b4 7fbd c252 2ebe 5091 ef3d 8312 ccbd
000000c0: b9df 953a 9a8a d1bd 75d0 6dbd 3622 ed3d
000000d0: 5154 133e 1824 b1bd 84a8 153e 0300 bfbd
000000e0: f0dc 0dbe b71b 773d 4b35 34bc 640d d53d
000000f0: ab54 0a3e d089 52bd 0549 b03c 6da4 833d
00000100: 3a45 03bb 63d1 8bbc 3de1 2b3d ca46 0cbe
00000110: 8396 f9bb eea3 f0bd 8496 33be cfc9 0c3e
00000120: 456e f6bd 872a b0bd 38fe 0c3e 74f6 eebd
00000130: 8859 d2bc 79a7 163e 1580 8b3d abfc ce3d
00000140: 9279 8b3d 668f dabc 360c 033e 0dd4 183e
00000150: 38c8 8fbc aff8 7ebd 9a82 84bd 28ed f03c
00000160: adfc 15be 9e1b 17be 8800 35be 1ca1 b93d
00000170: ded3 263d e267 b33d ef72 99bc 192c d3bd
00000180: a84b 533c e6a5 aabc 32ec 76bd c212 d23d
00000190: b80c 74bd 7d65 823c 9753 bcbd 2701 0bbc
000001a0: 7427 f83b ecd2 c2bd b67e 963d 99ef 19bd
000001b0: 32a5 ffbd ba67 f03d c8d5 aabd 4d61 203e
000001c0: b5a5 12bd 8a69 1e3e 1753 01be 067d 64bd
000001d0: 3f99 2b3e 2966 aebc 5186 aebd 6ef3 7d3d
000001e0: 2258 03be 12f0 d03d 8d75 7bbd 61d4 133e
000001f0: ac8b 073e 288f 153e 8166 06bd 5857 eebc
00000200: 36e1 cbbc 1204 b03d 7db3 3ebe 38fc c33d
00000210: 5787 143e 10e7 afbd eb44 fb3d 58f4 fc3d
00000220: 92b7 b33d 5e7d 623c fb77 073e e1e8 833d
00000230: c8de bbbc ef00 0f3e f301 20be 137c 8dbd
00000240: 6e4d 29be 1ca1 c93d 102c e03d 4b4f 273e
00000250: 7c25 31be 7ce8 383d af99 b9bd e4b5 bfbd
00000260: 2e56 f7bd 1872 37be cb18 71bd 91b5 bf3d
00000270: 00d9 2a3b c967 b5bd dc6b 17bd 240a c4bd
00000280: 18e6 92bd 17ea 183e fcf5 09be 5444 8e3d
00000290: c16c 1fbe 00cf 813a 00fc 723d 500b 24bc
000002a0: c963 113e d822 303d b8bd 08bd 871b 1cbe
000002b0: a2f1 e9bd 7ac3 b43d 8274 ed3d 0e32 fe3d
000002c0: a0fe 31bd 9883 fdbd 8382 213e 5fa5 18be
000002d0: 2a21 883d d6e7 ba3d fa1d 8f3d 3ba7 173e
000002e0: 30b0 1b3c 500a 12be c854 b6bc 8040 5f3c
000002f0: 04e2 0abd e090 8c3d be76 b13d 6301 9dbd
00000300: 40cb 2dbd a0ee 5fbd 9bb9 93bd ed61 1bbe
00000310: c213 84bd 1834 babc d4d2 12be 32de 0dbe
00000320: ef8c 183e 3af0 ec3d 0dfa 10be aeae e7bd
00000330: e0fb 853d 301a 383d 10b7 f0bd 1867 b0bc
00000340: 9687 06be 40e9 dfbb 8ad3 f8bd 805a dbbc
00000350: 908b 1bbc aee2 d7bd 49eb 153e cc93 08bd
00000360: 9ad2 b93d 389d d13c 105c 9fbd 328a c53d
00000370: 5050 82bc 7477 a7bd 28dc b7bc a680 0ebe
00000380: 42e2 7abc 5d79 533d d17e 0a3e 4c92 bbbd
00000390: ae04 26be 5031 a0bd 857e 98bd 030e a03c
000003a0: 8fba 92bd a557 2d3e 936b 29bd aae5 d4bc
000003b0: 180e 1abe dfbf 0c3e a1b4 0c3e a21f 27be
000003c0: d2ed b1bc 5c08 c03d 0c55 d33d ffc9 b1bd
000003d0: 0087 8b3b c5a4 1f3d 7ec0 0fbe 41d1 1abe
000003e0: e9a8 943d 0b46 02be 9e85 653d 6c6d 0abd
000003f0: 899e d93b e4f0 e13c b99b 08bb d79c 37bd
0.09847189 0.0860824 0.063021205 -0.104096055 0.10158637 0.021211287 -0.0801385 0.11074666
-0.008787883 0.0448818 0.12876719 0.14440553 -0.013682589 0.0057456493 0.021579197 0.076308705
0.05452546 0.11984365 -0.0443985 -0.073661916 -0.041102245 0.10812745 0.13233657 -0.086762436
0.102509946 0.15590505 0.12874317 0.0015560196 -0.03902418 0.15995276 0.070496984 -0.06927497
0.05182381 -0.08608724 -0.08164777 0.16431849 0.09990504 -0.111155614 -0.021084933 -0.009101382
-0.08872933 -0.112014145 0.103451416 0.109806515 -0.062428206 -0.17023757 0.11697638 -0.09964468
0.0011434472 -0.10231514 -0.05806013 0.11578791 0.14387633 -0.086494625 0.14615065 -0.09326174
-0.13853812 0.060329165 -0.010999034 0.10402945 0.13508861 -0.05140096 0.021519193 0.06427846
-0.0020030276 -0.017067617 0.04196285 -0.13698879 -0.0076168193 -0.11750017 -0.17537886 0.13748859
-0.12032751 -0.086018614 0.13768852 -0.11668101 -0.025677457 0.14712323 0.06811539 0.10106786
0.06810297 -0.026679706 0.12797627 0.14924641 -0.017551526 -0.062248882 -0.06470223 0.02940996
-0.1464717 -0.14756629 -0.17675984 0.09063932 0.040729396 0.087600484 -0.018731562 -0.10311145
0.012896456 -0.02083106 -0.060283847 0.10257484 -0.059582442 0.015917534 -0.09195631 -0.008484161
0.0075730626 -0.095128864 0.07348387 -0.037582014 -0.124826804 0.11738534 -0.08341557 0.15662117
-0.03580256 0.15469947 -0.12629353 -0.055783294 0.16757677 -0.021288948 -0.085217126 0.06199973
-0.12826589 0.1020204 -0.061391402 0.14436485 0.13236874 0.14605391 -0.0328126 -0.029094383
-0.024887662 0.08594526 -0.18623157 0.09569591 0.14504753 -0.085889935 0.122690044 0.12351292
0.08775248 0.013823835 0.13229363 0.064409025 -0.022933379 0.139652 -0.15625744 -0.06908431
-0.16533443 0.09845182 0.10945904 0.16338842 -0.17299455 0.04514359 -0.09062516 -0.09360865
-0.12076984 -0.17914617 -0.058861535 0.09360803 0.0026069283 -0.08857686 -0.036968097 -0.09572247
-0.07172793 0.14933048 -0.13472742 0.06946626 -0.1556883 0.000990361 0.059322357 -0.010012463
0.14198221 0.04300198 -0.033384055 -0.15244876 -0.11423041 0.08826347 0.11594488 0.12411891
-0.04345572 -0.12378615 0.15772443 -0.14906834 0.066469505 0.091262504 0.069881395 0.14809887
0.009502456 -0.14261746 -0.022257224 0.013626218 -0.03390695 0.0686357 0.086652264 -0.0766628
-0.042430162 -0.05467093 -0.07213136 -0.15174074 -0.06449081 -0.022729918 -0.14338237 -0.13854292
0.14897512 0.11569257 -0.14157887 -0.113126144 0.06542182 0.04494685 -0.117536664 -0.021533534
-0.1313766 -0.0068332255 -0.12149723 -0.026776552 -0.0094937235 -0.105412826 0.14640535 -0.033344075
0.09073372 0.025587663 -0.077812314 0.09645499 -0.015907437 -0.08177081 -0.022443846 -0.13916263
-0.015312733 0.051629413 0.13524939 -0.09158763 -0.16212723 -0.078219056 -0.07446007 0.019537931
-0.071644895 0.16927965 -0.041362356 -0.025988419 -0.15044439 0.13745068 0.1374078 -0.1632066
-0.021719847 0.093765944 0.10318956 -0.08681106 0.0042580366 0.038975496 -0.14038274 -0.15118887
0.072587796 -0.12722032 0.05603563 -0.03379576 0.0066412133 0.027580686 -0.002084477 -0.04482731

fcn2.bias f4 [64]
00000000: 363c b93d 4606 8c3d 526a 733d 67d8 a6bc
00000010: 8414 f53a 04eb 16be fcf3 00bd f267 4c3d
00000020: 22dd 1cbe cbf0 82bd e2b4 a1bc 64cc 273e
00000030: 0c88 3a3e 8c96 1f3e 9ca1 073d 0652 12be
00000040: 1cf9 00be 577f 053d 55b0 d43c cc03 9f3d
00000050: 78e9 2fbe 194d d8bd dc89 e0bd 2959 163e
00000060: 21e6 3cbe e652 b5bd 26b7 f33d 10d0 fbbc
00000070: 60b4 08be 7fbb 04be e860 f43c ad7a 123e
00000080: adce dd3d 10a9 933d ac3e b3bd 1ce0 023d
00000090: 20e0 01be 058c ecbd f9a3 b5bd 8a3d c13d
000000a0: 1889 79bd 3908 1cbe 30e9 ef3d d6b2 a5bc
000000b0: 7136 f63c d0a1 b93d 3c2c d3bc b290 773d
000000c0: 154d f93d f595 2abd fd71 1a3e 5b17 273d
000000d0: b3bc b53c 5802 14be 5d44 0a3e 2633 523d
000000e0: b537 cf3d 85b5 0b3d 0a67 bd3d 93c1 0e3e
000000f0: 0d56 483c bd04 ce3c 1fd6 24be adfb 25bd
0.090446874 0.06837134 0.059427567 -0.02036686 0.0018698131 -0.14738089 -0.03148268 0.049903817
-0.1531873 -0.06393584 -0.019739572 0.16386563 0.1821596 0.15584773 0.033113107 -0.14289102
-0.12595028 0.032592144 0.025962988 0.07764396 -0.17178905 -0.1056158 -0.109637946 0.1468245
-0.18447162 -0.08853702 0.11900167 -0.03073886 -0.13350058 -0.12962149 0.029831365 0.1430461
0.10830436 0.072099805 -0.08752188 0.03195201 -0.12683153 -0.11550144 -0.08869166 0.09435566
-0.06092176 -0.15237512 0.11714399 -0.020226877 0.030055257 0.090640664 -0.025777929 0.060440727
0.12172905 -0.041646916 0.15082546 0.040793758 0.022184705 -0.14454019 0.13502641 0.05131831
0.10118047 0.034108657 0.09248169 0.1394103 0.012227547 0.025148744 -0.16097306 -0.04052322

fcn3.weight f4 [32, 64]
00000000: 7827 c4bd bbff f13d 44da f33c aa75 b8bd
00000010: 2d2e e9bc d400 24bd 1cdb d03d 2048 673d
00000020: 6838 2a3d 218e 9f3d a189 b1bd 5630 863d
00000030: ef66 46bd 42e3 19bc 8524 e8bc 275e 0b3d
00000040: e2cf fd3d 503d df3d e9c0 6fbd 02e6 e93d
00000050: 7e3d 5cbd 8fa6 dfbc f454 71bd 4844 e1bd
00000060: 4320 42bd 30f0 cabc 281d 02be 6054 703d
00000070: 30a7 83bc e046 013d bc8d e5bd 93a5 003c
00000080: 1a1a acbc 26b2 b7bd 1a58 0b3c b009 e9bd
00000090: 30b7 d9bd e4db dcbc 9ca4 f03d 7ec3 25bd
000000a0: ebb5 e0bc e02d ca3c f9a9 093e 27ae ef3d
000000b0: b7e0 50bd 2464 4f3c 091c f0bd 7c39 7ebd
000000c0: 375e ae3d 13a8 08be 4894 b1bd 2b7e 4d3d
000000d0: 6ca5 f9bd d07b 51bd f51d bcbd d03b d0bd
000000e0: b15a f5bc 8742 3d3d 381d 8fbd 9887 8bbd
000000f0: 9031 e7bc bb0d 67bd 068d e73d a752 cb3c
00000100: f99c 03be 6940 ddbd 2250 fb3d e51d d13c
00000110: b086 11bd 5047 e33d 688f aabc dd97 a53a
00000120: e15c 06be c759 fdbd 48b6 07be 8c49 613d
00000130: 7091 c13d 54f9 7bbd f6e5 803d 407f fc3d
00000140: a839 f83c d1ef cf3b 242e f4bc 1658 073d
00000150: 5649 ae3d 283e 8e3d 2677 f9bd a11c 243d
00000160: 6818 8ebd 4e05 c83d 7b34 c9bd 82be f5bd
00000170: ead4 833d c023 28bd 3b7c b4bb c9b0 bbbc
00000180: 250e c93c 4581 14bd 52ac 873c a181 80bd
00000190: 90ef a53d cda6 743d 6e9c 93bd 93de 17bd
000001a0: 9227 a8bb c023 1bbb 9acb df3d 7927 4bbd
000001b0: 74df 563d e3c4 9dbd c795 60bb 3291 c1bd
000001c0: dff3 8cbc e361 0d3d 4b07 94bc a79e d23d
000001d0: d442 16bd c43d 863d 680d c9bb 4859 a4bd
000001e0: a060 063d 1ea8 07bd 494d 603d c08c 4dbd
000001f0: fd5d b9bd fc5c d53d 46ee fdbd 04dc b63c
00000200: f3df 053e 88a5 c0bd 88a8 00be 00cc ac3d
00000210: dfcf 1c3c f60d ac3d 70af d93c 38bb 853c
00000220: 43fd 593d 50fa e6bd 43e7 833d c4b7 81bd
00000230: b8a0 b3bd 1656 b53c 0c0f 6abb 7456 d33d
00000240: c023 92bd 3d55 d7bd 92cd 323c 4281 a2ba
00000250: b5cc 66bd 5af2 12bd a6df cc3d 45a5 e63d
00000260: 4249 5fbd ec40 07bd 0fce cabc a004 4bbd
00000270: 0086 febb bcc6 173d 1e91 75bd 07eb 49bc
00000280: 24dc 01be ecd5 9d3d 922a dcbc 9248 97bd
00000290: 4026 f33d 6033 103d 0049 8c3d 087a c13d
000002a0: 0545 433d daab 88bd 8cda 02be 48c2 40bd
000002b0: 6506 c9bc 35dd 19bd 1334 993d ee9f d6bd
000002c0: bc34 6d3d ad85 a33d e531 1c3a 93dd d3bc
000002d0: 03d5 a63d ec10 a8bd 2ebb 92bc 26e5 e73c
000002e0: 356c e23c b609 ddbb 4a11 283d 58dc b7bd
000002f0: d282 933d a0d1 b5bd 5490 433d a522 99bc
00000300: bdc3 3bbd 9242 0fbc 0ec2 01bd 63c2 d83d
00000310: d7fe c23d 30c6 433d a049 aebb ea5a eb3d
00000320: 65ae c9bd 0197 ff3d d35f 873d 5227 943d
00000330: 5602 d13d 824c eb3a 0d7f be3c a261 8f3d
00000340: 4261 adbd b7b5 f83d 881e c9bb 89f5 fd3c
00000350: fb6d 91bd a2ba f73d 98db c03c 7e6d b3bd
00000360: 046e bd3d 44e7 2c3d 7d98 953d 4067 40bc
00000370: b00f b73c 1c1e aebd 8cbf ed3d 85fc cc3d
00000380: 677d b6bc b672 debd 2646 a3bd 6d61 61bd
00000390: 2ac1 a83d 2429 b6bd bc0a 76bd 7707 1ebd
000003a0: 5b5a bebd 089d 453d c5e2 e13c afc9 d5bd
000003b0: 6a66 cf3d 3afe 18bc 7820 8fbd 8c52 af3c
000003c0: 0773 063d 8117 4d3d f730 adbd a31d 013e
000003d0: 0d56 e43d f272 e33d a41e 09bc 08d8 69bc
000003e0: 5507 bdbd 9516 d13d e043 f0bb 7f4c adbc
000003f0: c3ea 0bbd 58ec 93bd 1c88 d4bd a261 b4bb
-0.095778406 0.11816355 0.029767163 -0.09006818 -0.028464401 -0.040039852 0.10198042 0.056465268
0.0415577 0.07790781 -0.08668829 0.06552188 -0.04843801 -0.009392561 -0.028337726 0.034025338
0.12393166 0.10900366 -0.058533583 0.11420824 -0.05376958 -0.027301101 -0.05891891 -0.10999352
-0.04739405 -0.024772733 -0.12706435 0.058674216 -0.016070932 0.031561732 -0.11208674 0.007851976
-0.02100854 -0.08969526 0.008504892 -0.11378801 -0.10630643 -0.02696032 0.11750147 -0.04046964
-0.027430495 0.024680078 0.13443746 0.11703139 -0.050995555 0.012658153 -0.11724097 -0.06206654
0.08514064 -0.13345365 -0.086708605 0.05016915 -0.12189755 -0.051143467 -0.09185401 -0.10167658
-0.029950472 0.046206024 -0.06987995 -0.06812972 -0.028221875 -0.05640958 0.11306195 0.024819685
-0.12852849 -0.10803301 0.122711435 0.02552695 -0.03552884 0.11097586 -0.020820335 0.001263376
-0.13121368 -0.12370639 -0.13253129 0.05500178 0.09451568 -0.061517075 0.062938616 0.123289585
0.03030093 0.006345727 -0.029807158 0.03304299 0.085100815 0.06945449 -0.12180929 0.040066365
-0.06938249 0.09766637 -0.09824463 -0.11999227 0.064370945 -0.04104972 -0.0055079735 -0.022911446
0.024542877 -0.036256094 0.01656166 -0.06274725 0.081023335 0.059729386 -0.07207571 -0.037077498
-0.0051316703 -0.0023672432 0.10927506 -0.04959819 0.052459195 -0.07703569 -0.0034268962 -0.09451522
-0.01720613 0.03451718 -0.018069884 0.10284167 -0.036684826 0.065547496 -0.0061356314 -0.080248415
0.032806993 -0.033119313 0.054761205 -0.050183058 -0.0905113 0.10418126 -0.12398963 0.022321709
0.13073711 -0.094065726 -0.1256429 0.084373474 0.009571045 0.084011 0.026572913 0.016324624
0.053220045 -0.11278212 0.06440594 -0.06333879 -0.08770889 0.022135776 -0.0035714535 0.10319224
-0.07135725 -0.10514305 0.01091327 -0.0012398141 -0.056347568 -0.035875656 0.10003595 0.112619914
-0.054513223 -0.0330209 -0.02475646 -0.049564958 -0.007767439 0.037054762 -0.059952848 -0.012324101
-0.12681633 0.07706818 -0.026875768 -0.073868886 0.1187253 0.035205245 0.06849861 0.09447104
0.047673244 -0.06673403 -0.12778682 -0.04706028 -0.024539182 -0.037564475 0.074806355 -0.10479723
0.05791162 0.07984481 0.00059583626 -0.02586249 0.081460975 -0.082063526 -0.01791152 0.028307509
0.027639488 -0.0067455424 0.041032113 -0.08977574 0.07202686 -0.088778734 0.047745064 -0.018693278
-0.045840967 -0.008743899 -0.031679206 0.10583951 0.09521263 0.04779643 -0.0053188354 0.1149195
-0.09847716 0.124799736 0.06610074 0.07234062 0.10205524 0.0017951878 0.023253942 0.07001044
-0.08465816 0.12144034 -0.006137673 0.03100087 -0.07101055 0.12096144 0.02354221 -0.08761118
0.092494994 0.04221274 0.073044755 -0.011743367 0.022346348 -0.08501837 0.116088 0.10009102
-0.022276593 -0.10861723 -0.07972364 -0.055024553 0.08239968 -0.08894566 -0.06006883 -0.038581338
-0.09294578 0.04824546 0.027573952 -0.10438859 0.10126956 -0.009337956 -0.06988615 0.021401666
0.032824542 0.050071243 -0.08456605 0.12608962 0.111492254 0.111059085 -0.008369122 -0.014272697
-0.09229914 0.10209385 -0.00733231 -0.02115464 -0.034159433 -0.07222813 -0.10377523 -0.005504803
