models/haptic/intialstate_400_3.pt (torch_old, 21858 bytes, 5 tensors)

fcn1.weight f4 [32, 32]
00000000: b869 f83d e115 93bd 39f5 3f3e 4d07 0bbd
00000010: 7f24 47bd 0763 373e cca7 133d 8f36 19be
00000020: 73cb ec3d 0197 2bba 379e 1cbd 0eb4 133e
00000030: 4500 623d 19f0 1abe ff2a 8abd eef8 23be
00000040: 2980 3fbd b3d1 583d a466 c43d f2dd 75bd
00000050: 14c1 013e dbc1 043e abfc 923d c89b 7ebd
00000060: b26a d53d cfe1 dc3d 1791 0bbe fc55 ddbd
00000070: c68b f33d 1e8e 89bd 799d 18be 4523 c8bd
00000080: 5e0f 8fb7 c42d 6dbd 66b3 66bd f5c3 02be
00000090: 4a5e 3abd 4f03 803d e9ec 293e 486c a1bd
000000a0: 71c1 bfbd b32b 7b3d 21c5 3d3e 39eb 983d
000000b0: f022 00be dd1b 1f3e 201d c03d 7cb1 2a3d
000000c0: 3b6a a8bd 5fda 24bd 4c20 c9bd 052c 29bd
000000d0: ee9d c73d 1027 913d d7e0 4fbd 5ad0 193d
000000e0: 2504 8fbc 2d5c d43d 1851 183e b2be 1e3e
000000f0: aafc 01be 2a6c d93d 541d 823d fb3d 9abc
00000100: 4407 f53d 780b 1d3d 64e0 063e e018 873d
00000110: 51ba 2a3e 294d 133e a002 8e3d c616 243e
00000120: edc2 13bd 0307 95bd f65b 27be de2c 89bd
00000130: 2c7d ecbd 5abd 95bd 3489 0bbe 57a2 b5bd
00000140: 4d5c babd ed15 1d3e 43cd b13d 0b88 06be
00000150: 4f3d c8bd 5262 263d 4a8e a1bd c3df ef3d
00000160: d56b a33c fb7c 1cbe 2714 a3bd dbee 083e
00000170: cb8a bcbd 25cb 16bd 4b92 02be ef76 fabd
00000180: 6302 223e b226 f23d 1d4c 5ebc 6d69 1ebe
00000190: 80bc 693d 6bbb 06be b323 853d 3ca9 9abd
000001a0: 2dc1 fcbc 332a 073e cb8e 14be aeff 88bd
000001b0: e3f3 153d 9661 ea3d 50b7 dd3b cf27 39bc
000001c0: c550 dabd dd8a bf3d 5da1 ffbd 933f 273e
000001d0: 7573 f03d 61eb 04be 6d18 3e3e 29d5 05be
000001e0: 491d 8fbd 21d2 d83d 8962 11be 0bd4 103e
000001f0: 544d ac3d fdee 0ebe 93a4 133e 8099 56bc
00000200: e794 133e ecd9 53bd 66f0 a9bd 7633 1ebe
00000210: 0f80 033e d20a dbbd dae1 03be 3771 fa3c
00000220: dcdc 2b3e 6266 1e3e 86e4 2f3c e910 2e3e
00000230: 525d 18bc 17aa fe3d 0b5e 9bbd c97a 1c3a
00000240: 534f e7bd 550d 33bd 9df5 133e 4027 c0bd
00000250: ceb7 40bd 420a 20bc d46e 76bd 8bbb 343e
00000260: 9266 1d3e 81d4 24be a1f9 3e3e 162d 0ebe
00000270: e48e f1bd 3b48 4ebd e243 a83c 59b2 403e
00000280: 13c8 223e 352c eb3d fd48 bfbd 9f77 48bd
00000290: c57d 963d ae18 0f3e d34f 2bbe 38f5 cf3d
000002a0: a97b 0b3e 8ffa 1abe 313f ffbc 1a4a 273e
000002b0: a1fb d0bd e4c2 b93d 59c5 d9bd 3b89 32be
000002c0: c5bb 1e3e ec80 0dbe 17d8 283e 8efb 34bd
000002d0: 5030 f9bc e038 053e 600c 203e 2e56 b83d
000002e0: 3891 243d bb6c c23d 845b c93c f5ad 743d
000002f0: 5052 0b3e 2c15 2a3e 1e35 103d 14cd 0f3e
00000300: 8512 95bd 5ae7 f13d 0444 21be 1ccc 383d
00000310: 4d0a 2dbe 08fe 353d c61d 77bd 7897 f3bc
00000320: 80df c0bc 55ea 19be 00fe 0c3a 8e2c b13d
00000330: f18b 173e 839c dbbd 4ebc acbd bc8a 3fbd
00000340: 5c12 13bd 1060 333c 9391 20be a852 fcbc
00000350: 3589 263e e2bb c23d 1055 693d 2ad5 ae3d
00000360: 8847 99bc 33ee 1bbe a096 fcbd a83d a7bd
00000370: c441 9bbd 41e7 96bd 32d6 11be 888d 413d
00000380: 86dc e13d 9cee 97bc 9869 e93d 6b3c 3dbd
00000390: f319 3dbd 82ab ae3c e25f b1bd b674 0b3e
000003a0: 08d2 cf3d fb9a 94bd d8c8 2dbc 33d8 45bd
000003b0: 70d1 57bd 5d67 e4bb f629 07be 35ef 173e
000003c0: c866 39bd 3c17 133e b182 0a3e 9da5 843d
000003d0: 9df2 b03d fd00 f93d e5a1 e53d 5be0 c13d
000003e0: f958 0a3e b927 85bc 6f7a 1e3d c167 1d3e
000003f0: 9041 193e ef0f 17be 9cfe 1e3e e69f 1e3d
0.12129539 -0.071819074 0.18745889 -0.03394251 -0.04861879 0.1790887 0.036048695 -0.14962219
0.11562242 -0.00065456337 -0.038236823 0.14424154 0.05517604 -0.15130652 -0.06746482 -0.16012928
-0.046753082 0.05293436 0.0958989 -0.060026117 0.1267131 0.12964575 0.07177099 -0.062160283
0.10420741 0.10785257 -0.13629566 -0.10807416 0.11891894 -0.0671656 -0.14903821 -0.09772352
-1.7054084e-05 -0.057904974 -0.05632343 -0.12770064 -0.045500077 0.06250631 0.1659428 -0.07881981
-0.09363068 0.06132097 0.1853223 0.0746674 -0.12513328 0.15537973 0.09380555 0.04167317
-0.08223387 -0.040247317 -0.09820613 -0.041301746 0.097469196 0.07087529 -0.050751533 0.037552215
-0.017458031 0.10369144 0.14874685 0.15502432 -0.1269404 0.10616334 0.0635325 -0.018828383
0.119642764 0.038341016 0.13171536 0.065965414 0.16672637 0.14384903 0.069340944 0.16024312
-0.036074568 -0.07276728 -0.16343674 -0.06698011 -0.11547312 -0.073115066 -0.13626558 -0.088688545
-0.09099636 0.15340395 0.08681729 -0.13137834 -0.09777319 0.04062111 -0.078884676 0.11712601
0.01994888 -0.15282051 -0.07962828 0.13372366 -0.0920616 -0.036814827 -0.12751119 -0.12229716
0.15821223 0.11823787 -0.0135679515 -0.15469904 0.057064533 -0.13157432 0.0650095 -0.0755181
-0.030853832 0.13199691 -0.14507596 -0.06689392 0.03660954 0.11444394 0.0067662373 -0.011300995
-0.10659937 0.09352658 -0.124819495 0.16332845 0.11740772 -0.12980415 0.18564005 -0.13069595
-0.069880076 0.10586954 -0.14197744 0.14143388 0.08413187 -0.13958354 0.14418249 -0.013098121
0.1441227 -0.0517215 -0.082978055 -0.15449318 0.12841819 -0.10695423 -0.12879124 0.030571563
0.1678347 0.15468743 0.010735637 0.16998638 -0.009299593 0.12434786 -0.07586297 0.0005969224
-0.11294427 -0.043713886 0.14449163 -0.09382486 -0.04705029 -0.009768071 -0.060164288 0.17649667
0.15371159 -0.16096689 0.18649913 -0.13884386 -0.11794832 -0.050361853 0.020540182 0.18818034
0.15896635 0.11483041 -0.09340093 -0.048942205 0.073482074 0.13974258 -0.1672967 0.10154194
0.13621391 -0.15134643 -0.031158062 0.16336861 -0.102042444 0.090703756 -0.10633344 -0.17435162
0.15501316 -0.13818711 0.16488682 -0.044185214 -0.030418545 0.13009977 0.1562972 0.090008125
0.040177554 0.09493395 0.02457977 0.05973621 0.13605618 0.16609639 0.035206906 0.14043075
-0.07278923 0.11811705 -0.15748602 0.04511653 -0.1689846 0.044431716 -0.06033113 -0.029735312
-0.023544073 -0.15030797 0.0005378425 0.08651076 0.14799477 -0.107232116 -0.08434354 -0.046763167
-0.03590618 0.010948196 -0.15680532 -0.030801132 0.16263278 0.09508492 0.056965888 0.085367516
-0.018710867 -0.15227585 -0.12333417 -0.08166057 -0.07580903 -0.07368327 -0.14241865 0.047254115
0.1102839 -0.018546395 0.113970935 -0.046200197 -0.046167325 0.021322016 -0.08660866 0.1361874
0.10147482 -0.07256123 -0.010606967 -0.048301887 -0.05268997 -0.0069703297 -0.131996 0.14837344
-0.045264035 0.14364332 0.13526417 0.06476901 0.08640025 0.121583916 0.112125196 0.094666205
0.13510503 -0.016254293 0.03869098 0.1537161 0.14966416 -0.14752172 0.15526813 0.03872671

fcn1.bias f4 [32]
00000000: 32db b43d 118c 39bc ccf1 173e 471c ff3d
00000010: 6ddf 7dbc 262a 04be 82f2 b4bd fb48 63bd
00000020: 8086 38bb d7df 8ebd f2aa a8bd 9a62 943c
00000030: 6814 033e 087c 82bd 106e 20bc dac6 fbbd
00000040: 88d4 8b3d aac0 17be 6bdb 9abd e53e 2e3e
00000050: 9627 d8bd 3ea2 8b3d 81d3 953d 0765 113d
00000060: 9f3a 0c3e 628d c2bd cf4a 2ebe da01 123e
00000070: 2004 a3bc 5031 523d e5f7 2ebe eec7 2f3e
0.08830871 -0.011324898 0.14838332 0.12456565 -0.015495163 -0.12906703 -0.08835317 -0.05548952
-0.002815634 -0.06976288 -0.0823573 0.018113423 0.12800753 -0.06371313 -0.009791866 -0.12293787
0.068276465 -0.1481959 -0.07561382 0.1701618 -0.105544254 0.068180546 0.07315732 0.035496738
0.13694237 -0.09499623 -0.17020725 0.14258519 -0.019899428 0.05131656 -0.17086752 0.17166111

fcn2.weight f4 [64, 32]
00000000: 44ae 80bc 5519 d5bd 3358 57bd 14fa c2bd
00000010: bf66 b53d f38f 6ebb 603e af3c 6598 8ebd
00000020: 8aeb fe3d 4097 01be 9086 ecbc bb39 11be
00000030: b683 2e3e b0df 0d3e a8b9 613d 7a65 96ba
00000040: 07fa 333c 7237 153e 7a43 27bd 4b21 213e
00000050: c866 11bc 1e54 dbbd 8826 14be 9bf7 d23d
00000060: 62d5 1fbe 286f 8cbd e817 92bc 51e2 083e
00000070: 08bd 643d 49c6 133d 7413 11bd 6552 24be
00000080: 0a0a cbbd 3ce9 153e 4b6f da3d 675f 12bd
00000090: 226d 0fbd 3e71 8e3d 46cc 9ebd d296 163e
000000a0: e956 153e 7fbc 153e 0055 8e3d a15a 813d
000000b0: f805 92bd f101 eabd 19bc 123e d434 20be
000000c0: fc18 bebd 5727 0cbd 1327 ad3d a076 d53d
000000d0: e291 2fbe 341d 8bbd 7f11 10bd b586 22be
000000e0: 15a2 433d 974b 6bbd c01e a73b c2f4 343d
000000f0: d6ab a83d 7c57 a63d 905b 2cbc 656e f73d
00000100: c797 ec3d 295a 8abc 92a3 19be 6d82 f8bd
00000110: 7579 e2bd 9ea3 1d3e 90b5 c23c 2984 98bd
00000120: 55d5 f5bd 3e73 ba3d 9882 e63c 0375 06be
00000130: 77a7 123d 46fc f83d c850 adbc a3b1 13bc
00000140: a1cd 32be e986 043e b8e4 09bd 5f4e f83c
00000150: b5f3 333e 9bb8 2fbe d0ac 20bc d46d 393d
00000160: 617f 2c3e d52e 16be 9b11 093e 034c 373e
00000170: e092 4c3d f354 e1bc 8012 dcbd 9136 123e
00000180: dfcb a2bd 3ddf 1e3e 3848 8f3d 4fec 153e
00000190: 1674 323e 31d6 9bbd 30d1 cdbd b929 de3d
000001a0: f04e adbd fe24 1d3e 7001 0ebd 1279 3cbd
000001b0: 1323 813d ace3 153e d0f6 b1bc 23aa bebd
000001c0: 2aca 2abe c2c6 083e 2708 e13d a879 8d3d
000001d0: fb80 fc3d 4147 dabd fa9f 22be 41d2 833d
000001e0: 36e7 323e 35a0 303e 05da 093e 0eff 163e
000001f0: 081b 52bd a252 753d 5c83 12bd d98f 3fbe
00000200: d956 2d3e 1cf0 fabd 7a80 633d acf1 24be
00000210: 95a7 b9bd 213d c1bd 3232 993d 07c9 1abe
00000220: b773 1ebe a528 293e 40ea afbd c3f2 d33d
00000230: 70dc 273e 7df5 25bd 7a3b 58bd 329c e13c
00000240: 2375 2d3e 3262 c43d c708 bb3b a0a2 0bbe
00000250: b5ee 8ebb 7181 0d3e 9b83 193d 0535 30be
00000260: 912f cebd 23b0 90bd 5924 30be 1116 4f3d
00000270: 7abc 08be d455 273e 1b79 113e c5f2 f7bd
00000280: fac2 3a3e b413 a0bd c1ad dc3c d009 e13d
00000290: 062c 083e 29bb e1bd 6852 c63c f036 8ebd
000002a0: 5b56 80bd 1316 43bd 9f63 063e 444a 08be
000002b0: 3155 983d 2044 183e 6570 d3bd 3465 573d
000002c0: 6c81 97bd 6c66 09be 98cb 24bd 6925 c93b
000002d0: d667 c6bc 6685 1a3e ff82 7a3d 6ddc 2bbe
000002e0: 0bd5 22be 1650 df3c e6cc b2bd c9b9 0bbe
000002f0: 20a8 b5bd a0bf bfbd c18e 033e da88 ff3d
00000300: ed58 27be ba8c cabd 7027 b63c a3de 023e
00000310: 62ef a5bd 64b4 dfbd 58b8 ae3c d882 0d3d
00000320: 7ce2 6dbd 93bb 273e 7073 84bc f1d6 0abe
00000330: 001f aebc c016 95bd c0a6 30be 98bf 9cbc
00000340: c080 083b 6332 30be 077e 27be 837c 14be
00000350: 3ed1 bb3d ecc2 0b3d 8b63 0ebe 8ff9 183e
00000360: 68c2 b3bc 800b a33b b989 e3bd 6007 56bc
00000370: 090d 093e 17d4 2bbe fd43 21be 9ec3 1abe
00000380: f63c 183e 4a70 fa3d 37e3 b9bd 135a a23d
00000390: b5f3 1abe 2115 bc3d af53 02be 1ec2 ffbd
000003a0: 83cc 013e 53f7 90bd a910 313e 152e 143e
000003b0: 0802 23be c8d9 94bb c869 29be dcb4 06be
000003c0: 8d52 ddbd 6365 05bd 97a6 80bd e3f7 023e
000003d0: 4136 783d e30c 16be 1922 47bd f42a aebd
000003e0: d7b5 0f3e 587f 583d 68ee 843d 3cd4 ba3a
000003f0: 299f 24be d102 b73d 6115 223e 0c14 36bd
-0.015708096 -0.10405222 -0.052574348 -0.09520355 0.08857488 -0.0036401718 0.021392047 -0.06962661
0.12447269 -0.12655354 -0.028872758 -0.14182179 0.17042431 0.13854861 0.055108696 -0.0011474334
0.010984904 0.14571932 -0.040835835 0.15735357 -0.008874603 -0.107094035 -0.14467824 0.10301133
-0.15608743 -0.06857139 -0.017833665 0.13367583 0.055844337 0.03607777 -0.035418943 -0.16047056
-0.09914024 0.14639753 0.10665759 -0.035735514 -0.035016187 0.06955193 -0.07753806 0.14705971
0.14583935 0.14622687 0.06949806 0.06316114 -0.07130045 -0.114261515 0.14329566 -0.15645152
-0.09282109 -0.034217205 0.084547184 0.104230165 -0.17145494 -0.067926794 -0.035172936 -0.15871699
0.047761995 -0.057445135 0.005100101 0.04417873 0.082359 0.08122155 -0.010519877 0.12081603
0.11552387 -0.016888695 -0.15003803 -0.12134252 -0.11058322 0.15394446 0.023768216 -0.074470825
-0.120035805 0.09104012 0.028138444 -0.13130574 0.03580424 0.12157492 -0.021156684 -0.00901452
-0.17461254 0.12942089 -0.03366539 0.030310808 0.17573436 -0.17160265 -0.009806827 0.045270756
0.16845466 -0.14666303 0.13385622 0.1790009 0.04994476 -0.027506327 -0.10745716 0.14278628
-0.079490416 0.15514846 0.069961965 0.14640926 0.17427096 -0.07609213 -0.10049665 0.10847802
-0.08462322 0.15346143 -0.03466934 -0.0460139 0.06305518 0.14637631 -0.021724135 -0.09309795
-0.16678682 0.1335707 0.10987883 0.0690797 0.123292886 -0.10658122 -0.15881339 0.06436587
0.17471012 0.17248614 0.13462074 0.14745733 -0.05129531 0.059893258 -0.035769805 -0.18707217
0.16927661 -0.122528285 0.055542447 -0.16107816 -0.09065167 -0.094354875 0.07480277 -0.15115748
-0.15473829 0.16519411 -0.085896015 0.103490375 0.16392684 -0.04051732 -0.052791096 0.0275403
0.16939215 0.09589042 0.0057078335 -0.13636255 -0.004361952 0.13818909 0.037479024 -0.17207725
-0.10067666 -0.070648454 -0.17201366 0.050558154 -0.13353148 0.16341335 0.14206354 -0.121068515
0.1823844 -0.07816258 0.026938321 0.109882 0.13298044 -0.11022026 0.024209216 -0.06944072
-0.06266471 -0.047628473 0.1312394 -0.1330958 0.07438124 0.14869738 -0.10324172 0.05258675
-0.07397732 -0.13417977 -0.040233225 0.006138493 -0.024219435 0.1508995 0.061160084 -0.16783305
-0.15901582 0.027259868 -0.087304875 -0.1364509 -0.08869958 -0.093627214 0.12847425 0.12477274
-0.16342516 -0.09890123 0.022235602 0.12780242 -0.08102299 -0.10923079 0.021328136 0.03454861
-0.05807732 0.16380148 -0.016168326 -0.13558556 -0.021255016 -0.0727973 -0.1725111 -0.019134328
0.0020828694 -0.17206721 -0.1635667 -0.14500622 0.09170769 0.03412144 -0.1390516 0.14938949
-0.021943286 0.004975736 -0.11110253 -0.013063282 0.13383879 -0.16780125 -0.15748592 -0.15113685
0.14867005 0.12228449 -0.09076541 0.079273365 -0.1513203 0.091837175 -0.12727235 -0.12488197
0.12675671 -0.07078423 0.17291512 0.14470704 -0.15918744 -0.004542563 -0.16544259 -0.1315493
-0.10806761 -0.032567393 -0.062817745 0.12789874 0.060598616 -0.14653353 -0.048616502 -0.085042864
0.1403421 0.05285582 0.06490785 0.0014253925 -0.1607634 0.08936084 0.15828468 -0.044452712

fcn2.bias f4 [64]
00000000: 3f03 483d 7956 1f3e 72e3 0bbe 2660 09bc
00000010: d0bd 11bc 90a4 6c3c e468 d7bd eb9e 2c3e
00000020: 8ad6 a43d af8c 053e dc51 df3d 16b6 42bc
00000030: fff9 363e 6590 7dbd b200 c13d 9230 11be
00000040: f616 cf3d 4868 c53d 550f 323e 95cf 213e
00000050: 1d2d e9bd b041 34bc 6786 243e 5d68 38bd
00000060: 2da3 07be 225e 3dbd 35ee 1e3e 20c0 003c
00000070: 04fd 023d 701c 74bd 0666 853d de6e c83c
00000080: d1ad 33be b74d 1c3e 49ab 1c3d 1c7e 433d
00000090: bc92 69bd 8018 8cbd 400f f6bb ea82 193e
000000a0: 2f89 08be 12f9 c9bd 2656 bf3d c3eb 03be
000000b0: 6e2b 13be 2ca8 59bd 0e0e 92bd 2842 183e
000000c0: 683d 3e3c 6a7c 423a 3e61 713d 88ae 81bd
000000d0: 16e1 ed3d d70f 393e 923f f2bd d744 9abd
000000e0: 77a9 213e 9671 03bb bd9e d13d 57c1 31be
000000f0: 203d 8ebd d82e c23d eaa4 bf3d 0f9a 19be
0.04883122 0.1556033 -0.13660982 -0.00838474 -0.0088953525 0.014443532 -0.10518053 0.16857497
0.080487326 0.13041948 0.10904285 -0.011884233 0.17868803 -0.061905283 0.09423961 -0.14178684
0.10111801 0.09639031 0.17388661 0.15801843 -0.11385558 -0.011001989 0.16066895 -0.045021404
-0.1324584 -0.04623235 0.15520556 0.007858306 0.031979576 -0.059597433 0.065136 0.024466928
-0.17546774 0.15264021 0.038249288 0.04772769 -0.057024702 -0.068406105 -0.007509142 0.14991346
-0.13333581 -0.098619595 0.093426034 -0.12882905 -0.14372036 -0.053138897 -0.07131587 0.14868987
0.01161132 0.0007419052 0.058930628 -0.06332117 0.11615197 0.18072449 -0.11828531 -0.075326614
0.15787302 -0.0020056716 0.10235355 -0.1735891 -0.069452524 0.09481591 0.09357627 -0.15000175

fcn3.weight f4 [32, 64]
00000000: e8f8 3b3d 645a 76bd 747f 72bd 103f 5ebd
00000010: 067d eabd 7596 d4bd a079 983b 173a a93c
00000020: 56f9 c93d 1bc0 eb3d ac4e 143d 4e01 9c3d
00000030: e724 a3bb 9e0c 90bc 7025 a43d 3083 9fbd
00000040: 27d9 54bc 7ac1 cdbd 5b23 2ebd 75a9 12bd
00000050: 005f 4ebd e266 8f3c a452 b1bc f4e6 ed3c
00000060: 4a78 91bc a517 053e f79c 81bb e048 cb3d
00000070: f15c 573d 64c7 433d 63fc b7bc d65a 2dbd
00000080: 80c5 4fbb 36e8 ce3c 2481 f93c c99b 02bc
00000090: d062 0fbd 942b 0d3d 622a a33d afc4 cfbd
000000a0: 905a e4bd 603e e43c fe76 e1bd d4ec adbd
000000b0: e060 ad3c 8c23 4d3d 2cf5 b4bd 9426 943d
000000c0: 63ce 80bd 5d20 e93d 26b0 96bc aa18 c8bd
000000d0: dc1d 3bbd 355e 05be 50a8 2d3d f72e 16bb
000000e0: 4fc6 003e a2c7 bd3d f4c2 c93d 9405 ae3d
000000f0: 3a64 4c3d 39dd 783d f4e3 d93d 08b5 ae3c
00000100: f8e5 4c3d a6be a3bd a810 833d 6ad8 36bd
00000110: b7b0 623d c8c0 a2bc 687b ffbc e0f8 93bd
00000120: 56a2 9e3c 94bc 72bc 93be d63d 3c25 5cbd
00000130: 6f09 873c 5e7d c93d 4027 313d 0040 77bb
00000140: 87c7 9fbd 01b8 e0bd 1e29 97bd 88e7 373d
00000150: f88d eb3c ef15 a0bd dce9 ebbc 4f9d 14bd
00000160: 06a4 e7bc 45c6 bbbd 685e 003d 7084 17bc
00000170: ae96 0d3d bc38 9e3d 1618 dabd dcd5 ffbd
00000180: 9470 e1bd 876d c13c a243 013e 5dbf 463c
00000190: b041 d13c 904e 7e3c 6cf8 983d 1573 a13c
000001a0: 7657 b6bd 8070 8cbd c24b f6bd d4db 46bd
000001b0: f472 33bd dbf9 913d 9a6a b03d 96f9 acbb
000001c0: aca8 90bd 2db2 913d 5b60 5a3d b6ca a93d
000001d0: cc09 3f3d b471 febc ac75 cc3d 01a1 bbbd
000001e0: 63e2 cdbd 8945 03bd d6f6 ea3d 2548 313d
000001f0: 95ae c13d 3a1d 023e a348 e83d 27b1 8fbd
00000200: cd16 fbbb f3ad 9bbd 357d 54bd bc70 46bc
00000210: e906 e4bd ccd1 8dbc e07a 443d f0f4 debd
00000220: 097a bbbd 9126 c73d dd1e d0bd 7703 cc3d
00000230: f96a a6bb 559d 05bb 6224 eabd 08e8 c1bd
00000240: a35e d9bd 4776 693d 3ece 873d 32ac 04bc
00000250: e271 e63d c267 083d 2911 a6bd 294f fa3c
00000260: 0b85 0e3d d676 103b adc4 25bd f047 a9bd
00000270: b033 e0bd 7073 f9bc 3557 8a3d 0300 e13b
00000280: 4efc cdbd 8a35 463c 472c 19bd 6183 853c
00000290: 6054 493c f42d f8bd 5823 6a3d 3707 b13d
000002a0: f5f7 9dbd 900f 95bd 2717 ffbc e8fa c63c
000002b0: bea3 8abd 5563 d0bd 3291 f6bc 5d55 b13d
000002c0: c3da 8cbd 331b 813d 1fc1 c53d a018 b23d
000002d0: 327c e03d a55e d53d 82b7 a9bd 4b24 993d
000002e0: 1251 06be 6870 d4bd 9478 bcbd c0b7 0bbc
000002f0: 3b9b e5bb b226 1dbc de05 35bc fdb2 d43d
00000300: 68e7 04bc 0d94 d5bd bde6 503d e6a0 c33d
00000310: 9950 5b3d f365 d0bc e4d0 483d 2aef 973d
00000320: ed3c 473d 4275 c2bd 9545 de3d d8ac b43d
00000330: 4a16 d3bd 6600 b43a 9778 183d c0cc 053d
00000340: e535 fc3d 48f5 4b3d cf0c f13d 57fc 07bd
00000350: 9e08 ef3d 9b50 cc3d 5ea4 fdbd d52c ec3d
00000360: bb11 833d 6ed0 ad3d 07b0 c9bd e063 d53b
00000370: 2375 083d 946b 44bd ba6a 9fbd a64d 0e3d
00000380: a01c 91bb d73a 043e 0306 a9bc ea9b 03be
00000390: 66c5 99bd 522d e23d 5aeb 953d 4eb6 333d
000003a0: 1c2a b6bd ecd7 c3bd 4d49 7c3d b871 e53c
000003b0: eeff f13d 3183 5a3d 1670 753d 4744 363d
000003c0: 9b08 b4bd cc44 94bd 26b0 01bd c059 f7bb
000003d0: 5c75 aebd c4fd 13bc a8bc 083d 807b 84bd
000003e0: 49a5 cb3d fee6 c6bc 425e 6a3d ca0f adbd
000003f0: bbbf 183d 8de2 8abd 8ae4 84bd 8bd2 4b3c
0.045891672 -0.060144797 -0.05920358 -0.05425936 -0.114496276 -0.1038026 0.0046531707 0.020657582
0.0986201 0.115112506 0.03620784 0.07617436 -0.0049787643 -0.017584141 0.08014953 -0.07788694
-0.012991226 -0.10046668 -0.042514186 -0.035806138 -0.050383568 0.017505113 -0.021645851 0.029040791
-0.017757554 0.12997301 -0.0039554792 0.09926009 0.05257887 0.047797576 -0.022459215 -0.042322956
-0.0031703413 0.025257211 0.030457087 -0.007971712 -0.035006344 0.034465387 0.07967068 -0.10144936
-0.11150086 0.027861774 -0.11009024 -0.08492437 0.021164358 0.05008273 -0.08835825 0.07233921
-0.06289365 0.11383126 -0.018394541 -0.09770329 -0.045682773 -0.13024218 0.042396843 -0.0022916177
0.12575649 0.092665926 0.098516375 0.08497158 0.04990027 0.06075785 0.10639182 0.021326557
0.050024003 -0.07995348 0.06399661 -0.044639982 0.05534431 -0.019867316 -0.031186774 -0.072252035
0.019364517 -0.014815468 0.10485568 -0.053746447 0.01648399 0.09838365 0.043250322 -0.0037727356
-0.07801729 -0.10972596 -0.07380889 0.04489854 0.02875422 -0.078166835 -0.028798036 -0.036282834
-0.028276455 -0.09168676 0.031340033 -0.009247884 0.034567527 0.07725665 -0.10649125 -0.12491962
-0.11007801 0.023611797 0.12623456 0.0121305855 0.025544018 0.01552166 0.07469258 0.019708196
-0.089034006 -0.06857395 -0.120261684 -0.04854949 -0.0438108 0.07127734 0.08614083 -0.0052787764
-0.070634216 0.071140625 0.053314548 0.08290617 0.046640202 -0.031060077 0.09983382 -0.091615684
-0.100529455 -0.032048736 0.114728615 0.043281693 0.09457127 0.12706462 0.11341979 -0.07016211
-0.00766263 -0.076015376 -0.05187722 -0.012111839 -0.111341305 -0.017311953 0.047968745 -0.10886562
-0.09154136 0.09724153 -0.10162137 0.09961598 -0.00507867 -0.0020387967 -0.11432721 -0.094680846
-0.10613754 0.056997564 0.066311345 -0.008097695 0.1125219 0.033302076 -0.08108742 0.030555325
0.03479485 0.0022043488 -0.040470768 -0.08265674 -0.109473586 -0.030450553 0.06754915 0.0068664565
-0.10057889 0.012097726 -0.03739574 0.016297998 0.012288183 -0.1211814 0.057162613 0.08643954
-0.0771331 -0.07278359 -0.03113897 0.024289563 -0.067695126 -0.10175196 -0.030098531 0.0865886
-0.06877663 0.06304016 0.096559756 0.08696103 0.109611884 0.10418443 -0.082869545 0.074776255
-0.13116863 -0.10373002 -0.09202686 -0.008527696 -0.0070070303 -0.009591745 -0.011048762 0.10385702
-0.008111812 -0.10428629 0.0510013 0.09552173 0.05354366 -0.025439238 0.04902734 0.07418664
0.048642088 -0.094950214 0.108531155 0.0882203 -0.10306986 0.0013733029 0.03722438 0.032665968
0.12314967 0.049794465 0.11770021 -0.033199634 0.116715655 0.09976312 -0.12384866 0.115319885
0.06399866 0.084870204 -0.09848028 0.00651215 0.033314835 -0.047954157 -0.07784028 0.03474202
-0.004428461 0.1291307 -0.02063275 -0.12852445 -0.07508354 0.110438004 0.073202804 0.04387503
-0.088947505 -0.09562668 0.061593343 0.028008327 0.11816393 0.05334777 0.059921347 0.044498708
-0.08790704 -0.072396845 -0.03166213 -0.007548541 -0.08518478 -0.00903267 0.03338304 -0.06468868
0.09943635 -0.024280068 0.057218798 -0.08450277 0.037292223 -0.067814924 -0.06488903 0.012440334
