models/haptic/intialstate_100_4.pt (torch_old, 21858 bytes, 5 tensors)

fcn1.weight f4 [32, 32]
0	0xbcfe5718	-0.031047389
1	0x3cbc707a	0.023002852
2	0x3e33bbb8	0.17552078
3	0xbe2d96ea	-0.169521
4	0xbde6f0ac	-0.11276373
5	0xbe10fce2	-0.14158967
6	0xbda8dc90	-0.08245194
7	0xbd9079e2	-0.07054497
8	0xbd18bd0f	-0.037289675
9	0xbddb0d0e	-0.10695849
10	0xbde0d3dd	-0.1097791
11	0x3da6ff77	0.08154195
12	0x3db995c1	0.090617664
13	0x3e30687b	0.17227356
14	0x3dda3c96	0.10656087
15	0xbce4ff1e	-0.02795368
16	0x3d39e44e	0.045383744
17	0xbdcbd79e	-0.09953235
18	0xbe16d494	-0.1472953
19	0xbc8e3b9d	-0.01736241
20	0x3d3cc800	0.046089172
21	0x3df36084	0.11883643
22	0x3e144b49	0.14481844
23	0xbc8ff5c9	-0.017573254
24	0xbe27beeb	-0.16381423
25	0x3c9ad931	0.018902393
26	0xbe21ad6d	-0.15788813
27	0xbdd2490f	-0.10267841
28	0x3dff4dd2	0.12466015
29	0xbe0fa149	-0.14026369
30	0x3e189aa1	0.14902736
31	0x3da327c2	0.079665676
32	0x3da759d3	0.081714295
33	0x3e016d18	0.12639272
34	0x3d230244	0.039797083
35	0x3da3ce14	0.07998291
36	0xbcf07cbc	-0.029356353
37	0x3e1911a5	0.14948137
38	0x3e3fd588	0.187338
39	0xbdfe70b1	-0.12423838
40	0x3e0055be	0.12532708
41	0xbe2f54d4	-0.17122203
42	0xbdc6ca10	-0.09706509
43	0xbdb40706	-0.08790402
44	0xbe22bb47	-0.15891753
45	0x3d3ae66f	0.045629915
46	0xbdb6f2be	-0.08933018
47	0xbe265716	-0.16244158
48	0x3cf64cd2	0.030065928
49	0x3e29d8b3	0.1658657
50	0x3e2cb06e	0.16864178
51	0x3d76c416	0.060245596
52	0x3dd0f97c	0.10203835
53	0x3d8ecbe9	0.069724865
54	0x3da942a4	0.08264664
55	0x3c10195d	0.00879511
56	0xbdae9110	-0.08523762
57	0xbc820e59	-0.015875982
58	0xbd9246e9	-0.07142431
59	0x3dee88d2	0.1164719
60	0xbd52a40d	-0.051425982
61	0x3dd89f1b	0.10577222
62	0x3e0bdf95	0.13659509
63	0xbd8cc558	-0.06873578
64	0x3dc9301c	0.09823629
65	0x3d5741f3	0.05255313
66	0xbe16942d	-0.14704962
67	0xbdb2b3ed	-0.08725724
68	0x3b2ebc25	0.0026662436
69	0x3e020905	0.12698753
70	0x3d8bdd96	0.068293735
71	0xbd685086	-0.056717418
72	0x3ceb85b7	0.028750284
73	0x3e151130	0.14557338
74	0xbd392b07	-0.04520705
75	0xbdcca0a4	-0.09991577
76	0xbd41a77c	-0.047278866
77	0x3e1401d8	0.14453828
78	0x3d54ec75	0.051983315
79	0x3d911412	0.07083906
80	0x3d0642ff	0.032778736
81	0x3e1d22f4	0.15345365
82	0x3df0c6a4	0.11756638
83	0x3d873b63	0.06603124
84	0x3db4ee54	0.0883452
85	0x3c6869a5	0.014185344
86	0x3e0b3574	0.1359461
87	0xbc24e054	-0.01006325
88	0x3e1b40e6	0.15161476
89	0x3d270052	0.04077179
90	0x3e1302f3	0.14356594
91	0x3d83616a	0.06415065
92	0xbcac47b9	-0.021030294
93	0x3cd071c7	0.025444878
94	0xbdd0ba19	-0.10191745
95	0xbddf7780	-0.10911465
96	0xbe1379f4	-0.1440199
97	0x3e249ba8	0.16075003
98	0xbdf7467b	-0.1207399
99	0xbe3140c2	-0.1730986
100	0x3df580d1	0.119874604
101	0xbd1dd5ee	-0.038534097
102	0x3dddb946	0.10826354
103	0xbdd1c234	-0.102421194
104	0xbe04f889	-0.12985434
105	0x3e0c943e	0.13728425
106	0xbdc52d86	-0.096278235
107	0xbdfe751d	-0.12424681
108	0xbb458f11	-0.0030145089
109	0xbe068219	-0.13135566
110	0xbe113aaa	-0.14182535
111	0x3e199a8c	0.15000361
112	0x3de1b9d9	0.11021776
113	0x3e0ca713	0.13735609
114	0x3de7d94e	0.113207445
115	0xbe0b67fb	-0.13613884
116	0xbdb5e89f	-0.088822596
117	0xbe2dd3c5	-0.16975315
118	0x3de19ba0	0.11016011
119	0xbd761714	-0.060080603
120	0x3d95d804	0.07316592
121	0x3d47c115	0.04876812
122	0xbd9067c5	-0.070510425
123	0x3cfbe7d6	0.030750196
124	0x3d90d1d8	0.070712745
125	0x3e1d15a6	0.1534029
126	0x3dc46143	0.09588864
127	0x3c1b4c4e	0.009478642
128	0x3e312495	0.17299111
129	0xbe171f62	-0.14758065
130	0xbbbb6b51	-0.00571958
131	0xbdf46b53	-0.11934533
132	0xbe2cf176	-0.16888985
133	0x3c2908d5	0.010317047
134	0xbe364e97	-0.17803417
135	0xbd3ab9a2	-0.04558719
136	0x3c24fe70	0.010070428
137	0xbe1c1eea	-0.15246168
138	0xbc13a7e0	-0.0090121925
139	0x3e0144ad	0.12623854
140	0xbe2087cc	-0.15676802
141	0xbe241a42	-0.16025642
142	0xbd797971	-0.06090683
143	0xbda9060e	-0.08253108
144	0xbe1fe198	-0.15613401
145	0x3e0c82a9	0.13721718
146	0xbda264d7	-0.0792939
147	0x3e2a07f7	0.16604601
148	0xbe09c108	-0.13452542
149	0x3df1e8fa	0.11812015
150	0xbd6ab2ea	-0.057299532
151	0xbd64fc6f	-0.055904802
152	0xbcba387a	-0.022732008
153	0x3e0c3e4c	0.1369564
154	0x3d373e04	0.044736877
155	0x3d8b467d	0.06800554
156	0xbd0dd2bb	-0.034624796
157	0xbdedf01b	-0.11618062
158	0xbe0f321b	-0.13983957
159	0x3de404c8	0.111337245
160	0x3e2f5625	0.17122705
161	0x3e008b5d	0.12553163
162	0xbe0c170d	-0.13680668
163	0x3d0f4d6c	0.034985945
164	0x3daf73e3	0.085670255
165	0x3debb593	0.11509242
166	0xbde56744	-0.11201337
167	0xbd4f67ce	-0.050636105
168	0x3dca5693	0.09879794
169	0x3df46622	0.11933543
170	0xbdc98d42	-0.09841396
171	0x3de0efc2	0.1098323
172	0xbe1296b5	-0.14315303
173	0xbe2d1231	-0.1690147
174	0x3c21f719	0.009885573
175	0xbe07c6f7	-0.13259493
176	0xbe0aa392	-0.1353896
177	0xbb3ad0e4	-0.0028505856
178	0x3d9cc97b	0.07655617
179	0xbd9145f2	-0.07093419
180	0xbd7bc91b	-0.061471086
181	0xbda60a91	-0.08107484
182	0xbe37db6d	-0.17954798
183	0x3dde7e3d	0.10863922
184	0x3e0f55f4	0.13997632
185	0x3e191af6	0.14951691
186	0xbca283be	-0.01983821
187	0x3da30454	0.0795981
188	0xbe2e0dd6	-0.16997465
189	0xbdf25625	-0.11832837
190	0xbe375e24	-0.17907006
191	0x3da634d4	0.08115545
192	0x3d3c4cb7	0.0459716
193	0x3df12c6c	0.11776051
194	0xbd26900c	-0.040664718
195	0x3d05d518	0.032673925
196	0xbd9d9e1a	-0.07696171
197	0xbd9505f8	-0.07276529
198	0x3c27f71a	0.010251785
199	0x3dd40396	0.103522465
200	0x3de653bd	0.112464406
201	0x3e1d363b	0.15352719
202	0x3db372d4	0.08762136
203	0x3d0bfed3	0.034178566
204	0x3e21e8cf	0.15811466
205	0x3e2e5872	0.17025927
206	0x3d874d6e	0.066065654
207	0x3e39679d	0.18105932
208	0x3c948181	0.018128159
209	0xbc4ee1ab	-0.012627046
210	0x3e3182bc	0.17335027
211	0xbccfc676	-0.025363188
212	0x3dfb8102	0.12280466
213	0x3e23fb5d	0.16013856
214	0x3d9e3eb5	0.07726804
215	0x3ddd2c60	0.107994795
216	0xbdf6afcb	-0.120452486
217	0x3e2ae09e	0.16687247
218	0xbdcf7f50	-0.10131705
219	0x3dff13c9	0.124549456
220	0x3c63fd81	0.0139154205
221	0x3e07a3ce	0.1324608
222	0x3d882a12	0.06648649
223	0x3e3041c1	0.17212583
224	0x3d486b5e	0.04893052
225	0xbdf69a73	-0.120411776
226	0x3e2e8c3b	0.17045681
227	0x3cbbe43c	0.022935979
228	0x3d330579	0.04370639
229	0x3e335da0	0.17516184
230	0xbc76e97f	-0.015070318
231	0xbddb551a	-0.10709591
232	0x3d03babc	0.032160506
233	0x3d75d600	0.06001854
234	0xbe0c65aa	-0.13710657
235	0xbe2ba939	-0.16763772
236	0x3d3a156b	0.045430582
237	0x3e08fa1a	0.13376656
238	0xbe2daa95	-0.16959603
239	0xbbfffa59	-0.007811826
240	0x3df02741	0.11726237
241	0xbe0d056c	-0.137716
242	0xbdd498c0	-0.10380697
243	0xbd50688f	-0.050880965
244	0xbdac1050	-0.08401549
245	0x3cd971f5	0.026543597
246	0x3d7cd2a9	0.06172434
247	0x3e1559a3	0.14584975
248	0xbdff7551	-0.12473548
249	0xbdb5fbe5	-0.08885936
250	0xbd0e9a17	-0.03481492
251	0x3dc20a55	0.09474627
252	0xbc47990b	-0.012182484
253	0xbe0f68e3	-0.14004855
254	0xbe0bbe2a	-0.1364676
255	0x3c183590	0.009290114

fcn1.bias f4 [32]
0	0x3cda3ec9	0.026641266
1	0x3d201f32	0.03909225
2	0x3e29b64d	0.16573448
3	0x3e124756	0.14285025
4	0x3d58e16a	0.052949347
5	0x3d8b867e	0.06812762
6	0xbd2fa2d7	-0.042879906
7	0x3dc25a86	0.09489922
8	0xbe1de21a	-0.15418282
9	0x3c236e99	0.009975099
10	0xbd2a70cc	-0.041611478
11	0xbe056efb	-0.13030617
12	0xbe07ba1d	-0.1325459
13	0x3e41de72	0.18932512
14	0xbdfc2f29	-0.123136826
15	0xb9d9102c	-0.00041401514
16	0x3df174d4	0.11789861
17	0xbe30a975	-0.17252143
18	0x3d669d00	0.05630207
19	0x3c82bb71	0.01595852
20	0xbe0d034a	-0.13770786
21	0x3e2f3872	0.17111376
22	0xbd1580cc	-0.036499783
23	0x3df655fd	0.1202812
24	0xbe21e52a	-0.15810075
25	0xbd8e7fb7	-0.069579534
26	0xbc9dc7bd	-0.019260282
27	0xbc840234	-0.016114332
28	0xbc68d989	-0.014212021
29	0xbd8c3631	-0.06846274
30	0x3bac1f88	0.0052527823
31	0x3ba946e0	0.0051659197

fcn2.weight f4 [64, 32]
0	0x3df6faa6	0.12059526
1	0x3d3ba640	0.045812845
2	0x3e0f4e73	0.1399477
3	0xbc899708	-0.01679565
4	0x3d357568	0.04430142
5	0xbd7f6c66	-0.062359236
6	0xbdbcd0b1	-0.09219492
7	0x3dc241ce	0.094852075
8	0xbc00a770	-0.00785242
9	0xbc4eeee0	-0.012630194
10	0xbda136c0	-0.07871771
11	0xbd2bb2e4	-0.04191865
12	0x3e175f53	0.14782457
13	0x3d3bdd94	0.04586561
14	0xbe1c3ebd	-0.15258308
15	0xbde29b3d	-0.110647656
16	0x3c913178	0.017723784
17	0xbdcd29de	-0.10017751
18	0xbe10be49	-0.14135088
19	0x3e18431f	0.14869355
20	0xbe160ecf	-0.14654087
21	0xbe211ecf	-0.15734409
22	0x3e2aa2d7	0.16663681
23	0x3de8ffb6	0.11376898
24	0xbdc6bfd6	-0.097045586
25	0x3d89add6	0.0672261
26	0xbd3c99e8	-0.046045214
27	0x3e02ef97	0.12786709
28	0xbd4e4d58	-0.05036673
29	0xbe2c12f6	-0.16804108
30	0xbd15df98	-0.03659019
31	0x3de4053a	0.111338094
32	0xbde046fe	-0.10951041
33	0x3c63a31b	0.013893868
34	0x3d53d07c	0.051712498
35	0xbc6f8e0c	-0.014621269
36	0xbd9be8c4	-0.07612756
37	0xbe2b106a	-0.1670548
38	0x3dc1cef9	0.09463305
39	0x3cb7ce6a	0.022437293
40	0xbd6ed80e	-0.058311515
41	0xbd981d80	-0.07427502
42	0xbde85d02	-0.11345865
43	0x3b545add	0.0032402792
44	0xbd180066	-0.037109755
45	0xbd6e06f7	-0.05811211
46	0x3c439d57	0.011939368
47	0xbd9213f0	-0.07132709
48	0x3d470214	0.048585966
49	0x3d918bfa	0.071067765
50	0xbc80eb09	-0.015737073
51	0x3dc32ddb	0.095302306
52	0x3e3f8fb2	0.18707159
53	0xbe247eaa	-0.16063944
54	0xbd1aee54	-0.037824944
55	0xbd162bd8	-0.036662906
56	0xbde7561b	-0.1129572
57	0x3def79ee	0.11693178
58	0x3d8c4f7c	0.06851098
59	0x3b44a685	0.003000648
60	0xbddb7892	-0.10716356
61	0x3d266c44	0.040630594
62	0x3e115339	0.14191903
63	0x3de0f90e	0.109850034
64	0x3d45a4bb	0.048252802
65	0xbd2aa5c1	-0.04166198
66	0xbd3f3e2c	-0.04669015
67	0xbda0ab38	-0.078451574
68	0xbdf8e3ab	-0.12152799
69	0xbcc7573c	-0.024333589
70	0xbd43d3e8	-0.04780951
71	0x3e05b09f	0.13055657
72	0xbe026ae0	-0.12736082
73	0xbe0abe34	-0.13549119
74	0x3e2e942a	0.17048708
75	0xbdaa32b4	-0.08310452
76	0x3deec465	0.11658553
77	0x3da90ff6	0.082549974
78	0xbbf069bd	-0.0073368237
79	0x3e1bd8ca	0.15219417
80	0xbbb9f7ad	-0.005675277
81	0xbda88a71	-0.082295306
82	0x3c839d24	0.016066141
83	0x3dc0e964	0.09419516
84	0x3df8759c	0.12131807
85	0xbca8bf23	-0.020598954
86	0x3da593b2	0.08084811
87	0x3df15e9c	0.117856234
88	0xbc967fe4	-0.01837153
89	0xbdb27735	-0.08714143
90	0xbe31a429	-0.17347778
91	0x3e13cf43	0.14434533
92	0xbd463f58	-0.048400253
93	0x3c8986b7	0.01678787
94	0x3d9f0118	0.077638805
95	0x3cab1830	0.020885557
96	0xbe323acd	-0.17405243
97	0x3de9d09c	0.11416742
98	0xbdf92b91	-0.12166513
99	0x3dcf9815	0.10136429
100	0x3d8a644d	0.06757412
101	0x3e1691c2	0.1470404
102	0x3cfe18a7	0.031017615
103	0xbcd6590d	-0.02616551
104	0xbd8b126e	-0.067906246
105	0xbe051718	-0.12997091
106	0xbe0ba3a2	-0.1363664
107	0xbdbf6d04	-0.09346965
108	0x3e235da5	0.15953691
109	0xba96e874	-0.0011513368
110	0x3cf436c7	0.029811276
111	0xbc884415	-0.016634027
112	0xbda7372b	-0.08164819
113	0x3dd8048a	0.10547741
114	0x3c9dfb01	0.019284727
115	0x3dbf0b61	0.09328342
116	0xbe05c609	-0.13063826
117	0x3d7900ad	0.06079166
118	0x3e15a825	0.14614923
119	0xbcd5cf7e	-0.026099917
120	0x3dc2910a	0.0950032
121	0xbd6d614a	-0.05795411
122	0xbe31f2ca	-0.17377773
123	0xbddbd8c6	-0.107347056
124	0xbd61ae8b	-0.055098098
125	0x3e114ecd	0.14190216
126	0x3e30c8cd	0.172641
127	0x3d595ad4	0.053065136
128	0x3ccedae6	0.025250863
129	0xbc3986dc	-0.011323657
130	0xbe116d0c	-0.14201754
131	0xbbe4f208	-0.00698686
132	0x3dbb7ab0	0.0915426
133	0xbdedc1f4	-0.11609259
134	0x3e04b45c	0.12959427
135	0x3d2b7cfb	0.041867238
136	0xbdd81dab	-0.10552534
137	0xbe2befc6	-0.16790685
138	0xbd83c000	-0.064331055
139	0xbe360bf4	-0.17777997
140	0x3d582af4	0.05277534
141	0xbdcc77ef	-0.09983813
142	0xbe37079f	-0.17874001
143	0x3e255cc0	0.16148663
144	0x3d9594fc	0.07303807
145	0xbdb50fb0	-0.08840883
146	0x3e38c40a	0.18043533
147	0xbcece57b	-0.028918019
148	0xbd0bfbd1	-0.034175698
149	0xbe0f9124	-0.1402021
150	0x3dba548a	0.09098156
151	0xbd84737f	-0.06467342
152	0x3d1aabd2	0.037761517
153	0xbc1c7100	-0.009548426
154	0x3d736913	0.05942638
155	0x3bcb0639	0.00619581
156	0x3de37db8	0.11107963
157	0xbd8a8a8b	-0.06764706
158	0x3db3ad26	0.0877326
159	0xbc5ecda0	-0.0135988295
160	0xbdebe129	-0.11517555
161	0xbdc550cd	-0.09634552
162	0xbe08ee31	-0.13372113
163	0xbe0e93dd	-0.13923593
164	0x3d848c01	0.06472016
165	0x3d7cb8e5	0.061699767
166	0xbcf90222	-0.030396525
167	0x3e128d9c	0.14311832
168	0x3d1e8450	0.0387004
169	0xbd1dc3bc	-0.038516745
170	0x3dfd476e	0.1236714
171	0x3e20e445	0.15712078
172	0x3e154cfc	0.14580148
173	0x3de99b83	0.11406615
174	0xbe18ebda	-0.1493372
175	0xbe2c692a	-0.16836992
176	0x3d05af59	0.032637928
177	0x3df6df5a	0.1205432
178	0xbdcc75be	-0.09983395
179	0x3d6b17bb	0.057395678
180	0x3e161e96	0.14660105
181	0x3dbd0520	0.09229493
182	0xbdf38256	-0.11890094
183	0x3dcc6a93	0.09981265
184	0x3ce74b55	0.028234163
185	0x3e27105b	0.16314833
186	0x3e031511	0.12801005
187	0x3dc570c5	0.0964065
188	0x3e352b6f	0.1769235
189	0xbbd5d533	-0.0065256595
190	0x3d7b57a5	0.06136288
191	0xbe0f2128	-0.13977492
192	0x3deec5b5	0.116588034
193	0xbe1de74c	-0.15420264
194	0xbd118c73	-0.035534333
195	0x3a9ebb98	0.0012110351
196	0x3d11ba90	0.03557831
197	0xbdf70fca	-0.120635584
198	0x3db8fc54	0.09032503
199	0x3dec2912	0.11531271
200	0x3d423054	0.04740937
201	0xbde231c1	-0.11044646
202	0xbe0910b2	-0.13385275
203	0xbe223514	-0.1584056
204	0xbe1c0683	-0.15236859
205	0xbdf083fe	-0.117439255
206	0xbd2dca78	-0.042429417
207	0x3d04a001	0.032379154
208	0x3e3a0f58	0.18169916
209	0x3d749154	0.05970891
210	0xbe032ae7	-0.12809335
211	0xbdd11964	-0.10209921
212	0x3e2bc32d	0.16773672
213	0xbd11bc19	-0.035579775
214	0x3adaa880	0.0016682297
215	0xbd582df8	-0.052778214
216	0xbe133332	-0.14374998
217	0xbca5a170	-0.020218581
218	0x3ca1b7d0	0.019740969
219	0xbc9e81d9	-0.019349026
220	0xbe12be4e	-0.14330408
221	0xbe146b2c	-0.14494008
222	0xbb961922	-0.004580633
223	0xbd0ca718	-0.03433904
224	0xbe11395b	-0.14182036
225	0xbc501d24	-0.01270226
226	0x3cea85e3	0.028628295
227	0x3ddfc5d6	0.10926406
228	0xbe0d65de	-0.1380839
229	0x3df99043	0.12185719
230	0xbe109510	-0.14119363
231	0x3d98b8cc	0.07457122
232	0x3da8b9ae	0.082385406
233	0x3c8f45ce	0.01748934
234	0xbe3834f9	-0.17988957
235	0xbdb45324	-0.0880492
236	0xbda29a3e	-0.079395756
237	0x3c0f944d	0.008763385
238	0x3de4284e	0.111405
239	0x3d94ae6b	0.0725983
240	0x3d9e1371	0.07718552
241	0x3e1047c5	0.14089878
242	0x3dfba770	0.122877955
243	0x3e3d4241	0.18482305
244	0x3db37b4b	0.08763751
245	0xbd77bbd1	-0.06048185
246	0x3c2a4730	0.010392949
247	0xbe1d304a	-0.15350452
248	0xbde9cd9e	-0.114161715
249	0xbe0a4ac9	-0.13505091
250	0x3df052d3	0.117345475
251	0xbd6c894e	-0.05774813
252	0x3e2486a7	0.16066991
253	0xbd8b244d	-0.06794033
254	0xbe0be3a1	-0.13661052
255	0xbd98d4ba	-0.07462449

fcn2.bias f4 [64]
0	0xbe0b5277	-0.13605677
1	0x3d097c85	0.033566017
2	0x3c5d95fc	0.013524529
3	0x3d002c4b	0.03129224
4	0x3d9e65a7	0.077342324
5	0x3c95b527	0.018274857
6	0x3e254290	0.16138673
7	0x3d87d113	0.066316746
8	0xbe0724db	-0.13197653
9	0x3ddbb8cb	0.10728606
10	0xbd40d680	-0.047079563
11	0x3d0c4b45	0.03425147
12	0xbdbe6398	-0.0929634
13	0x3b315971	0.0027061368
14	0x3d8acfcb	0.067779146
15	0x3e0de31f	0.13856171
16	0xbe2655ac	-0.16243619
17	0xbdcdbaa6	-0.10045366
18	0x3d26c88c	0.0407186
19	0x3dc068e1	0.09395004
20	0x3e07a27d	0.13245578
21	0x3e1a5a33	0.15073471
22	0xbe282946	-0.16421995
23	0xbc8534b1	-0.016260477
24	0x3d3c1a6b	0.04592363
25	0x3de686ba	0.11256166
26	0x3cb502f8	0.022096142
27	0x3e2e067a	0.16994658
28	0x3d153599	0.036428068
29	0x3c1ca1a6	0.009560024
30	0xbd59b28e	-0.0531488
31	0x3dd8e4bb	0.10590502
32	0xbc9ad330	-0.01889953
33	0xbdad81cc	-0.084720224
34	0x3d2c1d86	0.042020343
35	0xbe2d0522	-0.1689649
36	0xbe09581c	-0.13412517
37	0x3df19b1e	0.117971644
38	0xbddc8fb9	-0.107696004
39	0xbdd3aab0	-0.103352904
40	0xbd9fc99e	-0.07802127
41	0xbe2dfeb0	-0.16991687
42	0xbe25b8c3	-0.16183762
43	0xbb8386b4	-0.0040138606
44	0xbde92c51	-0.11385406
45	0xbe00b20f	-0.12567924
46	0xbd13acc0	-0.03605342
47	0xbdf9f73e	-0.12205361
48	0x3e4144f6	0.18873963
49	0xbe217fd2	-0.15771416
50	0x3c1eae20	0.009685069
51	0x3dc338d6	0.09532325
52	0x3d5f829e	0.054567926
53	0x3e418294	0.18897468
54	0xbde4c6e6	-0.11170749
55	0x3c5e3650	0.013562754
56	0x3c6b7c59	0.0143729085
57	0xbd346b60	-0.044047713
58	0x3d33e190	0.043916285
59	0xbd24cbe3	-0.040233504
60	0x3d936c6c	0.07198414
61	0xbd3da68c	-0.04630141
62	0xbd940810	-0.072281
63	0xbcc1923b	-0.023629298

fcn3.weight f4 [32, 64]
0	0x3d0d32e0	0.034472346
1	0x3ca719fb	0.02039813
2	0x3d90c332	0.070684806
3	0x3d46964c	0.048483178
4	0x3ddd5ebb	0.10809084
5	0x3b3c483a	0.0028729574
6	0x3d7d0353	0.06177075
7	0xbba8c0bb	-0.0051499284
8	0xbddd2838	-0.10798687
9	0x3df6bb3b	0.1204743
10	0x3d8dc820	0.069229364
11	0xbdacb86f	-0.084336154
12	0xbdb619f1	-0.08891667
13	0x3d87223d	0.06598327
14	0xbde026dc	-0.10944912
15	0x3dd961fc	0.10614392
16	0x3d759250	0.059953988
17	0xbd96f3ac	-0.073706955
18	0xbde12304	-0.10993007
19	0x3d038c09	0.03211597
20	0xbdfba34d	-0.122870065
21	0xbc9886f2	-0.018619034
22	0xbdd9bf44	-0.10632184
23	0xbd6c26d2	-0.05765421
24	0xbde52cd4	-0.11190191
25	0x3e021c68	0.12706149
26	0xbdc1af49	-0.09457261
27	0x3dcab74a	0.09898241
28	0xbd708853	-0.05872376
29	0x3d044e3e	0.03230118
30	0x3cbd8c25	0.023138115
31	0xbcde59c0	-0.027142406
32	0x3d280eb4	0.041029647
33	0xbdac83d9	-0.084235854
34	0x3de48afc	0.11159322
35	0xbd60fd53	-0.05492909
36	0x3da7c432	0.08191718
37	0x3e0617aa	0.13094965
38	0xbced5f97	-0.028976245
39	0xbd972de8	-0.07381803
40	0xbd9747c8	-0.07386738
41	0xbdcb95d2	-0.09940685
42	0x3da5fa26	0.08104353
43	0x3d75f6db	0.060049873
44	0xbaa5b780	-0.0012643188
45	0x3e0c67d9	0.1371149
46	0xbdbcdd14	-0.09221855
47	0xbbbd3af9	-0.0057748524
48	0xbdee3414	-0.11631027
49	0xbdcf528c	-0.101231664
50	0xb9828790	-0.00024896534
51	0xbdaadefe	-0.08343314
52	0xbddac06e	-0.10681234
53	0xbcf9091d	-0.030399853
54	0xbda24bd7	-0.079246216
55	0xbdd1f308	-0.10251433
56	0xbc7db5a7	-0.015485204
57	0xbdfe60aa	-0.12420781
58	0x3d484a85	0.048899192
59	0xbc8d2bca	-0.017232794
60	0xbd0bc2fc	-0.0341215
61	0x3c8383cc	0.016054057
62	0xbd40c658	-0.047064155
63	0xbd605344	-0.05476691
64	0xbc12f410	-0.008969322
65	0x3d809d71	0.062800296
66	0xbd8a0f19	-0.06741161
67	0xbd2f6558	-0.04282126
68	0xbd827cc0	-0.063714504
69	0xbc8c9f50	-0.01716581
70	0x3d3f5f13	0.04672153
71	0x3da06e3e	0.07833527
72	0xbd569474	-0.05238767
73	0x3dd3c8da	0.10341044
74	0x3dbe341a	0.09287281
75	0x3d3b74c6	0.04576566
76	0x3d1e58ad	0.038658787
77	0xbd61512a	-0.055009045
78	0xbc694af0	-0.014239058
79	0x3e0a7788	0.1352216
80	0xbdbe5ac0	-0.09294653
81	0xbca256d8	-0.019816801
82	0x3dc4e824	0.0961459
83	0x3dc3b077	0.095551424
84	0x3dd22f70	0.10262954
85	0xbd9dcb97	-0.07704847
86	0x3df39b1e	0.11894821
87	0x3d25b157	0.040452328
88	0xbdcbf37f	-0.099585526
89	0x3db9a869	0.09065325
90	0x3dfabcb3	0.12243023
91	0xbc85c956	-0.016331356
92	0xbded5a3d	-0.11589477
93	0xbd951d43	-0.07280972
94	0x3dd1fba8	0.10253078
95	0x3cb7413b	0.022369971
96	0xbd27282d	-0.0408098
97	0xbd926a8b	-0.07149228
98	0xbd93de79	-0.07220168
99	0xbda148bb	-0.078752
100	0xbddb13b4	-0.106971174
101	0x3ddee521	0.108835466
102	0xbda90194	-0.08252254
103	0xbd3557eb	-0.0442733
104	0xbded482a	-0.1158603
105	0xbde8cc72	-0.1136712
106	0x3e027e30	0.12743449
107	0x3db07610	0.08616269
108	0xbd8cca98	-0.06874579
109	0x3d605e39	0.054777358
110	0x3c0b8100	0.008514643
111	0xbcebb758	-0.028773949
112	0x3ce88496	0.028383534
113	0xbda44288	-0.08020502
114	0x3c22a415	0.0099268155
115	0x3dd0e5dc	0.10200092
116	0x3d3d3e91	0.046202246
117	0x3d172482	0.03690005
118	0x3db99309	0.09061248
119	0x3decbd12	0.115595
120	0xbdcd576d	-0.10026441
121	0x3c880970	0.016606063
122	0x3b96d04e	0.0046024686
123	0xbdbf766e	-0.093487605
124	0xbc529bda	-0.012854541
125	0x3d6a61a9	0.057222042
126	0x3caec760	0.021335304
127	0xbd910a7a	-0.07082076
128	0x3dabca7e	0.08388232
129	0x3d1876ca	0.03722266
130	0xbd9ea36c	-0.07746014
131	0xbd6e84fe	-0.0582323
132	0xbd6de1bb	-0.0580766
133	0xbda6350e	-0.08115588
134	0x3bd05ba4	0.0063585807
135	0xbdd058c2	-0.10173179
136	0xbdb9640c	-0.090522856
137	0x3d8165f4	0.06318274
138	0x3cf59bd7	0.029981537
139	0x3c85eaf9	0.016347395
140	0x3d1697d3	0.036765885
141	0x3d955eb9	0.072934575
142	0xbdcdce79	-0.10049147
143	0x3d58bb04	0.052912727
144	0x3de2f9dc	0.11082813
145	0x3dab3ab2	0.083608046
146	0xbd652190	-0.05594021
147	0xbdb18819	-0.08668537
148	0xbd5eab33	-0.054362487
149	0xbc8542b9	-0.016267167
150	0xbdc36400	-0.09540558
151	0x3ca5a018	0.02021794
152	0x3dfde646	0.12397437
153	0x3c8ae43c	0.016954534
154	0xbdb75328	-0.08951408
155	0x3df4fee7	0.11962681
156	0xbd9545ea	-0.07288726
157	0x3d8280e8	0.06372243
158	0x3dd1c0e9	0.10241873
159	0x3ca5500c	0.02017977
160	0xbda677de	-0.081283316
161	0x3bb5c0c6	0.005546662
162	0x3b4bd1a2	0.0031100293
163	0xbd9afc0f	-0.075676076
164	0xbc596770	-0.01326929
165	0xbd2f5bea	-0.042812265
166	0xbd6b525a	-0.057451583
167	0x3da2f40c	0.079567045
168	0x3da9dd8e	0.08294211
169	0x3d21b22c	0.03947656
170	0xbdcc32cb	-0.099706255
171	0x3d7645ab	0.060125034
172	0xbd419a1c	-0.04726611
173	0x3d34eb3d	0.044169653
174	0xbda60ee8	-0.08108312
175	0x3c34957a	0.011021966
176	0x3dfdf678	0.12400526
177	0xbcf65c20	-0.030073225
178	0xbde398f6	-0.11113159
179	0xbc82c04a	-0.015960831
180	0x3dde7910	0.108629346
181	0x3e060f08	0.13091671
182	0xbd218ea6	-0.03944268
183	0x3db9c9d4	0.09071699
184	0x3dba8fe7	0.091094784
185	0x3dd47882	0.103745475
186	0xbe00d280	-0.125803
187	0x3d382ff4	0.044967607
188	0xbdb8d2d7	-0.090245895
189	0x3d6b5a97	0.05745944
190	0xbddf454e	-0.10901891
191	0x3d61da36	0.055139743
192	0x3d9ed674	0.077557474
193	0x3d8aad44	0.06771329
194	0xbc7f5f1c	-0.015586641
195	0x3d86a137	0.06573718
196	0xbd32bca3	-0.04363693
197	0x3dccbb70	0.09996688
198	0x3c231431	0.0099535445
199	0x3da638f0	0.08116329
200	0xbce453c0	-0.027871966
201	0x3cb35577	0.021891339
202	0xbd84613b	-0.06463858
203	0x3dc08a65	0.09401397
204	0x3d68a7ab	0.056800526
205	0xbd44d8ca	-0.04805831
206	0x3ddf4e4d	0.109036066
207	0xbe09a1ac	-0.13440579
208	0xbdf4dcca	-0.11956175
209	0xbde37190	-0.11105645
210	0xbd72b1a0	-0.059251428
211	0x3da03a06	0.07823567
212	0x3dc886c7	0.09791332
213	0x3d0b6453	0.034031224
214	0xbdf700ec	-0.12060723
215	0x3949e85a	0.00019255411
216	0x3dfd06d8	0.12354821
217	0x3d47e06e	0.048798017
218	0x3de131b1	0.10995806
219	0x3dd370e4	0.103242666
220	0xbd9f783f	-0.07786607
221	0xbd88cf14	-0.06680122
222	0xbd9e5ae0	-0.07732177
223	0x3d8316ab	0.06400808
224	0x3ccd56c8	0.025065795
225	0xbc26f454	-0.010190088
226	0x3d11b083	0.035568725
227	0xbd407958	-0.046990722
228	0xbd7703dc	-0.060306415
229	0xbd083fe2	-0.03326405
230	0xbcaf2c17	-0.021383328
231	0xbd948282	-0.07251455
232	0x3ddbb5a4	0.107280046
233	0x3dd2d808	0.10295111
234	0xbdb95fd5	-0.09051482
235	0xbd9cf0ba	-0.076631024
236	0x3cca1be8	0.02467151
237	0xbbca58f3	-0.0061751544
238	0xbdab8da2	-0.08376624
239	0x3d2c842d	0.04211824
240	0x3d8efa14	0.06981292
241	0x3d6f4284	0.058413044
242	0x3dd46b0c	0.1037198
243	0xbdc4524a	-0.09586008
244	0xbd509f32	-0.05093307
245	0xbdb03b31	-0.0860504
246	0xbce2cc35	-0.027685264
247	0xbd8f671c	-0.070020884
248	0xbd9cdd17	-0.07659357
249	0xbda4e538	-0.080515325
250	0xbd8a06e5	-0.06739596
251	0x3dfc500c	0.12319955
252	0xbe00efa1	-0.12591411
253	0xbd489aab	-0.048975628
254	0xbcf84978	-0.03030847
255	0x3c88a4d0	0.016680151
