models/haptic/intialstate_100_1.pt (torch_old, 21858 bytes, 5 tensors)

fcn1.weight f4 [32, 32]
0	0xbe03241d	-0.12806745
1	0xbd71d19a	-0.059037782
2	0xbe0658d3	-0.13119821
3	0x3dd6be95	0.104855694
4	0xbcd12415	-0.0255299
5	0x3db17e54	0.08666673
6	0x3c9524b7	0.018205984
7	0x3d9720a3	0.07379272
8	0x3be18d14	0.006883273
9	0xbcf6d200	-0.030129433
10	0xbd9d3f40	-0.076780796
11	0xbd9d6fba	-0.07687326
12	0xbcaecf7c	-0.02133917
13	0x3de94f8d	0.11392126
14	0x3deb15a7	0.11478739
15	0xbe1cce73	-0.15313129
16	0xbd41eb62	-0.04734362
17	0x3d9b329f	0.075780146
18	0xbde1aa3a	-0.11018796
19	0x3e15fdc7	0.1464759
20	0x3dcbe755	0.099562325
21	0xbd197e7a	-0.037474133
22	0xbe0f8cf1	-0.14018609
23	0x3d4cd3ef	0.050006803
24	0x3e1ee565	0.15517195
25	0x3e14e6b4	0.14541131
26	0x3e39c2ac	0.18140668
27	0x3cadc3e7	0.021211578
28	0x3e2ed848	0.17074692
29	0xbdb91c8f	-0.0903865
30	0xbd52bdb7	-0.051450457
31	0xbc453672	-0.012036907
32	0xbdf38e47	-0.118923716
33	0xbd30ae8c	-0.04313521
34	0xbe0c07f6	-0.13674912
35	0x3e23195b	0.15927641
36	0x3d8b1c40	0.06792498
37	0xbd488fd5	-0.048965294
38	0xbb8e05d0	-0.004334189
39	0xbdbb9bd3	-0.091605805
40	0xbe2e784a	-0.17038074
41	0xbd9bf2b3	-0.076146506
42	0x3db799cc	0.08964881
43	0x3809454f	3.2727894e-05
44	0x3c1f436b	0.009720664
45	0x3dcce677	0.10004895
46	0xbd0bc632	-0.03412456
47	0xbda8cacd	-0.08241806
48	0x3cdb0df2	0.026740048
49	0xbce1308a	-0.027488966
50	0xbd272092	-0.040802546
51	0x3d0cdfc8	0.034393102
52	0xbbc5e6cd	-0.0060394765
53	0xbc3fe3b1	-0.011712001
54	0x3d7bce2f	0.06147593
55	0xbd19d62e	-0.037557773
56	0x3daf1c0f	0.085502736
57	0xbd3675ae	-0.04454582
58	0x3cf889ae	0.030339088
59	0x3e1e9aea	0.15488783
60	0xbd855d27	-0.06511908
61	0xbdcecec1	-0.10098029
62	0x3d1e6d59	0.0386785
63	0xbd303798	-0.04302177
64	0xbde8c7dc	-0.11366245
65	0x3dc9d92e	0.09855877
66	0x3e0ed56b	0.139486
67	0x3da4faf2	0.080556765
68	0x3b80dcfa	0.0039325925
69	0x3d0765b8	0.03305599
70	0xbe23ae19	-0.15984382
71	0xbd60a602	-0.054845817
72	0x3cd7dc2a	0.0263501
73	0x3dae94b9	0.0852446
74	0x3e12b0af	0.14325212
75	0x3dc321e4	0.095279485
76	0x3e0d6e92	0.1381171
77	0xbe241189	-0.16022314
78	0x3dbd6a65	0.09248809
79	0x3d405b35	0.04696198
80	0xbd9527b0	-0.072829604
81	0xbe27dbbf	-0.1639242
82	0x3e3697f3	0.17831402
83	0xbd3fc993	-0.046823096
84	0xbe13f6e8	-0.14449656
85	0xbdeaa456	-0.11457126
86	0x3d684c60	0.056713462
87	0x3df8ea9e	0.12154125
88	0x3cfea739	0.031085597
89	0x3d259056	0.040420853
90	0xbc40b3e3	-0.011761638
91	0x3d2d0d47	0.04224899
92	0xbb0d630d	-0.0021573931
93	0x3e1e055f	0.15431736
94	0x3da2149a	0.07914086
95	0xbd80fcce	-0.06298219
96	0x3d99c462	0.0750816
97	0xbd991eb6	-0.07476561
98	0xbdcb2117	-0.09918421
99	0xbd780d29	-0.060559426
100	0x3e12aac1	0.1432295
101	0x3da6fd7a	0.081538156
102	0xbe352350	-0.17689252
103	0x3e0fae03	0.14031224
104	0xbe1229cf	-0.14273761
105	0x3e06d460	0.13166952
106	0x3d148847	0.036262777
107	0xbd1b2e9d	-0.03788625
108	0x3c1f7b34	0.009733964
109	0xbdb5ee97	-0.08883398
110	0x3e30d632	0.17269209
111	0xbd60a17e	-0.05484151
112	0xbd27df04	-0.04098417
113	0xbe0352a0	-0.12824488
114	0x3e032209	0.12805952
115	0x3e1f00e2	0.1552768
116	0x3d2a3e12	0.0415631
117	0xbc879520	-0.0165506
118	0x3d8f3e4a	0.069943026
119	0xbd862f0a	-0.06551941
120	0x3e40407b	0.18774597
121	0xbd290175	-0.041261155
122	0x3d9cc697	0.076550655
123	0x3e226854	0.1586011
124	0xbd0bcdd7	-0.03413185
125	0x3e1aecb3	0.15129356
126	0x3de75b13	0.11296668
127	0x3c214627	0.009843386
128	0xbd56849e	-0.052372567
129	0x3e1303b3	0.1435688
130	0x3d950e85	0.0727816
131	0x3cb5b6ce	0.022181895
132	0xbd4805ed	-0.048833776
133	0xbe245480	-0.16047859
134	0xbe16beae	-0.14721176
135	0x3a6085ea	0.00085648766
136	0xbe21e5ac	-0.15810269
137	0xbe24cc33	-0.16093521
138	0xbd059700	-0.032614708
139	0xbb765e5e	-0.0037592868
140	0x3e146622	0.14492086
141	0xbdd3ce1d	-0.10342047
142	0xbe2335dc	-0.15938514
143	0x3c4cdca7	0.0125037795
144	0xbe1b78d2	-0.15182808
145	0xbb8f639e	-0.004375889
146	0x3e0ebc9e	0.13939139
147	0xbe099f9e	-0.13439795
148	0x3d57cc86	0.052685283
149	0xbd110680	-0.03540659
150	0x3e410bd3	0.18852167
151	0x3c85e797	0.016345782
152	0xbbd3ac08	-0.0064597167
153	0xbce35af6	-0.027753334
154	0xbd987ab7	-0.07445281
155	0x3e0e7504	0.13911825
156	0xbda1e56e	-0.07905088
157	0x3e31b418	0.17353857
158	0x3e05aee7	0.13055001
159	0xbe0cb331	-0.13740231
160	0x3e04f2fb	0.12983315
161	0x3925ae14	0.00015800475
162	0x3df8dc82	0.121514335
163	0xbd8f2b07	-0.06990629
164	0x3d322d98	0.043500513
165	0x3c95ec1c	0.018301062
166	0x3cc6d820	0.024272978
167	0xbc9f0e7f	-0.019416092
168	0xbbb61726	-0.0055569587
169	0xbda0ebc1	-0.078574665
170	0x3e171fbc	0.147582
171	0x3db9b776	0.090681955
172	0xbda3c8d9	-0.07997293
173	0xbc9bf328	-0.019036844
174	0xbe11852b	-0.14210956
175	0xbd2c5982	-0.04207755
176	0x3d181f3f	0.037139174
177	0x3e37b605	0.17940529
178	0xbe28efde	-0.16497752
179	0xbcfe2b46	-0.031026494
180	0xbdea012d	-0.114260055
181	0x3e05fd56	0.13084921
182	0xbe1f5a37	-0.15561758
183	0x3d4bf0d4	0.04979022
184	0x3d487f19	0.048949335
185	0x3dd83ed4	0.105588585
186	0x3d398bbd	0.04529928
187	0x3d042f02	0.032271393
188	0x3e38c58f	0.18044113
189	0xbca483ef	-0.020082442
190	0x3e10b6b8	0.14132202
191	0x3dd32d31	0.10311354
192	0xbcf0d8ed	-0.029400313
193	0xbd39b97b	-0.045342904
194	0x3dd3807c	0.10327241
195	0xbd80924a	-0.062779024
196	0x3c3adf23	0.011405739
197	0xbe1a0421	-0.15040638
198	0x3dd3cb09	0.1034146
199	0xbe1cc46b	-0.15309303
200	0x3d1d2218	0.038362592
201	0xbe1055ae	-0.14095184
202	0x3d5ecef0	0.05439657
203	0xbc6ccecd	-0.014453602
204	0xbd992bd0	-0.0747906
205	0xbc86a759	-0.01643722
206	0x3d4169a0	0.047219872
207	0xbbac8207	-0.005264524
208	0x3e164748	0.14675629
209	0xbe09013a	-0.13379374
210	0x3e09f368	0.13471758
211	0xbdf7aa38	-0.120930135
212	0xbd773ee3	-0.060362708
213	0x3ba49576	0.0050227
214	0xbdb9fdac	-0.09081587
215	0x3dc4531b	0.095861636
216	0x3e3bd1fb	0.1834182
217	0xbd341266	-0.04396286
218	0xbc9b925a	-0.018990684
219	0x3d310d04	0.043225303
220	0x3e1f1b3b	0.15537731
221	0x3e42fbd6	0.1904138
222	0x3d87700f	0.0661317
223	0x3d6d758a	0.057973422
224	0x3e1ff39b	0.15620272
225	0xbdb28808	-0.08717352
226	0x3dc249d8	0.09486741
227	0xbdd8a667	-0.10578614
228	0x3d7ddbd1	0.06197721
229	0xbe22be37	-0.15892874
230	0xbbe225f5	-0.0069014975
231	0x3e33eb27	0.17570172
232	0x3e390ebe	0.1807203
233	0xbd339c05	-0.043849964
234	0xbdc739f2	-0.09727849
235	0xbcf72e2a	-0.03017338
236	0x3dd5925a	0.10428305
237	0x3d08eeab	0.033430737
238	0xbd933018	-0.071869075
239	0xbdb4c7e4	-0.088271886
240	0x3dd5bd2c	0.10436472
241	0xbe02f0a9	-0.12787117
242	0xbda7864b	-0.08179911
243	0xbd1b11ce	-0.037858777
244	0x3e1dc6a3	0.15407805
245	0x3dff32ce	0.12460862
246	0x3dfb3cbf	0.12267446
247	0xbe060273	-0.13086872
248	0x3d4bf5b4	0.049794868
249	0xbcbf2cfa	-0.023336876
250	0x3d9d0744	0.076674014
251	0x3dd8948b	0.10575207
252	0xbe19174d	-0.14950295
253	0xbe1dbe43	-0.1540461
254	0x3c148336	0.009064486
255	0xbe3e1ec8	-0.1856643

fcn1.bias f4 [32]
0	0x3dc98c92	0.09841265
1	0x3c916088	0.017746225
2	0x3b091f37	0.0020923147
3	0x3d86c923	0.065813325
4	0x3dcc31e5	0.09970454
5	0xbe2e1900	-0.17001724
6	0x3e151447	0.14558516
7	0x3e0fea6d	0.1405427
8	0x3d114564	0.035466567
9	0xbdd14790	-0.102187276
10	0xbd52ea50	-0.05149299
11	0xbd4f3014	-0.05058296
12	0xbd885990	-0.06657708
13	0x3deec9f6	0.11659615
14	0xbe31cf16	-0.17364153
15	0xbc202d8d	-0.009776485
16	0x3e259cae	0.1617305
17	0x3df38657	0.11890858
18	0xbe080e74	-0.13286763
19	0x3daea174	0.085268885
20	0xbe1ea6d9	-0.15493335
21	0xbe1cdfd5	-0.1531976
22	0x3e406fd6	0.18792662
23	0xbc341b3c	-0.010992821
24	0xbe33d433	-0.17561416
25	0xbe153c03	-0.14573674
26	0x3aac8d80	0.0013164729
27	0x3c4e7dfc	0.012603279
28	0x3e02190a	0.12704864
29	0xbd5df29e	-0.054186456
30	0x3db93938	0.09044117
31	0x3d628b91	0.055308882

fcn2.weight f4 [64, 32]
0	0x3dc7e000	0.097595215
1	0xbe335d72	-0.17516115
2	0xbdad9593	-0.08475795
3	0xbe0b4c71	-0.13603379
4	0x3d3e46b0	0.04645413
5	0xbdf804c4	-0.12110284
6	0xbdda576b	-0.10661205
7	0x3d0f4157	0.034974422
8	0x3d850ab1	0.0649618
9	0x3d818154	0.063234955
10	0x3e011e64	0.1260925
11	0xbe32609f	-0.1741967
12	0xbce085ad	-0.027407492
13	0x3e2715f1	0.16316964
14	0x3d2e72f8	0.04259011
15	0x3d8249c0	0.06361723
16	0x3e268e69	0.16265263
17	0x3de0ffc4	0.109862834
18	0xbe266db4	-0.16252786
19	0xbdae77f8	-0.08518976
20	0xbc0b6c40	-0.0085096955
21	0xbd82d614	-0.063884884
22	0x3e23ed4f	0.16008495
23	0xbde10cfd	-0.109888054
24	0x3c2b494f	0.01045449
25	0x3e059241	0.13044073
26	0xbe31e63c	-0.17372984
27	0xbde4103c	-0.11135909
28	0x3e296087	0.16540729
29	0xbe2a0399	-0.16602935
30	0x3e1906b2	0.1494396
31	0x3d8536b3	0.06504574
32	0xbe1ae1ea	-0.15125242
33	0x3e2d6758	0.16933954
34	0x3bd65911	0.0065413793
35	0x3ce328d7	0.027729435
36	0x3e10e46b	0.14149635
37	0x3d16b669	0.036795054
38	0x3d84d74d	0.06486378
39	0xbcf08c6e	-0.029363837
40	0xbe210d04	-0.15727621
41	0x3dc23a25	0.094837464
42	0x3db572cc	0.088597864
43	0xbca0687f	-0.019581078
44	0x3e15a786	0.14614686
45	0xbd6273c6	-0.05528619
46	0x3e094933	0.1340683
47	0x3aacec11	0.0013192912
48	0xbdf69a23	-0.12041118
49	0x3b18c885	0.0023312878
50	0x3e064f67	0.13116227
51	0xbda4d3f5	-0.0804824
52	0x3d545588	0.05183938
53	0x3e2d44a3	0.16920714
54	0x3db38f20	0.08767533
55	0x3d73733a	0.05943606
56	0xbdf7e1b7	-0.121035986
57	0x3daaab56	0.08333461
58	0x3e09ede7	0.13469659
59	0x3e2932ad	0.16523238
60	0xbdd5a56c	-0.10431942
61	0xbdf6fc3d	-0.120598294
62	0xbde6a1b4	-0.11261311
63	0xbdba5e89	-0.091000624
64	0xbdb39390	-0.0876838
65	0xbc696c4f	-0.014247014
66	0x3de8a63f	0.11359834
67	0xbe121bd4	-0.14268428
68	0x3e0613ce	0.13093492
69	0x3d17503b	0.036941748
70	0x3d168f7c	0.03675793
71	0x3dcc8d07	0.09987836
72	0x3e0aa8b2	0.13540915
73	0x3deafd2d	0.11474071
74	0xbe256d45	-0.16154964
75	0xbcc678bb	-0.02422749
76	0x3d8fdf2a	0.07024987
77	0xbe31f83b	-0.17379849
78	0xbe0ce870	-0.13760543
79	0x3df29602	0.11845018
80	0xbda3edc9	-0.08004338
81	0x3d521fb5	0.05129977
82	0x3da3a3cc	0.07990226
83	0x3e2ecbc1	0.17069913
84	0xbcfe3150	-0.031029373
85	0xbe305093	-0.17218237
86	0x3c95efeb	0.018302878
87	0xbded7793	-0.115950726
88	0x3cf2a862	0.029621307
89	0xbd83b4aa	-0.06430943
90	0xbe2aabe8	-0.1666714
91	0x3cf5305d	0.029930288
92	0x3dc4ae7c	0.09603593
93	0xbdc24b59	-0.09487028
94	0x3da0737a	0.078345254
95	0xbdc3b631	-0.09556235
96	0xbd64be01	-0.055845264
97	0xbb7303c8	-0.0037081111
98	0xbd23e729	-0.040015373
99	0x3cefe46a	0.029283721
100	0xbe370ddb	-0.17876379
101	0x3df983de	0.12183355
102	0xbe2c7386	-0.16840944
103	0x3cec93f1	0.028879138
104	0x3e17f7b0	0.14840579
105	0xbda693b0	-0.08133638
106	0xbe39328a	-0.18085685
107	0x3e16e403	0.14735417
108	0x3de63bb8	0.11241859
109	0xbe22007f	-0.15820502
110	0x3bfc8e40	0.007707387
111	0x3dd0a4fa	0.10187717
112	0xbe028335	-0.12745364
113	0xbcc235c3	-0.023707276
114	0x3defc283	0.11707022
115	0x3dc1b1ef	0.09457766
116	0xbba08ec0	-0.0048998296
117	0xbba37d80	-0.004989326
118	0x3e121870	0.14267135
119	0x3dbc07a0	0.09181142
120	0xbe2e0cd9	-0.16997088
121	0xbe23939f	-0.15974282
122	0xbd4404f4	-0.047856286
123	0xbdb3d77d	-0.087813355
124	0xbda8f2d9	-0.082494445
125	0x3c68d180	0.014210105
126	0x3ca95578	0.020670637
127	0x3e0f70ac	0.14007825
128	0x3d9ddc29	0.07708008
129	0x3d2f8266	0.042848967
130	0x3dbe3941	0.09288264
131	0xbe332491	-0.17494418
132	0xbd53e8ca	-0.051735677
133	0x3dff269b	0.12458535
134	0xbd125826	-0.035728596
135	0x3d07b174	0.033128217
136	0xbd440dae	-0.04786461
137	0x3ba7b3d8	0.0051178746
138	0xbd1dee13	-0.038557123
139	0x3e20a13d	0.15686508
140	0x3dda2a2a	0.106525734
141	0xbd1aa699	-0.037756536
142	0x3e069ed5	0.13146527
143	0xbda20a47	-0.079121165
144	0x3dbeb57b	0.093119584
145	0x3e30c1eb	0.17261474
146	0xbdb47ce2	-0.08812882
147	0x3dca859b	0.098887645
148	0xbdef6eaa	-0.11691029
149	0xbe2a05e0	-0.16603804
150	0x3e2c5c23	0.16832022
151	0x3d2efd5e	0.0427221
152	0xbde555a5	-0.11197976
153	0x3e234577	0.15944467
154	0x3daf1dde	0.085506186
155	0x3cfd9383	0.030954128
156	0xbcf636b3	-0.03005538
157	0x3d5bfb34	0.053706363
158	0xbe40e80e	-0.18838522
159	0xbe200370	-0.15626311
160	0xbe2fbbcd	-0.17161484
161	0xbc88523c	-0.016640775
162	0xbc9168b8	-0.01775013
163	0x3e0e0cdc	0.13872093
164	0xbe2d9493	-0.16951208
165	0x3d175d4f	0.03695422
166	0x3c5fd4cb	0.013661574
167	0x3e3bde35	0.18346484
168	0x3e1795b7	0.14803205
169	0xbe30da13	-0.17270689
170	0xbde0372e	-0.10948025
171	0xbb7c829f	-0.0038530005
172	0x3e1ee9ea	0.15518919
173	0x3d867a5a	0.065663055
174	0x3e08f38d	0.13374157
175	0xbd232859	-0.0398334
176	0xbdc6721f	-0.096897356
177	0x3df10ada	0.11769648
178	0x3dd46cfe	0.10372351
179	0x3d97759f	0.07395481
180	0xbd9b289b	-0.07576104
181	0x3e121b17	0.14268146
182	0x3e296ea3	0.16546111
183	0xbd8b218a	-0.067935064
184	0xbd29c10f	-0.04144388
185	0x3e0e1e89	0.13878836
186	0x3da48882	0.08033849
187	0x3e0bdd32	0.13658598
188	0x3cd85ff8	0.026412949
189	0xbe1b77b1	-0.15182377
190	0x3cda6c3f	0.026662944
191	0xbb2c554f	-0.0026295965
192	0x3e2f83e1	0.17140152
193	0x3bdfc560	0.006828949
194	0x3cbc91c0	0.023018718
195	0x3d88e7bc	0.06684825
196	0xbe1c84f8	-0.15285099
197	0xbd343168	-0.04399243
198	0xbe1574c0	-0.14595318
199	0xbe1955ce	-0.14974138
200	0x3d883be6	0.0665205
201	0xbd8aa5a2	-0.06769873
202	0xbdd5d213	-0.10440459
203	0xbe1e3e18	-0.15453374
204	0x3e325425	0.17414911
205	0xbe10a98e	-0.1412718
206	0xbe0c5670	-0.13704848
207	0xbe03bf61	-0.12865974
208	0xbd8c5867	-0.06852799
209	0x3cf3b018	0.029747054
210	0xbd102d4c	-0.03519945
211	0xbe02746c	-0.12739724
212	0x3df5a7ba	0.11994882
213	0xbdee4009	-0.116333075
214	0xbdde16cf	-0.10844194
215	0x3c954950	0.018223435
216	0xbd6988dc	-0.057015285
217	0xbde9e84a	-0.11421259
218	0xbe117c2c	-0.14207524
219	0x3db864d6	0.09003608
220	0x3cca48f8	0.024692997
221	0xbe27c3c7	-0.16383277
222	0xbd80c2b9	-0.062871404
223	0xbe095fe6	-0.13415489
224	0x3d9cfedd	0.07665799
225	0x3d22f3c6	0.03978326
226	0x3df6b867	0.12046891
227	0x3e134d59	0.14384975
228	0xbc5a1a9b	-0.013312007
229	0x3ca153a0	0.019693196
230	0xbdff6dfe	-0.12472151
231	0xbe1910df	-0.14947842
232	0xbc210da1	-0.00982991
233	0xbd078c00	-0.0330925
234	0x3db180c4	0.08667138
235	0x3cf2de12	0.029646907
236	0xbdd2654d	-0.10273228
237	0x3b6eb97c	0.0036426475
238	0xbdf6e980	-0.12056255
239	0xbb08a7ca	-0.0020851963
240	0x3e26e4e5	0.16298254
241	0xbd4a949b	-0.049458127
242	0xbe255e41	-0.16149236
243	0xbd34ead2	-0.044169255
244	0xbddad089	-0.10684306
245	0x3e0beea1	0.13665248
246	0x3dc07503	0.09397318
247	0xbe1ef189	-0.15521826
248	0xbb88396d	-0.0041572363
249	0xbcb6d198	-0.022316739
250	0x3dcb8a3e	0.09938477
251	0x3d98ff69	0.074705906
252	0x3daff3c5	0.08591417
253	0x3db14086	0.08654885
254	0xbdcdc7ea	-0.10047896
255	0x3ce3da86	0.027814161

fcn2.bias f4 [64]
0	0x3e30c330	0.17261958
1	0x3ca0c4fa	0.019625176
2	0x3e215cb5	0.15758021
3	0x3dd8e8be	0.10591267
4	0x3dacd0d5	0.08438269
5	0x3d882346	0.06647353
6	0xbe062993	-0.13101797
7	0xbd0b8c97	-0.034069624
8	0x3daafe15	0.083492436
9	0xbe2a3280	-0.16620827
10	0xbdbd22e3	-0.0923517
11	0xbe3039b4	-0.17209512
12	0x3ddda076	0.10821621
13	0x3dc8c192	0.098025456
14	0xbd8e0598	-0.06934661
15	0xbde2c514	-0.11072746
16	0xbe10d644	-0.14144236
17	0xbcff879a	-0.03119259
18	0x3d153153	0.036423992
19	0x3e09e01a	0.13464394
20	0xbe112e84	-0.141779
21	0xbca812c0	-0.020516753
22	0x3d7421d6	0.05960258
23	0xbde31c5d	-0.11089394
24	0xbd91783b	-0.0710301
25	0x3de4ebba	0.11177774
26	0xbe17b248	-0.14814103
27	0xbcfb7cff	-0.030699251
28	0xbc5293b2	-0.012852596
29	0x3d49607f	0.04916429
30	0x3e31ed8d	0.17375775
31	0xbd477e40	-0.048704386
32	0xbc9a826f	-0.018861024
33	0xbd9d1f32	-0.07671966
34	0x3e09b5d1	0.13448264
35	0x3e11ee63	0.14251094
36	0x3e26e618	0.16298711
37	0xbdbf11e4	-0.09329584
38	0x3e008799	0.12551726
39	0xbe200649	-0.15627398
40	0xbc40a2f0	-0.011757597
41	0xbd53425c	-0.051576957
42	0x3c71054f	0.014710738
43	0xbd406189	-0.046968017
44	0xbe06dbf5	-0.13169844
45	0xbdccd84c	-0.10002193
46	0xbc4848c6	-0.012224382
47	0xbdd6eaaa	-0.10493977
48	0xbd272cb6	-0.040814124
49	0xbda5c4d0	-0.0809418
50	0xbe09c849	-0.13455309
51	0x3e1fa269	0.15589298
52	0xbe257aed	-0.16160174
53	0x3d948bce	0.07253228
54	0xbe0cfae2	-0.13767579
55	0xbdf7de35	-0.121029295
56	0x3d0a4ad3	0.033762764
57	0x3e16701f	0.14691208
58	0xbd9bc0fb	-0.076051675
59	0xbce63538	-0.028101549
60	0x3dba1543	0.090860866
61	0x3e30dd0d	0.17271824
62	0x3dee6497	0.1164028
63	0xbe0f62ba	-0.14002505

fcn3.weight f4 [32, 64]
0	0x3df03fc4	0.11730912
1	0x3c8dbb8a	0.01730134
2	0x3a9172fa	0.0011096888
3	0x3d1f712a	0.03892628
4	0xbde5af68	-0.11215097
5	0x3bef2fae	0.007299385
6	0x3da95870	0.08268821
7	0x3d83a552	0.06428017
8	0x3df27b9c	0.11839983
9	0x3d2be9a0	0.04197085
10	0x3cb8fd6f	0.022581784
11	0x3c54add0	0.012980893
12	0xbbd483fe	-0.0064854613
13	0x3d94d754	0.07267633
14	0xbd27a257	-0.040926304
15	0x3dbb19f8	0.091358125
16	0xbdf94832	-0.12171973
17	0xbb39754a	-0.002829867
18	0x3c749cb1	0.014929936
19	0xbdd9a0ce	-0.10626374
20	0xbdd47b8c	-0.10375127
21	0x3d84a355	0.064764656
22	0xbd8c6fcc	-0.06857261
23	0x3de43066	0.11142044
24	0x3d8ea69c	0.06965372
25	0xbd075314	-0.033038214
26	0x3de6d86c	0.11271748
27	0xbdb2e9f3	-0.087360285
28	0xbdebdc1b	-0.11516591
29	0x3d25ce79	0.04048011
30	0xbdbdc544	-0.09266141
31	0x3dadcdbf	0.084865086
32	0x3d6e293c	0.058144793
33	0xbd13e950	-0.036111176
34	0x3cda2087	0.026626838
35	0xbde65ed0	-0.11248553
36	0xbc9bee73	-0.0190346
37	0xbd80fd58	-0.062983215
38	0xbde254be	-0.110513195
39	0x3cd01070	0.025398463
40	0xbd45c5c4	-0.048284307
41	0x3d30b5c4	0.043142095
42	0x3dad010b	0.084474646
43	0xbd111c4d	-0.03542738
44	0xbbf000d2	-0.0073243165
45	0x3dfe8d4c	0.12429294
46	0x3dc6a93f	0.0970025
47	0xbd23b8b8	-0.039971083
48	0xbd387455	-0.045032818
49	0xbc8fb238	-0.017541036
50	0xbd138464	-0.03601493
51	0x3d94cbd2	0.07265438
52	0x3dc90bf8	0.09816736
53	0x3acc8a9f	0.0015605277
54	0xbd920cd2	-0.071313515
55	0xbdbc2da8	-0.09188396
56	0x3d9554f0	0.07291591
57	0xb9bd5bc6	-0.00036117266
58	0xbdd9899b	-0.10621949
59	0xbdd28922	-0.10280062
60	0xbb52c6d6	-0.0032161972
61	0xbdc3059e	-0.09522556
62	0x3d71811d	0.058961023
63	0xbdb5d5cc	-0.08878669
64	0xbd0338e8	-0.032036692
65	0x3ca0ffd9	0.019653248
66	0x3cc288d1	0.02374688
67	0xbdc24686	-0.094861075
68	0x3dc593d1	0.09647334
69	0x3c504e7e	0.0127140265
70	0xbdd67496	-0.10471456
71	0x3dfb1713	0.122602604
72	0x3cfad36b	0.03061839
73	0xbcfddf30	-0.030990213
74	0xbd036be0	-0.0320853
75	0x3d97aa7c	0.07405564
76	0x3c1f5d90	0.009726897
77	0xbd65f23d	-0.05613922
78	0x3d8abec0	0.06774664
79	0x3da67938	0.081285894
80	0xbd983500	-0.07431984
81	0x3e06d8ca	0.13168636
82	0xbdf8fac7	-0.12157207
83	0xbdd54991	-0.10414422
84	0xbd1da038	-0.038482875
85	0xbe0c4429	-0.13697876
86	0x3d2cc6a1	0.042181615
87	0x3c8d9ed5	0.017287651
88	0x3d96b754	0.07359186
89	0x3d945120	0.07242036
90	0xbdf55d34	-0.11980668
91	0xbd895fdd	-0.067077376
92	0xbc3d2bbf	-0.011546074
93	0x3ddec3ee	0.10877214
94	0xbce7f623	-0.02831561
95	0xbc707695	-0.01467671
96	0x3db3cd86	0.08779435
97	0x3d1fb0b8	0.03898689
98	0xbcc20436	-0.023683649
99	0xbd938dcc	-0.0720478
100	0x3d91003f	0.07080125
101	0xbd128939	-0.035775397
102	0xbd0be2aa	-0.03415171
103	0x3cf774b8	0.030207023
104	0xbd94dbd4	-0.072684914
105	0x3decb7f8	0.11558527
106	0xbde863f5	-0.1134719
107	0xbd368c6f	-0.04456752
108	0xbe058730	-0.13039851
109	0xbc23e910	-0.010004297
110	0x3ccae0ca	0.02476539
111	0x3d214820	0.039375424
112	0xbce13f65	-0.02749605
113	0x3c91af38	0.017783746
114	0xbc5dfe10	-0.013549343
115	0x3d1a5bb4	0.03768511
116	0x3da49e70	0.08038032
117	0xbd4f11e3	-0.050554167
118	0xbc7f09a0	-0.01556626
119	0xbbc7a6ca	-0.006092881
120	0x3c797b69	0.015227177
121	0xbbc4fd17	-0.006011616
122	0xbc8f1cff	-0.017469881
123	0x3cb377d3	0.021907723
124	0xbd61f4d4	-0.055165127
125	0xbcd341bc	-0.02578818
126	0xbd058e26	-0.032606266
127	0x3d0eea48	0.034891397
128	0x3c958436	0.01825152
129	0xbe05e451	-0.13075377
130	0x3d6fe66e	0.058569364
131	0xbd4d33eb	-0.05009834
132	0x3d805747	0.06266647
133	0xbc212484	-0.009835366
134	0xbc237fb0	-0.009979174
135	0x3db4524c	0.088047594
136	0x3cea26f6	0.028583031
137	0x3d9e5426	0.07730894
138	0xbc80588e	-0.015667226
139	0x3df4e630	0.11957967
140	0xbd9a37ba	-0.0753016
141	0xbddab56c	-0.10679135
142	0xbd511833	-0.05104847
143	0x3baba060	0.005237624
144	0x3ca51d08	0.020155445
145	0xbda2c35d	-0.07947419
146	0xbdb465f4	-0.088085085
147	0x3c9521e6	0.01820464
148	0x3c7743c0	0.015091836
149	0xbd54a4a0	-0.05191481
150	0xbd10e243	-0.03537203
151	0xbb782e01	-0.0037869217
152	0xbdf9fdc8	-0.12206608
153	0x3ccf3ccf	0.02529755
154	0xbcbe91e8	-0.023262933
155	0xbc354073	-0.011062729
156	0x3b8915a8	0.00418349
157	0xbcd4d245	-0.02597917
158	0xbcea15c9	-0.028574841
159	0x3de5f411	0.112281926
160	0x3dda51d2	0.10660137
161	0x3ca8c9e8	0.020604089
162	0x3cb74059	0.02236955
163	0x3d37dd7a	0.04488895
164	0xbd096858	-0.033546776
165	0x3daa8d52	0.08327736
166	0x3cb06ab6	0.021535259
167	0x3de991ee	0.11404787
168	0x3c940a38	0.018071279
169	0x3c57de50	0.013175562
170	0x3c87665e	0.016528305
171	0xbb9e917f	-0.004839122
172	0xbe0b7986	-0.13620576
173	0xbd9aa1c8	-0.075503886
174	0xbcb107a7	-0.021610094
175	0xbd81d68e	-0.06339751
176	0xbcf71cfd	-0.03016519
177	0x3d06bfd4	0.032897785
178	0x3b9489a0	0.0045330077
179	0xbd263bb8	-0.040584296
180	0xbdac511e	-0.084139094
181	0xbb13dd81	-0.0022562447
182	0xbdd077b2	-0.1017908
183	0x3d18573d	0.037192572
184	0xbdb867be	-0.09004162
185	0x3b697f22	0.0035628756
186	0xbd0fe140	-0.035126925
187	0x3c4c6767	0.012475825
188	0x3c933e26	0.01797397
189	0xbce842ed	-0.028352225
190	0x3dcdef26	0.100553796
191	0x3da32822	0.07966639
192	0x3e04a002	0.12951663
193	0xbd911a91	-0.07085145
194	0xbe017c71	-0.12645127
195	0xbdf53e29	-0.11974747
196	0x3d7e3f07	0.062071826
197	0x3caae6ec	0.020862065
198	0xbdb3184e	-0.0874487
199	0x3d04650a	0.03232292
200	0x3e04be70	0.12963271
201	0x3da04d3a	0.0782723
202	0xbdbcaadb	-0.092122756
203	0x3c91e0d8	0.01780741
204	0x3d3061ef	0.043062147
205	0x3cce03b0	0.025148243
206	0x3de3df07	0.111265235
207	0x3d26501c	0.040603742
208	0xbda8a65e	-0.08234857
209	0xbdd4afd1	-0.10385097
210	0x3d93b07d	0.07211397
211	0x3c01b9fc	0.007917877
212	0x3db9b4f4	0.09067717
213	0xbdb252e3	-0.08707216
214	0x3d812fa3	0.06307914
215	0xbd76f50d	-0.060292292
216	0x3d166e20	0.036726117
217	0x3c4a555d	0.012349454
218	0xbd9be3b8	-0.07611793
219	0x3cf335ee	0.029688802
220	0xbc4ab7bb	-0.012372906
221	0x3c356211	0.011070744
222	0xbca393b0	-0.019967884
223	0xbc8137c3	-0.01577366
224	0xbdbbf2f5	-0.091772
225	0xba1eb900	-0.0006054789
226	0x3d294373	0.04132409
227	0x3c90c567	0.017672254
228	0x3d946c2d	0.072471954
229	0xbd56d45e	-0.052448623
230	0x3d2535ad	0.040334392
231	0xbd7de774	-0.06198831
232	0x3d0e0ee8	0.034682184
233	0xbdf9d1a4	-0.12198189
234	0x3bb06585	0.005383196
235	0xbc960dd4	-0.01831714
236	0xbd92f984	-0.071764976
237	0xbdedcbfe	-0.11611174
238	0x3dc757bb	0.0973353
239	0x3dc78bae	0.09743439
240	0x3db1bd66	0.08678703
241	0xbbbd23c0	-0.005772084
242	0x3d9233c6	0.07138781
243	0x3d830d2e	0.06398998
244	0xbdc20728	-0.09474021
245	0x3c35605f	0.01107034
246	0xbdda8a24	-0.106708795
247	0xbd614ed9	-0.055006836
248	0x3dd2f985	0.10301498
249	0xbcb45e47	-0.022017611
250	0x3d8b39dc	0.06798145
251	0xbdf52813	-0.11970534
252	0x3b4e3896	0.0031466833
253	0xbdd4ab05	-0.10384182
254	0x3dded1d8	0.10879868
255	0xbd408450	-0.047001183
